{"format": "graph-model", "generatedBy": "1.15.0-dev20190730", "convertedBy": "TensorFlow.js Converter v2.6.0", "userDefinedMetadata": {"signature": {"inputs": {"input_0:0": {"name": "input_0:0", "dtype": "DT_FLOAT", "tensorShape": {"dim": [{"size": "-1"}, {"size": "-1"}, {"size": "-1"}, {"size": "3"}]}}}, "outputs": {"Identity:0": {"name": "Identity:0", "dtype": "DT_FLOAT", "tensorShape": {"dim": [{"size": "-1"}, {"size": "-1"}, {"size": "-1"}, {"size": "3"}]}}}}}, "modelTopology": {"node": [{"name": "StatefulPartitionedCall/model/rrdb_net/conv2d_transpose_1/strided_slice/stack", "op": "Const", "attr": {"value": {"tensor": {"dtype": "DT_INT32", "tensorShape": {"dim": [{"size": "1"}]}}}, "dtype": {"type": "DT_INT32"}}}, {"name": "StatefulPartitionedCall/model/rrdb_net/conv2d_transpose_1/strided_slice/stack_1", "op": "Const", "attr": {"dtype": {"type": "DT_INT32"}, "value": {"tensor": {"dtype": "DT_INT32", "tensorShape": {"dim": [{"size": "1"}]}}}}}, {"name": "StatefulPartitionedCall/model/rrdb_net/conv2d_transpose_1/strided_slice/stack_2", "op": "Const", "attr": {"value": {"tensor": {"dtype": "DT_INT32", "tensorShape": {"dim": [{"size": "1"}]}}}, "dtype": {"type": "DT_INT32"}}}, {"name": "StatefulPartitionedCall/model/rrdb_net/conv2d_transpose_1/strided_slice_1/stack", "op": "Const", "attr": {"dtype": {"type": "DT_INT32"}, "value": {"tensor": {"dtype": "DT_INT32", "tensorShape": {"dim": [{"size": "1"}]}}}}}, {"name": "StatefulPartitionedCall/model/rrdb_net/conv2d_transpose_1/strided_slice_1/stack_1", "op": "Const", "attr": {"value": {"tensor": {"dtype": "DT_INT32", "tensorShape": {"dim": [{"size": "1"}]}}}, "dtype": {"type": "DT_INT32"}}}, {"name": "StatefulPartitionedCall/model/rrdb_net/conv2d_transpose_1/strided_slice_1/stack_2", "op": "Const", "attr": {"dtype": {"type": "DT_INT32"}, "value": {"tensor": {"dtype": "DT_INT32", "tensorShape": {"dim": [{"size": "1"}]}}}}}, {"name": "StatefulPartitionedCall/model/rrdb_net/conv2d_transpose_1/mul/y", "op": "Const", "attr": {"dtype": {"type": "DT_INT32"}, "value": {"tensor": {"dtype": "DT_INT32", "tensorShape": {}}}}}, {"name": "StatefulPartitionedCall/model/rrdb_net/conv2d_transpose_1/strided_slice_2/stack", "op": "Const", "attr": {"value": {"tensor": {"dtype": "DT_INT32", "tensorShape": {"dim": [{"size": "1"}]}}}, "dtype": {"type": "DT_INT32"}}}, {"name": "StatefulPartitionedCall/model/rrdb_net/conv2d_transpose_1/strided_slice_2/stack_1", "op": "Const", "attr": {"dtype": {"type": "DT_INT32"}, "value": {"tensor": {"dtype": "DT_INT32", "tensorShape": {"dim": [{"size": "1"}]}}}}}, {"name": "StatefulPartitionedCall/model/rrdb_net/conv2d_transpose_1/strided_slice_2/stack_2", "op": "Const", "attr": {"value": {"tensor": {"dtype": "DT_INT32", "tensorShape": {"dim": [{"size": "1"}]}}}, "dtype": {"type": "DT_INT32"}}}, {"name": "StatefulPartitionedCall/model/rrdb_net/conv2d_transpose_1/mul_1/y", "op": "Const", "attr": {"value": {"tensor": {"dtype": "DT_INT32", "tensorShape": {}}}, "dtype": {"type": "DT_INT32"}}}, {"name": "StatefulPartitionedCall/model/rrdb_net/conv2d_transpose_1/stack/3", "op": "Const", "attr": {"value": {"tensor": {"dtype": "DT_INT32", "tensorShape": {}}}, "dtype": {"type": "DT_INT32"}}}, {"name": "StatefulPartitionedCall/model/rrdb_net/conv2d_transpose_1/conv2d_transpose/ReadVariableOp", "op": "Const", "attr": {"value": {"tensor": {"dtype": "DT_FLOAT", "tensorShape": {"dim": [{"size": "3"}, {"size": "3"}, {"size": "32"}, {"size": "32"}]}}}, "dtype": {"type": "DT_FLOAT"}}}, {"name": "StatefulPartitionedCall/model/rrdb_net/conv2d_transpose/strided_slice/stack", "op": "Const", "attr": {"dtype": {"type": "DT_INT32"}, "value": {"tensor": {"dtype": "DT_INT32", "tensorShape": {"dim": [{"size": "1"}]}}}}}, {"name": "StatefulPartitionedCall/model/rrdb_net/conv2d_transpose/strided_slice/stack_1", "op": "Const", "attr": {"value": {"tensor": {"dtype": "DT_INT32", "tensorShape": {"dim": [{"size": "1"}]}}}, "dtype": {"type": "DT_INT32"}}}, {"name": "StatefulPartitionedCall/model/rrdb_net/conv2d_transpose/strided_slice/stack_2", "op": "Const", "attr": {"value": {"tensor": {"dtype": "DT_INT32", "tensorShape": {"dim": [{"size": "1"}]}}}, "dtype": {"type": "DT_INT32"}}}, {"name": "StatefulPartitionedCall/model/rrdb_net/conv2d_transpose/strided_slice_1/stack", "op": "Const", "attr": {"dtype": {"type": "DT_INT32"}, "value": {"tensor": {"dtype": "DT_INT32", "tensorShape": {"dim": [{"size": "1"}]}}}}}, {"name": "StatefulPartitionedCall/model/rrdb_net/conv2d_transpose/strided_slice_1/stack_1", "op": "Const", "attr": {"value": {"tensor": {"dtype": "DT_INT32", "tensorShape": {"dim": [{"size": "1"}]}}}, "dtype": {"type": "DT_INT32"}}}, {"name": "StatefulPartitionedCall/model/rrdb_net/conv2d_transpose/strided_slice_1/stack_2", "op": "Const", "attr": {"dtype": {"type": "DT_INT32"}, "value": {"tensor": {"dtype": "DT_INT32", "tensorShape": {"dim": [{"size": "1"}]}}}}}, {"name": "StatefulPartitionedCall/model/rrdb_net/conv2d_transpose/mul/y", "op": "Const", "attr": {"dtype": {"type": "DT_INT32"}, "value": {"tensor": {"dtype": "DT_INT32", "tensorShape": {}}}}}, {"name": "StatefulPartitionedCall/model/rrdb_net/conv2d_transpose/strided_slice_2/stack", "op": "Const", "attr": {"value": {"tensor": {"dtype": "DT_INT32", "tensorShape": {"dim": [{"size": "1"}]}}}, "dtype": {"type": "DT_INT32"}}}, {"name": "StatefulPartitionedCall/model/rrdb_net/conv2d_transpose/strided_slice_2/stack_1", "op": "Const", "attr": {"dtype": {"type": "DT_INT32"}, "value": {"tensor": {"dtype": "DT_INT32", "tensorShape": {"dim": [{"size": "1"}]}}}}}, {"name": "StatefulPartitionedCall/model/rrdb_net/conv2d_transpose/strided_slice_2/stack_2", "op": "Const", "attr": {"dtype": {"type": "DT_INT32"}, "value": {"tensor": {"dtype": "DT_INT32", "tensorShape": {"dim": [{"size": "1"}]}}}}}, {"name": "StatefulPartitionedCall/model/rrdb_net/conv2d_transpose/mul_1/y", "op": "Const", "attr": {"value": {"tensor": {"dtype": "DT_INT32", "tensorShape": {}}}, "dtype": {"type": "DT_INT32"}}}, {"name": "StatefulPartitionedCall/model/rrdb_net/conv2d_transpose/stack/3", "op": "Const", "attr": {"dtype": {"type": "DT_INT32"}, "value": {"tensor": {"dtype": "DT_INT32", "tensorShape": {}}}}}, {"name": "StatefulPartitionedCall/model/rrdb_net/conv2d_transpose/conv2d_transpose/ReadVariableOp", "op": "Const", "attr": {"dtype": {"type": "DT_FLOAT"}, "value": {"tensor": {"dtype": "DT_FLOAT", "tensorShape": {"dim": [{"size": "3"}, {"size": "3"}, {"size": "32"}, {"size": "32"}]}}}}}, {"name": "StatefulPartitionedCall/model/rrdb_net/sequential/rrdb_10/mul/x", "op": "Const", "attr": {"value": {"tensor": {"dtype": "DT_FLOAT", "tensorShape": {}}}, "dtype": {"type": "DT_FLOAT"}}}, {"name": "StatefulPartitionedCall/model/rrdb_net/sequential/rrdb_10/rdb_32/mul/x", "op": "Const", "attr": {"dtype": {"type": "DT_FLOAT"}, "value": {"tensor": {"dtype": "DT_FLOAT", "tensorShape": {}}}}}, {"name": "StatefulPartitionedCall/model/rrdb_net/sequential/rrdb_10/rdb_31/mul/x", "op": "Const", "attr": {"dtype": {"type": "DT_FLOAT"}, "value": {"tensor": {"dtype": "DT_FLOAT", "tensorShape": {}}}}}, {"name": "StatefulPartitionedCall/model/rrdb_net/sequential/rrdb_10/rdb_30/mul/x", "op": "Const", "attr": {"dtype": {"type": "DT_FLOAT"}, "value": {"tensor": {"dtype": "DT_FLOAT", "tensorShape": {}}}}}, {"name": "StatefulPartitionedCall/model/rrdb_net/sequential/rrdb_9/mul/x", "op": "Const", "attr": {"dtype": {"type": "DT_FLOAT"}, "value": {"tensor": {"dtype": "DT_FLOAT", "tensorShape": {}}}}}, {"name": "StatefulPartitionedCall/model/rrdb_net/sequential/rrdb_9/rdb_29/mul/x", "op": "Const", "attr": {"value": {"tensor": {"dtype": "DT_FLOAT", "tensorShape": {}}}, "dtype": {"type": "DT_FLOAT"}}}, {"name": "StatefulPartitionedCall/model/rrdb_net/sequential/rrdb_9/rdb_28/mul/x", "op": "Const", "attr": {"value": {"tensor": {"dtype": "DT_FLOAT", "tensorShape": {}}}, "dtype": {"type": "DT_FLOAT"}}}, {"name": "StatefulPartitionedCall/model/rrdb_net/sequential/rrdb_9/rdb_27/mul/x", "op": "Const", "attr": {"dtype": {"type": "DT_FLOAT"}, "value": {"tensor": {"dtype": "DT_FLOAT", "tensorShape": {}}}}}, {"name": "StatefulPartitionedCall/model/rrdb_net/sequential/rrdb_8/mul/x", "op": "Const", "attr": {"dtype": {"type": "DT_FLOAT"}, "value": {"tensor": {"dtype": "DT_FLOAT", "tensorShape": {}}}}}, {"name": "StatefulPartitionedCall/model/rrdb_net/sequential/rrdb_8/rdb_26/mul/x", "op": "Const", "attr": {"value": {"tensor": {"dtype": "DT_FLOAT", "tensorShape": {}}}, "dtype": {"type": "DT_FLOAT"}}}, {"name": "StatefulPartitionedCall/model/rrdb_net/sequential/rrdb_8/rdb_25/mul/x", "op": "Const", "attr": {"value": {"tensor": {"dtype": "DT_FLOAT", "tensorShape": {}}}, "dtype": {"type": "DT_FLOAT"}}}, {"name": "StatefulPartitionedCall/model/rrdb_net/sequential/rrdb_8/rdb_24/mul/x", "op": "Const", "attr": {"dtype": {"type": "DT_FLOAT"}, "value": {"tensor": {"dtype": "DT_FLOAT", "tensorShape": {}}}}}, {"name": "StatefulPartitionedCall/model/rrdb_net/sequential/rrdb_7/mul/x", "op": "Const", "attr": {"dtype": {"type": "DT_FLOAT"}, "value": {"tensor": {"dtype": "DT_FLOAT", "tensorShape": {}}}}}, {"name": "StatefulPartitionedCall/model/rrdb_net/sequential/rrdb_7/rdb_23/mul/x", "op": "Const", "attr": {"dtype": {"type": "DT_FLOAT"}, "value": {"tensor": {"dtype": "DT_FLOAT", "tensorShape": {}}}}}, {"name": "StatefulPartitionedCall/model/rrdb_net/sequential/rrdb_7/rdb_22/mul/x", "op": "Const", "attr": {"dtype": {"type": "DT_FLOAT"}, "value": {"tensor": {"dtype": "DT_FLOAT", "tensorShape": {}}}}}, {"name": "StatefulPartitionedCall/model/rrdb_net/sequential/rrdb_7/rdb_21/mul/x", "op": "Const", "attr": {"value": {"tensor": {"dtype": "DT_FLOAT", "tensorShape": {}}}, "dtype": {"type": "DT_FLOAT"}}}, {"name": "StatefulPartitionedCall/model/rrdb_net/sequential/rrdb_6/mul/x", "op": "Const", "attr": {"dtype": {"type": "DT_FLOAT"}, "value": {"tensor": {"dtype": "DT_FLOAT", "tensorShape": {}}}}}, {"name": "StatefulPartitionedCall/model/rrdb_net/sequential/rrdb_6/rdb_20/mul/x", "op": "Const", "attr": {"value": {"tensor": {"dtype": "DT_FLOAT", "tensorShape": {}}}, "dtype": {"type": "DT_FLOAT"}}}, {"name": "StatefulPartitionedCall/model/rrdb_net/sequential/rrdb_6/rdb_19/mul/x", "op": "Const", "attr": {"value": {"tensor": {"dtype": "DT_FLOAT", "tensorShape": {}}}, "dtype": {"type": "DT_FLOAT"}}}, {"name": "StatefulPartitionedCall/model/rrdb_net/sequential/rrdb_6/rdb_18/mul/x", "op": "Const", "attr": {"dtype": {"type": "DT_FLOAT"}, "value": {"tensor": {"dtype": "DT_FLOAT", "tensorShape": {}}}}}, {"name": "StatefulPartitionedCall/model/rrdb_net/sequential/rrdb_5/mul/x", "op": "Const", "attr": {"dtype": {"type": "DT_FLOAT"}, "value": {"tensor": {"dtype": "DT_FLOAT", "tensorShape": {}}}}}, {"name": "StatefulPartitionedCall/model/rrdb_net/sequential/rrdb_5/rdb_17/mul/x", "op": "Const", "attr": {"dtype": {"type": "DT_FLOAT"}, "value": {"tensor": {"dtype": "DT_FLOAT", "tensorShape": {}}}}}, {"name": "StatefulPartitionedCall/model/rrdb_net/sequential/rrdb_5/rdb_16/mul/x", "op": "Const", "attr": {"value": {"tensor": {"dtype": "DT_FLOAT", "tensorShape": {}}}, "dtype": {"type": "DT_FLOAT"}}}, {"name": "StatefulPartitionedCall/model/rrdb_net/sequential/rrdb_5/rdb_15/mul/x", "op": "Const", "attr": {"dtype": {"type": "DT_FLOAT"}, "value": {"tensor": {"dtype": "DT_FLOAT", "tensorShape": {}}}}}, {"name": "StatefulPartitionedCall/model/rrdb_net/sequential/rrdb_4/mul/x", "op": "Const", "attr": {"value": {"tensor": {"dtype": "DT_FLOAT", "tensorShape": {}}}, "dtype": {"type": "DT_FLOAT"}}}, {"name": "StatefulPartitionedCall/model/rrdb_net/sequential/rrdb_4/rdb_14/mul/x", "op": "Const", "attr": {"dtype": {"type": "DT_FLOAT"}, "value": {"tensor": {"dtype": "DT_FLOAT", "tensorShape": {}}}}}, {"name": "StatefulPartitionedCall/model/rrdb_net/sequential/rrdb_4/rdb_13/mul/x", "op": "Const", "attr": {"value": {"tensor": {"dtype": "DT_FLOAT", "tensorShape": {}}}, "dtype": {"type": "DT_FLOAT"}}}, {"name": "StatefulPartitionedCall/model/rrdb_net/sequential/rrdb_4/rdb_12/mul/x", "op": "Const", "attr": {"value": {"tensor": {"dtype": "DT_FLOAT", "tensorShape": {}}}, "dtype": {"type": "DT_FLOAT"}}}, {"name": "StatefulPartitionedCall/model/rrdb_net/sequential/rrdb_3/mul/x", "op": "Const", "attr": {"dtype": {"type": "DT_FLOAT"}, "value": {"tensor": {"dtype": "DT_FLOAT", "tensorShape": {}}}}}, {"name": "StatefulPartitionedCall/model/rrdb_net/sequential/rrdb_3/rdb_11/mul/x", "op": "Const", "attr": {"dtype": {"type": "DT_FLOAT"}, "value": {"tensor": {"dtype": "DT_FLOAT", "tensorShape": {}}}}}, {"name": "StatefulPartitionedCall/model/rrdb_net/sequential/rrdb_3/rdb_10/mul/x", "op": "Const", "attr": {"value": {"tensor": {"dtype": "DT_FLOAT", "tensorShape": {}}}, "dtype": {"type": "DT_FLOAT"}}}, {"name": "StatefulPartitionedCall/model/rrdb_net/sequential/rrdb_3/rdb_9/mul/x", "op": "Const", "attr": {"dtype": {"type": "DT_FLOAT"}, "value": {"tensor": {"dtype": "DT_FLOAT", "tensorShape": {}}}}}, {"name": "StatefulPartitionedCall/model/rrdb_net/sequential/rrdb_2/mul/x", "op": "Const", "attr": {"value": {"tensor": {"dtype": "DT_FLOAT", "tensorShape": {}}}, "dtype": {"type": "DT_FLOAT"}}}, {"name": "StatefulPartitionedCall/model/rrdb_net/sequential/rrdb_2/rdb_8/mul/x", "op": "Const", "attr": {"dtype": {"type": "DT_FLOAT"}, "value": {"tensor": {"dtype": "DT_FLOAT", "tensorShape": {}}}}}, {"name": "StatefulPartitionedCall/model/rrdb_net/sequential/rrdb_2/rdb_7/mul/x", "op": "Const", "attr": {"value": {"tensor": {"dtype": "DT_FLOAT", "tensorShape": {}}}, "dtype": {"type": "DT_FLOAT"}}}, {"name": "StatefulPartitionedCall/model/rrdb_net/sequential/rrdb_2/rdb_6/mul/x", "op": "Const", "attr": {"value": {"tensor": {"dtype": "DT_FLOAT", "tensorShape": {}}}, "dtype": {"type": "DT_FLOAT"}}}, {"name": "StatefulPartitionedCall/model/rrdb_net/sequential/rrdb_1/mul/x", "op": "Const", "attr": {"dtype": {"type": "DT_FLOAT"}, "value": {"tensor": {"dtype": "DT_FLOAT", "tensorShape": {}}}}}, {"name": "StatefulPartitionedCall/model/rrdb_net/sequential/rrdb_1/rdb_5/mul/x", "op": "Const", "attr": {"dtype": {"type": "DT_FLOAT"}, "value": {"tensor": {"dtype": "DT_FLOAT", "tensorShape": {}}}}}, {"name": "StatefulPartitionedCall/model/rrdb_net/sequential/rrdb_1/rdb_4/mul/x", "op": "Const", "attr": {"value": {"tensor": {"dtype": "DT_FLOAT", "tensorShape": {}}}, "dtype": {"type": "DT_FLOAT"}}}, {"name": "StatefulPartitionedCall/model/rrdb_net/sequential/rrdb_1/rdb_3/mul/x", "op": "Const", "attr": {"value": {"tensor": {"dtype": "DT_FLOAT", "tensorShape": {}}}, "dtype": {"type": "DT_FLOAT"}}}, {"name": "StatefulPartitionedCall/model/rrdb_net/sequential/rrdb/mul/x", "op": "Const", "attr": {"value": {"tensor": {"dtype": "DT_FLOAT", "tensorShape": {}}}, "dtype": {"type": "DT_FLOAT"}}}, {"name": "StatefulPartitionedCall/model/rrdb_net/sequential/rrdb/rdb_2/mul/x", "op": "Const", "attr": {"dtype": {"type": "DT_FLOAT"}, "value": {"tensor": {"dtype": "DT_FLOAT", "tensorShape": {}}}}}, {"name": "StatefulPartitionedCall/model/rrdb_net/sequential/rrdb/rdb_1/mul/x", "op": "Const", "attr": {"value": {"tensor": {"dtype": "DT_FLOAT", "tensorShape": {}}}, "dtype": {"type": "DT_FLOAT"}}}, {"name": "StatefulPartitionedCall/model/rrdb_net/sequential/rrdb/rdb/mul/x", "op": "Const", "attr": {"dtype": {"type": "DT_FLOAT"}, "value": {"tensor": {"dtype": "DT_FLOAT", "tensorShape": {}}}}}, {"name": "StatefulPartitionedCall/model/rrdb_net/sequential/rrdb/rdb/conv2d_9/Conv2D/ReadVariableOp", "op": "Const", "attr": {"dtype": {"type": "DT_FLOAT"}, "value": {"tensor": {"dtype": "DT_FLOAT", "tensorShape": {"dim": [{"size": "3"}, {"size": "3"}, {"size": "32"}, {"size": "32"}]}}}}}, {"name": "StatefulPartitionedCall/model/rrdb_net/sequential/rrdb/rdb/conv2d_9/BiasAdd/ReadVariableOp", "op": "Const", "attr": {"dtype": {"type": "DT_FLOAT"}, "value": {"tensor": {"dtype": "DT_FLOAT", "tensorShape": {"dim": [{"size": "32"}]}}}}}, {"name": "StatefulPartitionedCall/model/rrdb_net/sequential/rrdb/rdb/concat/axis", "op": "Const", "attr": {"value": {"tensor": {"dtype": "DT_INT32", "tensorShape": {}}}, "dtype": {"type": "DT_INT32"}}}, {"name": "StatefulPartitionedCall/model/rrdb_net/sequential/rrdb/rdb/conv2d_10/Conv2D/ReadVariableOp", "op": "Const", "attr": {"value": {"tensor": {"dtype": "DT_FLOAT", "tensorShape": {"dim": [{"size": "3"}, {"size": "3"}, {"size": "64"}, {"size": "32"}]}}}, "dtype": {"type": "DT_FLOAT"}}}, {"name": "StatefulPartitionedCall/model/rrdb_net/sequential/rrdb/rdb/conv2d_10/BiasAdd/ReadVariableOp", "op": "Const", "attr": {"value": {"tensor": {"dtype": "DT_FLOAT", "tensorShape": {"dim": [{"size": "32"}]}}}, "dtype": {"type": "DT_FLOAT"}}}, {"name": "StatefulPartitionedCall/model/rrdb_net/sequential/rrdb/rdb/concat_1/axis", "op": "Const", "attr": {"dtype": {"type": "DT_INT32"}, "value": {"tensor": {"dtype": "DT_INT32", "tensorShape": {}}}}}, {"name": "StatefulPartitionedCall/model/rrdb_net/sequential/rrdb/rdb/conv2d_11/Conv2D/ReadVariableOp", "op": "Const", "attr": {"value": {"tensor": {"dtype": "DT_FLOAT", "tensorShape": {"dim": [{"size": "3"}, {"size": "3"}, {"size": "96"}, {"size": "32"}]}}}, "dtype": {"type": "DT_FLOAT"}}}, {"name": "StatefulPartitionedCall/model/rrdb_net/sequential/rrdb/rdb/conv2d_11/BiasAdd/ReadVariableOp", "op": "Const", "attr": {"dtype": {"type": "DT_FLOAT"}, "value": {"tensor": {"dtype": "DT_FLOAT", "tensorShape": {"dim": [{"size": "32"}]}}}}}, {"name": "StatefulPartitionedCall/model/rrdb_net/sequential/rrdb/rdb/concat_2/axis", "op": "Const", "attr": {"value": {"tensor": {"dtype": "DT_INT32", "tensorShape": {}}}, "dtype": {"type": "DT_INT32"}}}, {"name": "StatefulPartitionedCall/model/rrdb_net/sequential/rrdb/rdb/conv2d_12/Conv2D/ReadVariableOp", "op": "Const", "attr": {"dtype": {"type": "DT_FLOAT"}, "value": {"tensor": {"dtype": "DT_FLOAT", "tensorShape": {"dim": [{"size": "3"}, {"size": "3"}, {"size": "128"}, {"size": "32"}]}}}}}, {"name": "StatefulPartitionedCall/model/rrdb_net/sequential/rrdb/rdb/conv2d_12/BiasAdd/ReadVariableOp", "op": "Const", "attr": {"value": {"tensor": {"dtype": "DT_FLOAT", "tensorShape": {"dim": [{"size": "32"}]}}}, "dtype": {"type": "DT_FLOAT"}}}, {"name": "StatefulPartitionedCall/model/rrdb_net/sequential/rrdb/rdb/concat_3/axis", "op": "Const", "attr": {"value": {"tensor": {"dtype": "DT_INT32", "tensorShape": {}}}, "dtype": {"type": "DT_INT32"}}}, {"name": "StatefulPartitionedCall/model/rrdb_net/sequential/rrdb/rdb/conv2d_13/Conv2D/ReadVariableOp", "op": "Const", "attr": {"value": {"tensor": {"dtype": "DT_FLOAT", "tensorShape": {"dim": [{"size": "3"}, {"size": "3"}, {"size": "160"}, {"size": "32"}]}}}, "dtype": {"type": "DT_FLOAT"}}}, {"name": "StatefulPartitionedCall/model/rrdb_net/sequential/rrdb/rdb/conv2d_13/BiasAdd/ReadVariableOp", "op": "Const", "attr": {"dtype": {"type": "DT_FLOAT"}, "value": {"tensor": {"dtype": "DT_FLOAT", "tensorShape": {"dim": [{"size": "32"}]}}}}}, {"name": "StatefulPartitionedCall/model/rrdb_net/sequential/rrdb/rdb_1/conv2d_14/Conv2D/ReadVariableOp", "op": "Const", "attr": {"dtype": {"type": "DT_FLOAT"}, "value": {"tensor": {"dtype": "DT_FLOAT", "tensorShape": {"dim": [{"size": "3"}, {"size": "3"}, {"size": "32"}, {"size": "32"}]}}}}}, {"name": "StatefulPartitionedCall/model/rrdb_net/sequential/rrdb/rdb_1/conv2d_14/BiasAdd/ReadVariableOp", "op": "Const", "attr": {"value": {"tensor": {"dtype": "DT_FLOAT", "tensorShape": {"dim": [{"size": "32"}]}}}, "dtype": {"type": "DT_FLOAT"}}}, {"name": "StatefulPartitionedCall/model/rrdb_net/sequential/rrdb/rdb_1/concat/axis", "op": "Const", "attr": {"dtype": {"type": "DT_INT32"}, "value": {"tensor": {"dtype": "DT_INT32", "tensorShape": {}}}}}, {"name": "StatefulPartitionedCall/model/rrdb_net/sequential/rrdb/rdb_1/conv2d_15/Conv2D/ReadVariableOp", "op": "Const", "attr": {"dtype": {"type": "DT_FLOAT"}, "value": {"tensor": {"dtype": "DT_FLOAT", "tensorShape": {"dim": [{"size": "3"}, {"size": "3"}, {"size": "64"}, {"size": "32"}]}}}}}, {"name": "StatefulPartitionedCall/model/rrdb_net/sequential/rrdb/rdb_1/conv2d_15/BiasAdd/ReadVariableOp", "op": "Const", "attr": {"value": {"tensor": {"dtype": "DT_FLOAT", "tensorShape": {"dim": [{"size": "32"}]}}}, "dtype": {"type": "DT_FLOAT"}}}, {"name": "StatefulPartitionedCall/model/rrdb_net/sequential/rrdb/rdb_1/concat_1/axis", "op": "Const", "attr": {"dtype": {"type": "DT_INT32"}, "value": {"tensor": {"dtype": "DT_INT32", "tensorShape": {}}}}}, {"name": "StatefulPartitionedCall/model/rrdb_net/sequential/rrdb/rdb_1/conv2d_16/Conv2D/ReadVariableOp", "op": "Const", "attr": {"dtype": {"type": "DT_FLOAT"}, "value": {"tensor": {"dtype": "DT_FLOAT", "tensorShape": {"dim": [{"size": "3"}, {"size": "3"}, {"size": "96"}, {"size": "32"}]}}}}}, {"name": "StatefulPartitionedCall/model/rrdb_net/sequential/rrdb/rdb_1/conv2d_16/BiasAdd/ReadVariableOp", "op": "Const", "attr": {"value": {"tensor": {"dtype": "DT_FLOAT", "tensorShape": {"dim": [{"size": "32"}]}}}, "dtype": {"type": "DT_FLOAT"}}}, {"name": "StatefulPartitionedCall/model/rrdb_net/sequential/rrdb/rdb_1/concat_2/axis", "op": "Const", "attr": {"value": {"tensor": {"dtype": "DT_INT32", "tensorShape": {}}}, "dtype": {"type": "DT_INT32"}}}, {"name": "StatefulPartitionedCall/model/rrdb_net/sequential/rrdb/rdb_1/conv2d_17/Conv2D/ReadVariableOp", "op": "Const", "attr": {"value": {"tensor": {"dtype": "DT_FLOAT", "tensorShape": {"dim": [{"size": "3"}, {"size": "3"}, {"size": "128"}, {"size": "32"}]}}}, "dtype": {"type": "DT_FLOAT"}}}, {"name": "StatefulPartitionedCall/model/rrdb_net/sequential/rrdb/rdb_1/conv2d_17/BiasAdd/ReadVariableOp", "op": "Const", "attr": {"dtype": {"type": "DT_FLOAT"}, "value": {"tensor": {"dtype": "DT_FLOAT", "tensorShape": {"dim": [{"size": "32"}]}}}}}, {"name": "StatefulPartitionedCall/model/rrdb_net/sequential/rrdb/rdb_1/concat_3/axis", "op": "Const", "attr": {"value": {"tensor": {"dtype": "DT_INT32", "tensorShape": {}}}, "dtype": {"type": "DT_INT32"}}}, {"name": "StatefulPartitionedCall/model/rrdb_net/sequential/rrdb/rdb_1/conv2d_18/Conv2D/ReadVariableOp", "op": "Const", "attr": {"value": {"tensor": {"dtype": "DT_FLOAT", "tensorShape": {"dim": [{"size": "3"}, {"size": "3"}, {"size": "160"}, {"size": "32"}]}}}, "dtype": {"type": "DT_FLOAT"}}}, {"name": "StatefulPartitionedCall/model/rrdb_net/sequential/rrdb/rdb_1/conv2d_18/BiasAdd/ReadVariableOp", "op": "Const", "attr": {"dtype": {"type": "DT_FLOAT"}, "value": {"tensor": {"dtype": "DT_FLOAT", "tensorShape": {"dim": [{"size": "32"}]}}}}}, {"name": "StatefulPartitionedCall/model/rrdb_net/sequential/rrdb/rdb_2/conv2d_19/Conv2D/ReadVariableOp", "op": "Const", "attr": {"value": {"tensor": {"dtype": "DT_FLOAT", "tensorShape": {"dim": [{"size": "3"}, {"size": "3"}, {"size": "32"}, {"size": "32"}]}}}, "dtype": {"type": "DT_FLOAT"}}}, {"name": "StatefulPartitionedCall/model/rrdb_net/sequential/rrdb/rdb_2/conv2d_19/BiasAdd/ReadVariableOp", "op": "Const", "attr": {"dtype": {"type": "DT_FLOAT"}, "value": {"tensor": {"dtype": "DT_FLOAT", "tensorShape": {"dim": [{"size": "32"}]}}}}}, {"name": "StatefulPartitionedCall/model/rrdb_net/sequential/rrdb/rdb_2/concat/axis", "op": "Const", "attr": {"value": {"tensor": {"dtype": "DT_INT32", "tensorShape": {}}}, "dtype": {"type": "DT_INT32"}}}, {"name": "StatefulPartitionedCall/model/rrdb_net/sequential/rrdb/rdb_2/conv2d_20/Conv2D/ReadVariableOp", "op": "Const", "attr": {"value": {"tensor": {"dtype": "DT_FLOAT", "tensorShape": {"dim": [{"size": "3"}, {"size": "3"}, {"size": "64"}, {"size": "32"}]}}}, "dtype": {"type": "DT_FLOAT"}}}, {"name": "StatefulPartitionedCall/model/rrdb_net/sequential/rrdb/rdb_2/conv2d_20/BiasAdd/ReadVariableOp", "op": "Const", "attr": {"dtype": {"type": "DT_FLOAT"}, "value": {"tensor": {"dtype": "DT_FLOAT", "tensorShape": {"dim": [{"size": "32"}]}}}}}, {"name": "StatefulPartitionedCall/model/rrdb_net/sequential/rrdb/rdb_2/concat_1/axis", "op": "Const", "attr": {"dtype": {"type": "DT_INT32"}, "value": {"tensor": {"dtype": "DT_INT32", "tensorShape": {}}}}}, {"name": "StatefulPartitionedCall/model/rrdb_net/sequential/rrdb/rdb_2/conv2d_21/Conv2D/ReadVariableOp", "op": "Const", "attr": {"value": {"tensor": {"dtype": "DT_FLOAT", "tensorShape": {"dim": [{"size": "3"}, {"size": "3"}, {"size": "96"}, {"size": "32"}]}}}, "dtype": {"type": "DT_FLOAT"}}}, {"name": "StatefulPartitionedCall/model/rrdb_net/sequential/rrdb/rdb_2/conv2d_21/BiasAdd/ReadVariableOp", "op": "Const", "attr": {"dtype": {"type": "DT_FLOAT"}, "value": {"tensor": {"dtype": "DT_FLOAT", "tensorShape": {"dim": [{"size": "32"}]}}}}}, {"name": "StatefulPartitionedCall/model/rrdb_net/sequential/rrdb/rdb_2/concat_2/axis", "op": "Const", "attr": {"dtype": {"type": "DT_INT32"}, "value": {"tensor": {"dtype": "DT_INT32", "tensorShape": {}}}}}, {"name": "StatefulPartitionedCall/model/rrdb_net/sequential/rrdb/rdb_2/conv2d_22/Conv2D/ReadVariableOp", "op": "Const", "attr": {"dtype": {"type": "DT_FLOAT"}, "value": {"tensor": {"dtype": "DT_FLOAT", "tensorShape": {"dim": [{"size": "3"}, {"size": "3"}, {"size": "128"}, {"size": "32"}]}}}}}, {"name": "StatefulPartitionedCall/model/rrdb_net/sequential/rrdb/rdb_2/conv2d_22/BiasAdd/ReadVariableOp", "op": "Const", "attr": {"value": {"tensor": {"dtype": "DT_FLOAT", "tensorShape": {"dim": [{"size": "32"}]}}}, "dtype": {"type": "DT_FLOAT"}}}, {"name": "StatefulPartitionedCall/model/rrdb_net/sequential/rrdb/rdb_2/concat_3/axis", "op": "Const", "attr": {"value": {"tensor": {"dtype": "DT_INT32", "tensorShape": {}}}, "dtype": {"type": "DT_INT32"}}}, {"name": "StatefulPartitionedCall/model/rrdb_net/sequential/rrdb/rdb_2/conv2d_23/Conv2D/ReadVariableOp", "op": "Const", "attr": {"dtype": {"type": "DT_FLOAT"}, "value": {"tensor": {"dtype": "DT_FLOAT", "tensorShape": {"dim": [{"size": "3"}, {"size": "3"}, {"size": "160"}, {"size": "32"}]}}}}}, {"name": "StatefulPartitionedCall/model/rrdb_net/sequential/rrdb/rdb_2/conv2d_23/BiasAdd/ReadVariableOp", "op": "Const", "attr": {"value": {"tensor": {"dtype": "DT_FLOAT", "tensorShape": {"dim": [{"size": "32"}]}}}, "dtype": {"type": "DT_FLOAT"}}}, {"name": "StatefulPartitionedCall/model/rrdb_net/sequential/rrdb_1/rdb_3/conv2d_24/Conv2D/ReadVariableOp", "op": "Const", "attr": {"value": {"tensor": {"dtype": "DT_FLOAT", "tensorShape": {"dim": [{"size": "3"}, {"size": "3"}, {"size": "32"}, {"size": "32"}]}}}, "dtype": {"type": "DT_FLOAT"}}}, {"name": "StatefulPartitionedCall/model/rrdb_net/sequential/rrdb_1/rdb_3/conv2d_24/BiasAdd/ReadVariableOp", "op": "Const", "attr": {"dtype": {"type": "DT_FLOAT"}, "value": {"tensor": {"dtype": "DT_FLOAT", "tensorShape": {"dim": [{"size": "32"}]}}}}}, {"name": "StatefulPartitionedCall/model/rrdb_net/sequential/rrdb_1/rdb_3/concat/axis", "op": "Const", "attr": {"value": {"tensor": {"dtype": "DT_INT32", "tensorShape": {}}}, "dtype": {"type": "DT_INT32"}}}, {"name": "StatefulPartitionedCall/model/rrdb_net/sequential/rrdb_1/rdb_3/conv2d_25/Conv2D/ReadVariableOp", "op": "Const", "attr": {"dtype": {"type": "DT_FLOAT"}, "value": {"tensor": {"dtype": "DT_FLOAT", "tensorShape": {"dim": [{"size": "3"}, {"size": "3"}, {"size": "64"}, {"size": "32"}]}}}}}, {"name": "StatefulPartitionedCall/model/rrdb_net/sequential/rrdb_1/rdb_3/conv2d_25/BiasAdd/ReadVariableOp", "op": "Const", "attr": {"dtype": {"type": "DT_FLOAT"}, "value": {"tensor": {"dtype": "DT_FLOAT", "tensorShape": {"dim": [{"size": "32"}]}}}}}, {"name": "StatefulPartitionedCall/model/rrdb_net/sequential/rrdb_1/rdb_3/concat_1/axis", "op": "Const", "attr": {"dtype": {"type": "DT_INT32"}, "value": {"tensor": {"dtype": "DT_INT32", "tensorShape": {}}}}}, {"name": "StatefulPartitionedCall/model/rrdb_net/sequential/rrdb_1/rdb_3/conv2d_26/Conv2D/ReadVariableOp", "op": "Const", "attr": {"dtype": {"type": "DT_FLOAT"}, "value": {"tensor": {"dtype": "DT_FLOAT", "tensorShape": {"dim": [{"size": "3"}, {"size": "3"}, {"size": "96"}, {"size": "32"}]}}}}}, {"name": "StatefulPartitionedCall/model/rrdb_net/sequential/rrdb_1/rdb_3/conv2d_26/BiasAdd/ReadVariableOp", "op": "Const", "attr": {"value": {"tensor": {"dtype": "DT_FLOAT", "tensorShape": {"dim": [{"size": "32"}]}}}, "dtype": {"type": "DT_FLOAT"}}}, {"name": "StatefulPartitionedCall/model/rrdb_net/sequential/rrdb_1/rdb_3/concat_2/axis", "op": "Const", "attr": {"dtype": {"type": "DT_INT32"}, "value": {"tensor": {"dtype": "DT_INT32", "tensorShape": {}}}}}, {"name": "StatefulPartitionedCall/model/rrdb_net/sequential/rrdb_1/rdb_3/conv2d_27/Conv2D/ReadVariableOp", "op": "Const", "attr": {"value": {"tensor": {"dtype": "DT_FLOAT", "tensorShape": {"dim": [{"size": "3"}, {"size": "3"}, {"size": "128"}, {"size": "32"}]}}}, "dtype": {"type": "DT_FLOAT"}}}, {"name": "StatefulPartitionedCall/model/rrdb_net/sequential/rrdb_1/rdb_3/conv2d_27/BiasAdd/ReadVariableOp", "op": "Const", "attr": {"value": {"tensor": {"dtype": "DT_FLOAT", "tensorShape": {"dim": [{"size": "32"}]}}}, "dtype": {"type": "DT_FLOAT"}}}, {"name": "StatefulPartitionedCall/model/rrdb_net/sequential/rrdb_1/rdb_3/concat_3/axis", "op": "Const", "attr": {"value": {"tensor": {"dtype": "DT_INT32", "tensorShape": {}}}, "dtype": {"type": "DT_INT32"}}}, {"name": "StatefulPartitionedCall/model/rrdb_net/sequential/rrdb_1/rdb_3/conv2d_28/Conv2D/ReadVariableOp", "op": "Const", "attr": {"dtype": {"type": "DT_FLOAT"}, "value": {"tensor": {"dtype": "DT_FLOAT", "tensorShape": {"dim": [{"size": "3"}, {"size": "3"}, {"size": "160"}, {"size": "32"}]}}}}}, {"name": "StatefulPartitionedCall/model/rrdb_net/sequential/rrdb_1/rdb_3/conv2d_28/BiasAdd/ReadVariableOp", "op": "Const", "attr": {"value": {"tensor": {"dtype": "DT_FLOAT", "tensorShape": {"dim": [{"size": "32"}]}}}, "dtype": {"type": "DT_FLOAT"}}}, {"name": "StatefulPartitionedCall/model/rrdb_net/sequential/rrdb_1/rdb_4/conv2d_29/Conv2D/ReadVariableOp", "op": "Const", "attr": {"value": {"tensor": {"dtype": "DT_FLOAT", "tensorShape": {"dim": [{"size": "3"}, {"size": "3"}, {"size": "32"}, {"size": "32"}]}}}, "dtype": {"type": "DT_FLOAT"}}}, {"name": "StatefulPartitionedCall/model/rrdb_net/sequential/rrdb_1/rdb_4/conv2d_29/BiasAdd/ReadVariableOp", "op": "Const", "attr": {"dtype": {"type": "DT_FLOAT"}, "value": {"tensor": {"dtype": "DT_FLOAT", "tensorShape": {"dim": [{"size": "32"}]}}}}}, {"name": "StatefulPartitionedCall/model/rrdb_net/sequential/rrdb_1/rdb_4/concat/axis", "op": "Const", "attr": {"dtype": {"type": "DT_INT32"}, "value": {"tensor": {"dtype": "DT_INT32", "tensorShape": {}}}}}, {"name": "StatefulPartitionedCall/model/rrdb_net/sequential/rrdb_1/rdb_4/conv2d_30/Conv2D/ReadVariableOp", "op": "Const", "attr": {"value": {"tensor": {"dtype": "DT_FLOAT", "tensorShape": {"dim": [{"size": "3"}, {"size": "3"}, {"size": "64"}, {"size": "32"}]}}}, "dtype": {"type": "DT_FLOAT"}}}, {"name": "StatefulPartitionedCall/model/rrdb_net/sequential/rrdb_1/rdb_4/conv2d_30/BiasAdd/ReadVariableOp", "op": "Const", "attr": {"value": {"tensor": {"dtype": "DT_FLOAT", "tensorShape": {"dim": [{"size": "32"}]}}}, "dtype": {"type": "DT_FLOAT"}}}, {"name": "StatefulPartitionedCall/model/rrdb_net/sequential/rrdb_1/rdb_4/concat_1/axis", "op": "Const", "attr": {"dtype": {"type": "DT_INT32"}, "value": {"tensor": {"dtype": "DT_INT32", "tensorShape": {}}}}}, {"name": "StatefulPartitionedCall/model/rrdb_net/sequential/rrdb_1/rdb_4/conv2d_31/Conv2D/ReadVariableOp", "op": "Const", "attr": {"dtype": {"type": "DT_FLOAT"}, "value": {"tensor": {"dtype": "DT_FLOAT", "tensorShape": {"dim": [{"size": "3"}, {"size": "3"}, {"size": "96"}, {"size": "32"}]}}}}}, {"name": "StatefulPartitionedCall/model/rrdb_net/sequential/rrdb_1/rdb_4/conv2d_31/BiasAdd/ReadVariableOp", "op": "Const", "attr": {"value": {"tensor": {"dtype": "DT_FLOAT", "tensorShape": {"dim": [{"size": "32"}]}}}, "dtype": {"type": "DT_FLOAT"}}}, {"name": "StatefulPartitionedCall/model/rrdb_net/sequential/rrdb_1/rdb_4/concat_2/axis", "op": "Const", "attr": {"dtype": {"type": "DT_INT32"}, "value": {"tensor": {"dtype": "DT_INT32", "tensorShape": {}}}}}, {"name": "StatefulPartitionedCall/model/rrdb_net/sequential/rrdb_1/rdb_4/conv2d_32/Conv2D/ReadVariableOp", "op": "Const", "attr": {"value": {"tensor": {"dtype": "DT_FLOAT", "tensorShape": {"dim": [{"size": "3"}, {"size": "3"}, {"size": "128"}, {"size": "32"}]}}}, "dtype": {"type": "DT_FLOAT"}}}, {"name": "StatefulPartitionedCall/model/rrdb_net/sequential/rrdb_1/rdb_4/conv2d_32/BiasAdd/ReadVariableOp", "op": "Const", "attr": {"dtype": {"type": "DT_FLOAT"}, "value": {"tensor": {"dtype": "DT_FLOAT", "tensorShape": {"dim": [{"size": "32"}]}}}}}, {"name": "StatefulPartitionedCall/model/rrdb_net/sequential/rrdb_1/rdb_4/concat_3/axis", "op": "Const", "attr": {"value": {"tensor": {"dtype": "DT_INT32", "tensorShape": {}}}, "dtype": {"type": "DT_INT32"}}}, {"name": "StatefulPartitionedCall/model/rrdb_net/sequential/rrdb_1/rdb_4/conv2d_33/Conv2D/ReadVariableOp", "op": "Const", "attr": {"dtype": {"type": "DT_FLOAT"}, "value": {"tensor": {"dtype": "DT_FLOAT", "tensorShape": {"dim": [{"size": "3"}, {"size": "3"}, {"size": "160"}, {"size": "32"}]}}}}}, {"name": "StatefulPartitionedCall/model/rrdb_net/sequential/rrdb_1/rdb_4/conv2d_33/BiasAdd/ReadVariableOp", "op": "Const", "attr": {"dtype": {"type": "DT_FLOAT"}, "value": {"tensor": {"dtype": "DT_FLOAT", "tensorShape": {"dim": [{"size": "32"}]}}}}}, {"name": "StatefulPartitionedCall/model/rrdb_net/sequential/rrdb_1/rdb_5/conv2d_34/Conv2D/ReadVariableOp", "op": "Const", "attr": {"value": {"tensor": {"dtype": "DT_FLOAT", "tensorShape": {"dim": [{"size": "3"}, {"size": "3"}, {"size": "32"}, {"size": "32"}]}}}, "dtype": {"type": "DT_FLOAT"}}}, {"name": "StatefulPartitionedCall/model/rrdb_net/sequential/rrdb_1/rdb_5/conv2d_34/BiasAdd/ReadVariableOp", "op": "Const", "attr": {"dtype": {"type": "DT_FLOAT"}, "value": {"tensor": {"dtype": "DT_FLOAT", "tensorShape": {"dim": [{"size": "32"}]}}}}}, {"name": "StatefulPartitionedCall/model/rrdb_net/sequential/rrdb_1/rdb_5/concat/axis", "op": "Const", "attr": {"value": {"tensor": {"dtype": "DT_INT32", "tensorShape": {}}}, "dtype": {"type": "DT_INT32"}}}, {"name": "StatefulPartitionedCall/model/rrdb_net/sequential/rrdb_1/rdb_5/conv2d_35/Conv2D/ReadVariableOp", "op": "Const", "attr": {"value": {"tensor": {"dtype": "DT_FLOAT", "tensorShape": {"dim": [{"size": "3"}, {"size": "3"}, {"size": "64"}, {"size": "32"}]}}}, "dtype": {"type": "DT_FLOAT"}}}, {"name": "StatefulPartitionedCall/model/rrdb_net/sequential/rrdb_1/rdb_5/conv2d_35/BiasAdd/ReadVariableOp", "op": "Const", "attr": {"dtype": {"type": "DT_FLOAT"}, "value": {"tensor": {"dtype": "DT_FLOAT", "tensorShape": {"dim": [{"size": "32"}]}}}}}, {"name": "StatefulPartitionedCall/model/rrdb_net/sequential/rrdb_1/rdb_5/concat_1/axis", "op": "Const", "attr": {"value": {"tensor": {"dtype": "DT_INT32", "tensorShape": {}}}, "dtype": {"type": "DT_INT32"}}}, {"name": "StatefulPartitionedCall/model/rrdb_net/sequential/rrdb_1/rdb_5/conv2d_36/Conv2D/ReadVariableOp", "op": "Const", "attr": {"dtype": {"type": "DT_FLOAT"}, "value": {"tensor": {"dtype": "DT_FLOAT", "tensorShape": {"dim": [{"size": "3"}, {"size": "3"}, {"size": "96"}, {"size": "32"}]}}}}}, {"name": "StatefulPartitionedCall/model/rrdb_net/sequential/rrdb_1/rdb_5/conv2d_36/BiasAdd/ReadVariableOp", "op": "Const", "attr": {"dtype": {"type": "DT_FLOAT"}, "value": {"tensor": {"dtype": "DT_FLOAT", "tensorShape": {"dim": [{"size": "32"}]}}}}}, {"name": "StatefulPartitionedCall/model/rrdb_net/sequential/rrdb_1/rdb_5/concat_2/axis", "op": "Const", "attr": {"value": {"tensor": {"dtype": "DT_INT32", "tensorShape": {}}}, "dtype": {"type": "DT_INT32"}}}, {"name": "StatefulPartitionedCall/model/rrdb_net/sequential/rrdb_1/rdb_5/conv2d_37/Conv2D/ReadVariableOp", "op": "Const", "attr": {"dtype": {"type": "DT_FLOAT"}, "value": {"tensor": {"dtype": "DT_FLOAT", "tensorShape": {"dim": [{"size": "3"}, {"size": "3"}, {"size": "128"}, {"size": "32"}]}}}}}, {"name": "StatefulPartitionedCall/model/rrdb_net/sequential/rrdb_1/rdb_5/conv2d_37/BiasAdd/ReadVariableOp", "op": "Const", "attr": {"dtype": {"type": "DT_FLOAT"}, "value": {"tensor": {"dtype": "DT_FLOAT", "tensorShape": {"dim": [{"size": "32"}]}}}}}, {"name": "StatefulPartitionedCall/model/rrdb_net/sequential/rrdb_1/rdb_5/concat_3/axis", "op": "Const", "attr": {"value": {"tensor": {"dtype": "DT_INT32", "tensorShape": {}}}, "dtype": {"type": "DT_INT32"}}}, {"name": "StatefulPartitionedCall/model/rrdb_net/sequential/rrdb_1/rdb_5/conv2d_38/Conv2D/ReadVariableOp", "op": "Const", "attr": {"dtype": {"type": "DT_FLOAT"}, "value": {"tensor": {"dtype": "DT_FLOAT", "tensorShape": {"dim": [{"size": "3"}, {"size": "3"}, {"size": "160"}, {"size": "32"}]}}}}}, {"name": "StatefulPartitionedCall/model/rrdb_net/sequential/rrdb_1/rdb_5/conv2d_38/BiasAdd/ReadVariableOp", "op": "Const", "attr": {"value": {"tensor": {"dtype": "DT_FLOAT", "tensorShape": {"dim": [{"size": "32"}]}}}, "dtype": {"type": "DT_FLOAT"}}}, {"name": "StatefulPartitionedCall/model/rrdb_net/sequential/rrdb_2/rdb_6/conv2d_39/Conv2D/ReadVariableOp", "op": "Const", "attr": {"value": {"tensor": {"dtype": "DT_FLOAT", "tensorShape": {"dim": [{"size": "3"}, {"size": "3"}, {"size": "32"}, {"size": "32"}]}}}, "dtype": {"type": "DT_FLOAT"}}}, {"name": "StatefulPartitionedCall/model/rrdb_net/sequential/rrdb_2/rdb_6/conv2d_39/BiasAdd/ReadVariableOp", "op": "Const", "attr": {"value": {"tensor": {"dtype": "DT_FLOAT", "tensorShape": {"dim": [{"size": "32"}]}}}, "dtype": {"type": "DT_FLOAT"}}}, {"name": "StatefulPartitionedCall/model/rrdb_net/sequential/rrdb_2/rdb_6/concat/axis", "op": "Const", "attr": {"value": {"tensor": {"dtype": "DT_INT32", "tensorShape": {}}}, "dtype": {"type": "DT_INT32"}}}, {"name": "StatefulPartitionedCall/model/rrdb_net/sequential/rrdb_2/rdb_6/conv2d_40/Conv2D/ReadVariableOp", "op": "Const", "attr": {"dtype": {"type": "DT_FLOAT"}, "value": {"tensor": {"dtype": "DT_FLOAT", "tensorShape": {"dim": [{"size": "3"}, {"size": "3"}, {"size": "64"}, {"size": "32"}]}}}}}, {"name": "StatefulPartitionedCall/model/rrdb_net/sequential/rrdb_2/rdb_6/conv2d_40/BiasAdd/ReadVariableOp", "op": "Const", "attr": {"value": {"tensor": {"dtype": "DT_FLOAT", "tensorShape": {"dim": [{"size": "32"}]}}}, "dtype": {"type": "DT_FLOAT"}}}, {"name": "StatefulPartitionedCall/model/rrdb_net/sequential/rrdb_2/rdb_6/concat_1/axis", "op": "Const", "attr": {"value": {"tensor": {"dtype": "DT_INT32", "tensorShape": {}}}, "dtype": {"type": "DT_INT32"}}}, {"name": "StatefulPartitionedCall/model/rrdb_net/sequential/rrdb_2/rdb_6/conv2d_41/Conv2D/ReadVariableOp", "op": "Const", "attr": {"value": {"tensor": {"dtype": "DT_FLOAT", "tensorShape": {"dim": [{"size": "3"}, {"size": "3"}, {"size": "96"}, {"size": "32"}]}}}, "dtype": {"type": "DT_FLOAT"}}}, {"name": "StatefulPartitionedCall/model/rrdb_net/sequential/rrdb_2/rdb_6/conv2d_41/BiasAdd/ReadVariableOp", "op": "Const", "attr": {"dtype": {"type": "DT_FLOAT"}, "value": {"tensor": {"dtype": "DT_FLOAT", "tensorShape": {"dim": [{"size": "32"}]}}}}}, {"name": "StatefulPartitionedCall/model/rrdb_net/sequential/rrdb_2/rdb_6/concat_2/axis", "op": "Const", "attr": {"dtype": {"type": "DT_INT32"}, "value": {"tensor": {"dtype": "DT_INT32", "tensorShape": {}}}}}, {"name": "StatefulPartitionedCall/model/rrdb_net/sequential/rrdb_2/rdb_6/conv2d_42/Conv2D/ReadVariableOp", "op": "Const", "attr": {"dtype": {"type": "DT_FLOAT"}, "value": {"tensor": {"dtype": "DT_FLOAT", "tensorShape": {"dim": [{"size": "3"}, {"size": "3"}, {"size": "128"}, {"size": "32"}]}}}}}, {"name": "StatefulPartitionedCall/model/rrdb_net/sequential/rrdb_2/rdb_6/conv2d_42/BiasAdd/ReadVariableOp", "op": "Const", "attr": {"value": {"tensor": {"dtype": "DT_FLOAT", "tensorShape": {"dim": [{"size": "32"}]}}}, "dtype": {"type": "DT_FLOAT"}}}, {"name": "StatefulPartitionedCall/model/rrdb_net/sequential/rrdb_2/rdb_6/concat_3/axis", "op": "Const", "attr": {"dtype": {"type": "DT_INT32"}, "value": {"tensor": {"dtype": "DT_INT32", "tensorShape": {}}}}}, {"name": "StatefulPartitionedCall/model/rrdb_net/sequential/rrdb_2/rdb_6/conv2d_43/Conv2D/ReadVariableOp", "op": "Const", "attr": {"dtype": {"type": "DT_FLOAT"}, "value": {"tensor": {"dtype": "DT_FLOAT", "tensorShape": {"dim": [{"size": "3"}, {"size": "3"}, {"size": "160"}, {"size": "32"}]}}}}}, {"name": "StatefulPartitionedCall/model/rrdb_net/sequential/rrdb_2/rdb_6/conv2d_43/BiasAdd/ReadVariableOp", "op": "Const", "attr": {"dtype": {"type": "DT_FLOAT"}, "value": {"tensor": {"dtype": "DT_FLOAT", "tensorShape": {"dim": [{"size": "32"}]}}}}}, {"name": "StatefulPartitionedCall/model/rrdb_net/sequential/rrdb_2/rdb_7/conv2d_44/Conv2D/ReadVariableOp", "op": "Const", "attr": {"value": {"tensor": {"dtype": "DT_FLOAT", "tensorShape": {"dim": [{"size": "3"}, {"size": "3"}, {"size": "32"}, {"size": "32"}]}}}, "dtype": {"type": "DT_FLOAT"}}}, {"name": "StatefulPartitionedCall/model/rrdb_net/sequential/rrdb_2/rdb_7/conv2d_44/BiasAdd/ReadVariableOp", "op": "Const", "attr": {"dtype": {"type": "DT_FLOAT"}, "value": {"tensor": {"dtype": "DT_FLOAT", "tensorShape": {"dim": [{"size": "32"}]}}}}}, {"name": "StatefulPartitionedCall/model/rrdb_net/sequential/rrdb_2/rdb_7/concat/axis", "op": "Const", "attr": {"dtype": {"type": "DT_INT32"}, "value": {"tensor": {"dtype": "DT_INT32", "tensorShape": {}}}}}, {"name": "StatefulPartitionedCall/model/rrdb_net/sequential/rrdb_2/rdb_7/conv2d_45/Conv2D/ReadVariableOp", "op": "Const", "attr": {"value": {"tensor": {"dtype": "DT_FLOAT", "tensorShape": {"dim": [{"size": "3"}, {"size": "3"}, {"size": "64"}, {"size": "32"}]}}}, "dtype": {"type": "DT_FLOAT"}}}, {"name": "StatefulPartitionedCall/model/rrdb_net/sequential/rrdb_2/rdb_7/conv2d_45/BiasAdd/ReadVariableOp", "op": "Const", "attr": {"value": {"tensor": {"dtype": "DT_FLOAT", "tensorShape": {"dim": [{"size": "32"}]}}}, "dtype": {"type": "DT_FLOAT"}}}, {"name": "StatefulPartitionedCall/model/rrdb_net/sequential/rrdb_2/rdb_7/concat_1/axis", "op": "Const", "attr": {"value": {"tensor": {"dtype": "DT_INT32", "tensorShape": {}}}, "dtype": {"type": "DT_INT32"}}}, {"name": "StatefulPartitionedCall/model/rrdb_net/sequential/rrdb_2/rdb_7/conv2d_46/Conv2D/ReadVariableOp", "op": "Const", "attr": {"dtype": {"type": "DT_FLOAT"}, "value": {"tensor": {"dtype": "DT_FLOAT", "tensorShape": {"dim": [{"size": "3"}, {"size": "3"}, {"size": "96"}, {"size": "32"}]}}}}}, {"name": "StatefulPartitionedCall/model/rrdb_net/sequential/rrdb_2/rdb_7/conv2d_46/BiasAdd/ReadVariableOp", "op": "Const", "attr": {"dtype": {"type": "DT_FLOAT"}, "value": {"tensor": {"dtype": "DT_FLOAT", "tensorShape": {"dim": [{"size": "32"}]}}}}}, {"name": "StatefulPartitionedCall/model/rrdb_net/sequential/rrdb_2/rdb_7/concat_2/axis", "op": "Const", "attr": {"dtype": {"type": "DT_INT32"}, "value": {"tensor": {"dtype": "DT_INT32", "tensorShape": {}}}}}, {"name": "StatefulPartitionedCall/model/rrdb_net/sequential/rrdb_2/rdb_7/conv2d_47/Conv2D/ReadVariableOp", "op": "Const", "attr": {"dtype": {"type": "DT_FLOAT"}, "value": {"tensor": {"dtype": "DT_FLOAT", "tensorShape": {"dim": [{"size": "3"}, {"size": "3"}, {"size": "128"}, {"size": "32"}]}}}}}, {"name": "StatefulPartitionedCall/model/rrdb_net/sequential/rrdb_2/rdb_7/conv2d_47/BiasAdd/ReadVariableOp", "op": "Const", "attr": {"value": {"tensor": {"dtype": "DT_FLOAT", "tensorShape": {"dim": [{"size": "32"}]}}}, "dtype": {"type": "DT_FLOAT"}}}, {"name": "StatefulPartitionedCall/model/rrdb_net/sequential/rrdb_2/rdb_7/concat_3/axis", "op": "Const", "attr": {"value": {"tensor": {"dtype": "DT_INT32", "tensorShape": {}}}, "dtype": {"type": "DT_INT32"}}}, {"name": "StatefulPartitionedCall/model/rrdb_net/sequential/rrdb_2/rdb_7/conv2d_48/Conv2D/ReadVariableOp", "op": "Const", "attr": {"value": {"tensor": {"dtype": "DT_FLOAT", "tensorShape": {"dim": [{"size": "3"}, {"size": "3"}, {"size": "160"}, {"size": "32"}]}}}, "dtype": {"type": "DT_FLOAT"}}}, {"name": "StatefulPartitionedCall/model/rrdb_net/sequential/rrdb_2/rdb_7/conv2d_48/BiasAdd/ReadVariableOp", "op": "Const", "attr": {"value": {"tensor": {"dtype": "DT_FLOAT", "tensorShape": {"dim": [{"size": "32"}]}}}, "dtype": {"type": "DT_FLOAT"}}}, {"name": "StatefulPartitionedCall/model/rrdb_net/sequential/rrdb_2/rdb_8/conv2d_49/Conv2D/ReadVariableOp", "op": "Const", "attr": {"dtype": {"type": "DT_FLOAT"}, "value": {"tensor": {"dtype": "DT_FLOAT", "tensorShape": {"dim": [{"size": "3"}, {"size": "3"}, {"size": "32"}, {"size": "32"}]}}}}}, {"name": "StatefulPartitionedCall/model/rrdb_net/sequential/rrdb_2/rdb_8/conv2d_49/BiasAdd/ReadVariableOp", "op": "Const", "attr": {"dtype": {"type": "DT_FLOAT"}, "value": {"tensor": {"dtype": "DT_FLOAT", "tensorShape": {"dim": [{"size": "32"}]}}}}}, {"name": "StatefulPartitionedCall/model/rrdb_net/sequential/rrdb_2/rdb_8/concat/axis", "op": "Const", "attr": {"dtype": {"type": "DT_INT32"}, "value": {"tensor": {"dtype": "DT_INT32", "tensorShape": {}}}}}, {"name": "StatefulPartitionedCall/model/rrdb_net/sequential/rrdb_2/rdb_8/conv2d_50/Conv2D/ReadVariableOp", "op": "Const", "attr": {"dtype": {"type": "DT_FLOAT"}, "value": {"tensor": {"dtype": "DT_FLOAT", "tensorShape": {"dim": [{"size": "3"}, {"size": "3"}, {"size": "64"}, {"size": "32"}]}}}}}, {"name": "StatefulPartitionedCall/model/rrdb_net/sequential/rrdb_2/rdb_8/conv2d_50/BiasAdd/ReadVariableOp", "op": "Const", "attr": {"dtype": {"type": "DT_FLOAT"}, "value": {"tensor": {"dtype": "DT_FLOAT", "tensorShape": {"dim": [{"size": "32"}]}}}}}, {"name": "StatefulPartitionedCall/model/rrdb_net/sequential/rrdb_2/rdb_8/concat_1/axis", "op": "Const", "attr": {"dtype": {"type": "DT_INT32"}, "value": {"tensor": {"dtype": "DT_INT32", "tensorShape": {}}}}}, {"name": "StatefulPartitionedCall/model/rrdb_net/sequential/rrdb_2/rdb_8/conv2d_51/Conv2D/ReadVariableOp", "op": "Const", "attr": {"value": {"tensor": {"dtype": "DT_FLOAT", "tensorShape": {"dim": [{"size": "3"}, {"size": "3"}, {"size": "96"}, {"size": "32"}]}}}, "dtype": {"type": "DT_FLOAT"}}}, {"name": "StatefulPartitionedCall/model/rrdb_net/sequential/rrdb_2/rdb_8/conv2d_51/BiasAdd/ReadVariableOp", "op": "Const", "attr": {"dtype": {"type": "DT_FLOAT"}, "value": {"tensor": {"dtype": "DT_FLOAT", "tensorShape": {"dim": [{"size": "32"}]}}}}}, {"name": "StatefulPartitionedCall/model/rrdb_net/sequential/rrdb_2/rdb_8/concat_2/axis", "op": "Const", "attr": {"value": {"tensor": {"dtype": "DT_INT32", "tensorShape": {}}}, "dtype": {"type": "DT_INT32"}}}, {"name": "StatefulPartitionedCall/model/rrdb_net/sequential/rrdb_2/rdb_8/conv2d_52/Conv2D/ReadVariableOp", "op": "Const", "attr": {"value": {"tensor": {"dtype": "DT_FLOAT", "tensorShape": {"dim": [{"size": "3"}, {"size": "3"}, {"size": "128"}, {"size": "32"}]}}}, "dtype": {"type": "DT_FLOAT"}}}, {"name": "StatefulPartitionedCall/model/rrdb_net/sequential/rrdb_2/rdb_8/conv2d_52/BiasAdd/ReadVariableOp", "op": "Const", "attr": {"dtype": {"type": "DT_FLOAT"}, "value": {"tensor": {"dtype": "DT_FLOAT", "tensorShape": {"dim": [{"size": "32"}]}}}}}, {"name": "StatefulPartitionedCall/model/rrdb_net/sequential/rrdb_2/rdb_8/concat_3/axis", "op": "Const", "attr": {"dtype": {"type": "DT_INT32"}, "value": {"tensor": {"dtype": "DT_INT32", "tensorShape": {}}}}}, {"name": "StatefulPartitionedCall/model/rrdb_net/sequential/rrdb_2/rdb_8/conv2d_53/Conv2D/ReadVariableOp", "op": "Const", "attr": {"value": {"tensor": {"dtype": "DT_FLOAT", "tensorShape": {"dim": [{"size": "3"}, {"size": "3"}, {"size": "160"}, {"size": "32"}]}}}, "dtype": {"type": "DT_FLOAT"}}}, {"name": "StatefulPartitionedCall/model/rrdb_net/sequential/rrdb_2/rdb_8/conv2d_53/BiasAdd/ReadVariableOp", "op": "Const", "attr": {"value": {"tensor": {"dtype": "DT_FLOAT", "tensorShape": {"dim": [{"size": "32"}]}}}, "dtype": {"type": "DT_FLOAT"}}}, {"name": "StatefulPartitionedCall/model/rrdb_net/sequential/rrdb_3/rdb_9/conv2d_54/Conv2D/ReadVariableOp", "op": "Const", "attr": {"dtype": {"type": "DT_FLOAT"}, "value": {"tensor": {"dtype": "DT_FLOAT", "tensorShape": {"dim": [{"size": "3"}, {"size": "3"}, {"size": "32"}, {"size": "32"}]}}}}}, {"name": "StatefulPartitionedCall/model/rrdb_net/sequential/rrdb_3/rdb_9/conv2d_54/BiasAdd/ReadVariableOp", "op": "Const", "attr": {"value": {"tensor": {"dtype": "DT_FLOAT", "tensorShape": {"dim": [{"size": "32"}]}}}, "dtype": {"type": "DT_FLOAT"}}}, {"name": "StatefulPartitionedCall/model/rrdb_net/sequential/rrdb_3/rdb_9/concat/axis", "op": "Const", "attr": {"value": {"tensor": {"dtype": "DT_INT32", "tensorShape": {}}}, "dtype": {"type": "DT_INT32"}}}, {"name": "StatefulPartitionedCall/model/rrdb_net/sequential/rrdb_3/rdb_9/conv2d_55/Conv2D/ReadVariableOp", "op": "Const", "attr": {"dtype": {"type": "DT_FLOAT"}, "value": {"tensor": {"dtype": "DT_FLOAT", "tensorShape": {"dim": [{"size": "3"}, {"size": "3"}, {"size": "64"}, {"size": "32"}]}}}}}, {"name": "StatefulPartitionedCall/model/rrdb_net/sequential/rrdb_3/rdb_9/conv2d_55/BiasAdd/ReadVariableOp", "op": "Const", "attr": {"value": {"tensor": {"dtype": "DT_FLOAT", "tensorShape": {"dim": [{"size": "32"}]}}}, "dtype": {"type": "DT_FLOAT"}}}, {"name": "StatefulPartitionedCall/model/rrdb_net/sequential/rrdb_3/rdb_9/concat_1/axis", "op": "Const", "attr": {"dtype": {"type": "DT_INT32"}, "value": {"tensor": {"dtype": "DT_INT32", "tensorShape": {}}}}}, {"name": "StatefulPartitionedCall/model/rrdb_net/sequential/rrdb_3/rdb_9/conv2d_56/Conv2D/ReadVariableOp", "op": "Const", "attr": {"value": {"tensor": {"dtype": "DT_FLOAT", "tensorShape": {"dim": [{"size": "3"}, {"size": "3"}, {"size": "96"}, {"size": "32"}]}}}, "dtype": {"type": "DT_FLOAT"}}}, {"name": "StatefulPartitionedCall/model/rrdb_net/sequential/rrdb_3/rdb_9/conv2d_56/BiasAdd/ReadVariableOp", "op": "Const", "attr": {"dtype": {"type": "DT_FLOAT"}, "value": {"tensor": {"dtype": "DT_FLOAT", "tensorShape": {"dim": [{"size": "32"}]}}}}}, {"name": "StatefulPartitionedCall/model/rrdb_net/sequential/rrdb_3/rdb_9/concat_2/axis", "op": "Const", "attr": {"value": {"tensor": {"dtype": "DT_INT32", "tensorShape": {}}}, "dtype": {"type": "DT_INT32"}}}, {"name": "StatefulPartitionedCall/model/rrdb_net/sequential/rrdb_3/rdb_9/conv2d_57/Conv2D/ReadVariableOp", "op": "Const", "attr": {"value": {"tensor": {"dtype": "DT_FLOAT", "tensorShape": {"dim": [{"size": "3"}, {"size": "3"}, {"size": "128"}, {"size": "32"}]}}}, "dtype": {"type": "DT_FLOAT"}}}, {"name": "StatefulPartitionedCall/model/rrdb_net/sequential/rrdb_3/rdb_9/conv2d_57/BiasAdd/ReadVariableOp", "op": "Const", "attr": {"value": {"tensor": {"dtype": "DT_FLOAT", "tensorShape": {"dim": [{"size": "32"}]}}}, "dtype": {"type": "DT_FLOAT"}}}, {"name": "StatefulPartitionedCall/model/rrdb_net/sequential/rrdb_3/rdb_9/concat_3/axis", "op": "Const", "attr": {"dtype": {"type": "DT_INT32"}, "value": {"tensor": {"dtype": "DT_INT32", "tensorShape": {}}}}}, {"name": "StatefulPartitionedCall/model/rrdb_net/sequential/rrdb_3/rdb_9/conv2d_58/Conv2D/ReadVariableOp", "op": "Const", "attr": {"value": {"tensor": {"dtype": "DT_FLOAT", "tensorShape": {"dim": [{"size": "3"}, {"size": "3"}, {"size": "160"}, {"size": "32"}]}}}, "dtype": {"type": "DT_FLOAT"}}}, {"name": "StatefulPartitionedCall/model/rrdb_net/sequential/rrdb_3/rdb_9/conv2d_58/BiasAdd/ReadVariableOp", "op": "Const", "attr": {"value": {"tensor": {"dtype": "DT_FLOAT", "tensorShape": {"dim": [{"size": "32"}]}}}, "dtype": {"type": "DT_FLOAT"}}}, {"name": "StatefulPartitionedCall/model/rrdb_net/sequential/rrdb_3/rdb_10/conv2d_59/Conv2D/ReadVariableOp", "op": "Const", "attr": {"dtype": {"type": "DT_FLOAT"}, "value": {"tensor": {"dtype": "DT_FLOAT", "tensorShape": {"dim": [{"size": "3"}, {"size": "3"}, {"size": "32"}, {"size": "32"}]}}}}}, {"name": "StatefulPartitionedCall/model/rrdb_net/sequential/rrdb_3/rdb_10/conv2d_59/BiasAdd/ReadVariableOp", "op": "Const", "attr": {"dtype": {"type": "DT_FLOAT"}, "value": {"tensor": {"dtype": "DT_FLOAT", "tensorShape": {"dim": [{"size": "32"}]}}}}}, {"name": "StatefulPartitionedCall/model/rrdb_net/sequential/rrdb_3/rdb_10/concat/axis", "op": "Const", "attr": {"value": {"tensor": {"dtype": "DT_INT32", "tensorShape": {}}}, "dtype": {"type": "DT_INT32"}}}, {"name": "StatefulPartitionedCall/model/rrdb_net/sequential/rrdb_3/rdb_10/conv2d_60/Conv2D/ReadVariableOp", "op": "Const", "attr": {"dtype": {"type": "DT_FLOAT"}, "value": {"tensor": {"dtype": "DT_FLOAT", "tensorShape": {"dim": [{"size": "3"}, {"size": "3"}, {"size": "64"}, {"size": "32"}]}}}}}, {"name": "StatefulPartitionedCall/model/rrdb_net/sequential/rrdb_3/rdb_10/conv2d_60/BiasAdd/ReadVariableOp", "op": "Const", "attr": {"value": {"tensor": {"dtype": "DT_FLOAT", "tensorShape": {"dim": [{"size": "32"}]}}}, "dtype": {"type": "DT_FLOAT"}}}, {"name": "StatefulPartitionedCall/model/rrdb_net/sequential/rrdb_3/rdb_10/concat_1/axis", "op": "Const", "attr": {"value": {"tensor": {"dtype": "DT_INT32", "tensorShape": {}}}, "dtype": {"type": "DT_INT32"}}}, {"name": "StatefulPartitionedCall/model/rrdb_net/sequential/rrdb_3/rdb_10/conv2d_61/Conv2D/ReadVariableOp", "op": "Const", "attr": {"dtype": {"type": "DT_FLOAT"}, "value": {"tensor": {"dtype": "DT_FLOAT", "tensorShape": {"dim": [{"size": "3"}, {"size": "3"}, {"size": "96"}, {"size": "32"}]}}}}}, {"name": "StatefulPartitionedCall/model/rrdb_net/sequential/rrdb_3/rdb_10/conv2d_61/BiasAdd/ReadVariableOp", "op": "Const", "attr": {"dtype": {"type": "DT_FLOAT"}, "value": {"tensor": {"dtype": "DT_FLOAT", "tensorShape": {"dim": [{"size": "32"}]}}}}}, {"name": "StatefulPartitionedCall/model/rrdb_net/sequential/rrdb_3/rdb_10/concat_2/axis", "op": "Const", "attr": {"dtype": {"type": "DT_INT32"}, "value": {"tensor": {"dtype": "DT_INT32", "tensorShape": {}}}}}, {"name": "StatefulPartitionedCall/model/rrdb_net/sequential/rrdb_3/rdb_10/conv2d_62/Conv2D/ReadVariableOp", "op": "Const", "attr": {"dtype": {"type": "DT_FLOAT"}, "value": {"tensor": {"dtype": "DT_FLOAT", "tensorShape": {"dim": [{"size": "3"}, {"size": "3"}, {"size": "128"}, {"size": "32"}]}}}}}, {"name": "StatefulPartitionedCall/model/rrdb_net/sequential/rrdb_3/rdb_10/conv2d_62/BiasAdd/ReadVariableOp", "op": "Const", "attr": {"value": {"tensor": {"dtype": "DT_FLOAT", "tensorShape": {"dim": [{"size": "32"}]}}}, "dtype": {"type": "DT_FLOAT"}}}, {"name": "StatefulPartitionedCall/model/rrdb_net/sequential/rrdb_3/rdb_10/concat_3/axis", "op": "Const", "attr": {"value": {"tensor": {"dtype": "DT_INT32", "tensorShape": {}}}, "dtype": {"type": "DT_INT32"}}}, {"name": "StatefulPartitionedCall/model/rrdb_net/sequential/rrdb_3/rdb_10/conv2d_63/Conv2D/ReadVariableOp", "op": "Const", "attr": {"value": {"tensor": {"dtype": "DT_FLOAT", "tensorShape": {"dim": [{"size": "3"}, {"size": "3"}, {"size": "160"}, {"size": "32"}]}}}, "dtype": {"type": "DT_FLOAT"}}}, {"name": "StatefulPartitionedCall/model/rrdb_net/sequential/rrdb_3/rdb_10/conv2d_63/BiasAdd/ReadVariableOp", "op": "Const", "attr": {"dtype": {"type": "DT_FLOAT"}, "value": {"tensor": {"dtype": "DT_FLOAT", "tensorShape": {"dim": [{"size": "32"}]}}}}}, {"name": "StatefulPartitionedCall/model/rrdb_net/sequential/rrdb_3/rdb_11/conv2d_64/Conv2D/ReadVariableOp", "op": "Const", "attr": {"value": {"tensor": {"dtype": "DT_FLOAT", "tensorShape": {"dim": [{"size": "3"}, {"size": "3"}, {"size": "32"}, {"size": "32"}]}}}, "dtype": {"type": "DT_FLOAT"}}}, {"name": "StatefulPartitionedCall/model/rrdb_net/sequential/rrdb_3/rdb_11/conv2d_64/BiasAdd/ReadVariableOp", "op": "Const", "attr": {"dtype": {"type": "DT_FLOAT"}, "value": {"tensor": {"dtype": "DT_FLOAT", "tensorShape": {"dim": [{"size": "32"}]}}}}}, {"name": "StatefulPartitionedCall/model/rrdb_net/sequential/rrdb_3/rdb_11/concat/axis", "op": "Const", "attr": {"value": {"tensor": {"dtype": "DT_INT32", "tensorShape": {}}}, "dtype": {"type": "DT_INT32"}}}, {"name": "StatefulPartitionedCall/model/rrdb_net/sequential/rrdb_3/rdb_11/conv2d_65/Conv2D/ReadVariableOp", "op": "Const", "attr": {"dtype": {"type": "DT_FLOAT"}, "value": {"tensor": {"dtype": "DT_FLOAT", "tensorShape": {"dim": [{"size": "3"}, {"size": "3"}, {"size": "64"}, {"size": "32"}]}}}}}, {"name": "StatefulPartitionedCall/model/rrdb_net/sequential/rrdb_3/rdb_11/conv2d_65/BiasAdd/ReadVariableOp", "op": "Const", "attr": {"dtype": {"type": "DT_FLOAT"}, "value": {"tensor": {"dtype": "DT_FLOAT", "tensorShape": {"dim": [{"size": "32"}]}}}}}, {"name": "StatefulPartitionedCall/model/rrdb_net/sequential/rrdb_3/rdb_11/concat_1/axis", "op": "Const", "attr": {"dtype": {"type": "DT_INT32"}, "value": {"tensor": {"dtype": "DT_INT32", "tensorShape": {}}}}}, {"name": "StatefulPartitionedCall/model/rrdb_net/sequential/rrdb_3/rdb_11/conv2d_66/Conv2D/ReadVariableOp", "op": "Const", "attr": {"dtype": {"type": "DT_FLOAT"}, "value": {"tensor": {"dtype": "DT_FLOAT", "tensorShape": {"dim": [{"size": "3"}, {"size": "3"}, {"size": "96"}, {"size": "32"}]}}}}}, {"name": "StatefulPartitionedCall/model/rrdb_net/sequential/rrdb_3/rdb_11/conv2d_66/BiasAdd/ReadVariableOp", "op": "Const", "attr": {"dtype": {"type": "DT_FLOAT"}, "value": {"tensor": {"dtype": "DT_FLOAT", "tensorShape": {"dim": [{"size": "32"}]}}}}}, {"name": "StatefulPartitionedCall/model/rrdb_net/sequential/rrdb_3/rdb_11/concat_2/axis", "op": "Const", "attr": {"value": {"tensor": {"dtype": "DT_INT32", "tensorShape": {}}}, "dtype": {"type": "DT_INT32"}}}, {"name": "StatefulPartitionedCall/model/rrdb_net/sequential/rrdb_3/rdb_11/conv2d_67/Conv2D/ReadVariableOp", "op": "Const", "attr": {"dtype": {"type": "DT_FLOAT"}, "value": {"tensor": {"dtype": "DT_FLOAT", "tensorShape": {"dim": [{"size": "3"}, {"size": "3"}, {"size": "128"}, {"size": "32"}]}}}}}, {"name": "StatefulPartitionedCall/model/rrdb_net/sequential/rrdb_3/rdb_11/conv2d_67/BiasAdd/ReadVariableOp", "op": "Const", "attr": {"dtype": {"type": "DT_FLOAT"}, "value": {"tensor": {"dtype": "DT_FLOAT", "tensorShape": {"dim": [{"size": "32"}]}}}}}, {"name": "StatefulPartitionedCall/model/rrdb_net/sequential/rrdb_3/rdb_11/concat_3/axis", "op": "Const", "attr": {"dtype": {"type": "DT_INT32"}, "value": {"tensor": {"dtype": "DT_INT32", "tensorShape": {}}}}}, {"name": "StatefulPartitionedCall/model/rrdb_net/sequential/rrdb_3/rdb_11/conv2d_68/Conv2D/ReadVariableOp", "op": "Const", "attr": {"dtype": {"type": "DT_FLOAT"}, "value": {"tensor": {"dtype": "DT_FLOAT", "tensorShape": {"dim": [{"size": "3"}, {"size": "3"}, {"size": "160"}, {"size": "32"}]}}}}}, {"name": "StatefulPartitionedCall/model/rrdb_net/sequential/rrdb_3/rdb_11/conv2d_68/BiasAdd/ReadVariableOp", "op": "Const", "attr": {"dtype": {"type": "DT_FLOAT"}, "value": {"tensor": {"dtype": "DT_FLOAT", "tensorShape": {"dim": [{"size": "32"}]}}}}}, {"name": "StatefulPartitionedCall/model/rrdb_net/sequential/rrdb_4/rdb_12/conv2d_69/Conv2D/ReadVariableOp", "op": "Const", "attr": {"dtype": {"type": "DT_FLOAT"}, "value": {"tensor": {"dtype": "DT_FLOAT", "tensorShape": {"dim": [{"size": "3"}, {"size": "3"}, {"size": "32"}, {"size": "32"}]}}}}}, {"name": "StatefulPartitionedCall/model/rrdb_net/sequential/rrdb_4/rdb_12/conv2d_69/BiasAdd/ReadVariableOp", "op": "Const", "attr": {"value": {"tensor": {"dtype": "DT_FLOAT", "tensorShape": {"dim": [{"size": "32"}]}}}, "dtype": {"type": "DT_FLOAT"}}}, {"name": "StatefulPartitionedCall/model/rrdb_net/sequential/rrdb_4/rdb_12/concat/axis", "op": "Const", "attr": {"value": {"tensor": {"dtype": "DT_INT32", "tensorShape": {}}}, "dtype": {"type": "DT_INT32"}}}, {"name": "StatefulPartitionedCall/model/rrdb_net/sequential/rrdb_4/rdb_12/conv2d_70/Conv2D/ReadVariableOp", "op": "Const", "attr": {"value": {"tensor": {"dtype": "DT_FLOAT", "tensorShape": {"dim": [{"size": "3"}, {"size": "3"}, {"size": "64"}, {"size": "32"}]}}}, "dtype": {"type": "DT_FLOAT"}}}, {"name": "StatefulPartitionedCall/model/rrdb_net/sequential/rrdb_4/rdb_12/conv2d_70/BiasAdd/ReadVariableOp", "op": "Const", "attr": {"dtype": {"type": "DT_FLOAT"}, "value": {"tensor": {"dtype": "DT_FLOAT", "tensorShape": {"dim": [{"size": "32"}]}}}}}, {"name": "StatefulPartitionedCall/model/rrdb_net/sequential/rrdb_4/rdb_12/concat_1/axis", "op": "Const", "attr": {"value": {"tensor": {"dtype": "DT_INT32", "tensorShape": {}}}, "dtype": {"type": "DT_INT32"}}}, {"name": "StatefulPartitionedCall/model/rrdb_net/sequential/rrdb_4/rdb_12/conv2d_71/Conv2D/ReadVariableOp", "op": "Const", "attr": {"dtype": {"type": "DT_FLOAT"}, "value": {"tensor": {"dtype": "DT_FLOAT", "tensorShape": {"dim": [{"size": "3"}, {"size": "3"}, {"size": "96"}, {"size": "32"}]}}}}}, {"name": "StatefulPartitionedCall/model/rrdb_net/sequential/rrdb_4/rdb_12/conv2d_71/BiasAdd/ReadVariableOp", "op": "Const", "attr": {"dtype": {"type": "DT_FLOAT"}, "value": {"tensor": {"dtype": "DT_FLOAT", "tensorShape": {"dim": [{"size": "32"}]}}}}}, {"name": "StatefulPartitionedCall/model/rrdb_net/sequential/rrdb_4/rdb_12/concat_2/axis", "op": "Const", "attr": {"dtype": {"type": "DT_INT32"}, "value": {"tensor": {"dtype": "DT_INT32", "tensorShape": {}}}}}, {"name": "StatefulPartitionedCall/model/rrdb_net/sequential/rrdb_4/rdb_12/conv2d_72/Conv2D/ReadVariableOp", "op": "Const", "attr": {"value": {"tensor": {"dtype": "DT_FLOAT", "tensorShape": {"dim": [{"size": "3"}, {"size": "3"}, {"size": "128"}, {"size": "32"}]}}}, "dtype": {"type": "DT_FLOAT"}}}, {"name": "StatefulPartitionedCall/model/rrdb_net/sequential/rrdb_4/rdb_12/conv2d_72/BiasAdd/ReadVariableOp", "op": "Const", "attr": {"value": {"tensor": {"dtype": "DT_FLOAT", "tensorShape": {"dim": [{"size": "32"}]}}}, "dtype": {"type": "DT_FLOAT"}}}, {"name": "StatefulPartitionedCall/model/rrdb_net/sequential/rrdb_4/rdb_12/concat_3/axis", "op": "Const", "attr": {"value": {"tensor": {"dtype": "DT_INT32", "tensorShape": {}}}, "dtype": {"type": "DT_INT32"}}}, {"name": "StatefulPartitionedCall/model/rrdb_net/sequential/rrdb_4/rdb_12/conv2d_73/Conv2D/ReadVariableOp", "op": "Const", "attr": {"value": {"tensor": {"dtype": "DT_FLOAT", "tensorShape": {"dim": [{"size": "3"}, {"size": "3"}, {"size": "160"}, {"size": "32"}]}}}, "dtype": {"type": "DT_FLOAT"}}}, {"name": "StatefulPartitionedCall/model/rrdb_net/sequential/rrdb_4/rdb_12/conv2d_73/BiasAdd/ReadVariableOp", "op": "Const", "attr": {"value": {"tensor": {"dtype": "DT_FLOAT", "tensorShape": {"dim": [{"size": "32"}]}}}, "dtype": {"type": "DT_FLOAT"}}}, {"name": "StatefulPartitionedCall/model/rrdb_net/sequential/rrdb_4/rdb_13/conv2d_74/Conv2D/ReadVariableOp", "op": "Const", "attr": {"dtype": {"type": "DT_FLOAT"}, "value": {"tensor": {"dtype": "DT_FLOAT", "tensorShape": {"dim": [{"size": "3"}, {"size": "3"}, {"size": "32"}, {"size": "32"}]}}}}}, {"name": "StatefulPartitionedCall/model/rrdb_net/sequential/rrdb_4/rdb_13/conv2d_74/BiasAdd/ReadVariableOp", "op": "Const", "attr": {"dtype": {"type": "DT_FLOAT"}, "value": {"tensor": {"dtype": "DT_FLOAT", "tensorShape": {"dim": [{"size": "32"}]}}}}}, {"name": "StatefulPartitionedCall/model/rrdb_net/sequential/rrdb_4/rdb_13/concat/axis", "op": "Const", "attr": {"dtype": {"type": "DT_INT32"}, "value": {"tensor": {"dtype": "DT_INT32", "tensorShape": {}}}}}, {"name": "StatefulPartitionedCall/model/rrdb_net/sequential/rrdb_4/rdb_13/conv2d_75/Conv2D/ReadVariableOp", "op": "Const", "attr": {"dtype": {"type": "DT_FLOAT"}, "value": {"tensor": {"dtype": "DT_FLOAT", "tensorShape": {"dim": [{"size": "3"}, {"size": "3"}, {"size": "64"}, {"size": "32"}]}}}}}, {"name": "StatefulPartitionedCall/model/rrdb_net/sequential/rrdb_4/rdb_13/conv2d_75/BiasAdd/ReadVariableOp", "op": "Const", "attr": {"dtype": {"type": "DT_FLOAT"}, "value": {"tensor": {"dtype": "DT_FLOAT", "tensorShape": {"dim": [{"size": "32"}]}}}}}, {"name": "StatefulPartitionedCall/model/rrdb_net/sequential/rrdb_4/rdb_13/concat_1/axis", "op": "Const", "attr": {"dtype": {"type": "DT_INT32"}, "value": {"tensor": {"dtype": "DT_INT32", "tensorShape": {}}}}}, {"name": "StatefulPartitionedCall/model/rrdb_net/sequential/rrdb_4/rdb_13/conv2d_76/Conv2D/ReadVariableOp", "op": "Const", "attr": {"dtype": {"type": "DT_FLOAT"}, "value": {"tensor": {"dtype": "DT_FLOAT", "tensorShape": {"dim": [{"size": "3"}, {"size": "3"}, {"size": "96"}, {"size": "32"}]}}}}}, {"name": "StatefulPartitionedCall/model/rrdb_net/sequential/rrdb_4/rdb_13/conv2d_76/BiasAdd/ReadVariableOp", "op": "Const", "attr": {"value": {"tensor": {"dtype": "DT_FLOAT", "tensorShape": {"dim": [{"size": "32"}]}}}, "dtype": {"type": "DT_FLOAT"}}}, {"name": "StatefulPartitionedCall/model/rrdb_net/sequential/rrdb_4/rdb_13/concat_2/axis", "op": "Const", "attr": {"dtype": {"type": "DT_INT32"}, "value": {"tensor": {"dtype": "DT_INT32", "tensorShape": {}}}}}, {"name": "StatefulPartitionedCall/model/rrdb_net/sequential/rrdb_4/rdb_13/conv2d_77/Conv2D/ReadVariableOp", "op": "Const", "attr": {"dtype": {"type": "DT_FLOAT"}, "value": {"tensor": {"dtype": "DT_FLOAT", "tensorShape": {"dim": [{"size": "3"}, {"size": "3"}, {"size": "128"}, {"size": "32"}]}}}}}, {"name": "StatefulPartitionedCall/model/rrdb_net/sequential/rrdb_4/rdb_13/conv2d_77/BiasAdd/ReadVariableOp", "op": "Const", "attr": {"dtype": {"type": "DT_FLOAT"}, "value": {"tensor": {"dtype": "DT_FLOAT", "tensorShape": {"dim": [{"size": "32"}]}}}}}, {"name": "StatefulPartitionedCall/model/rrdb_net/sequential/rrdb_4/rdb_13/concat_3/axis", "op": "Const", "attr": {"value": {"tensor": {"dtype": "DT_INT32", "tensorShape": {}}}, "dtype": {"type": "DT_INT32"}}}, {"name": "StatefulPartitionedCall/model/rrdb_net/sequential/rrdb_4/rdb_13/conv2d_78/Conv2D/ReadVariableOp", "op": "Const", "attr": {"value": {"tensor": {"dtype": "DT_FLOAT", "tensorShape": {"dim": [{"size": "3"}, {"size": "3"}, {"size": "160"}, {"size": "32"}]}}}, "dtype": {"type": "DT_FLOAT"}}}, {"name": "StatefulPartitionedCall/model/rrdb_net/sequential/rrdb_4/rdb_13/conv2d_78/BiasAdd/ReadVariableOp", "op": "Const", "attr": {"dtype": {"type": "DT_FLOAT"}, "value": {"tensor": {"dtype": "DT_FLOAT", "tensorShape": {"dim": [{"size": "32"}]}}}}}, {"name": "StatefulPartitionedCall/model/rrdb_net/sequential/rrdb_4/rdb_14/conv2d_79/Conv2D/ReadVariableOp", "op": "Const", "attr": {"dtype": {"type": "DT_FLOAT"}, "value": {"tensor": {"dtype": "DT_FLOAT", "tensorShape": {"dim": [{"size": "3"}, {"size": "3"}, {"size": "32"}, {"size": "32"}]}}}}}, {"name": "StatefulPartitionedCall/model/rrdb_net/sequential/rrdb_4/rdb_14/conv2d_79/BiasAdd/ReadVariableOp", "op": "Const", "attr": {"value": {"tensor": {"dtype": "DT_FLOAT", "tensorShape": {"dim": [{"size": "32"}]}}}, "dtype": {"type": "DT_FLOAT"}}}, {"name": "StatefulPartitionedCall/model/rrdb_net/sequential/rrdb_4/rdb_14/concat/axis", "op": "Const", "attr": {"value": {"tensor": {"dtype": "DT_INT32", "tensorShape": {}}}, "dtype": {"type": "DT_INT32"}}}, {"name": "StatefulPartitionedCall/model/rrdb_net/sequential/rrdb_4/rdb_14/conv2d_80/Conv2D/ReadVariableOp", "op": "Const", "attr": {"dtype": {"type": "DT_FLOAT"}, "value": {"tensor": {"dtype": "DT_FLOAT", "tensorShape": {"dim": [{"size": "3"}, {"size": "3"}, {"size": "64"}, {"size": "32"}]}}}}}, {"name": "StatefulPartitionedCall/model/rrdb_net/sequential/rrdb_4/rdb_14/conv2d_80/BiasAdd/ReadVariableOp", "op": "Const", "attr": {"value": {"tensor": {"dtype": "DT_FLOAT", "tensorShape": {"dim": [{"size": "32"}]}}}, "dtype": {"type": "DT_FLOAT"}}}, {"name": "StatefulPartitionedCall/model/rrdb_net/sequential/rrdb_4/rdb_14/concat_1/axis", "op": "Const", "attr": {"value": {"tensor": {"dtype": "DT_INT32", "tensorShape": {}}}, "dtype": {"type": "DT_INT32"}}}, {"name": "StatefulPartitionedCall/model/rrdb_net/sequential/rrdb_4/rdb_14/conv2d_81/Conv2D/ReadVariableOp", "op": "Const", "attr": {"dtype": {"type": "DT_FLOAT"}, "value": {"tensor": {"dtype": "DT_FLOAT", "tensorShape": {"dim": [{"size": "3"}, {"size": "3"}, {"size": "96"}, {"size": "32"}]}}}}}, {"name": "StatefulPartitionedCall/model/rrdb_net/sequential/rrdb_4/rdb_14/conv2d_81/BiasAdd/ReadVariableOp", "op": "Const", "attr": {"dtype": {"type": "DT_FLOAT"}, "value": {"tensor": {"dtype": "DT_FLOAT", "tensorShape": {"dim": [{"size": "32"}]}}}}}, {"name": "StatefulPartitionedCall/model/rrdb_net/sequential/rrdb_4/rdb_14/concat_2/axis", "op": "Const", "attr": {"dtype": {"type": "DT_INT32"}, "value": {"tensor": {"dtype": "DT_INT32", "tensorShape": {}}}}}, {"name": "StatefulPartitionedCall/model/rrdb_net/sequential/rrdb_4/rdb_14/conv2d_82/Conv2D/ReadVariableOp", "op": "Const", "attr": {"value": {"tensor": {"dtype": "DT_FLOAT", "tensorShape": {"dim": [{"size": "3"}, {"size": "3"}, {"size": "128"}, {"size": "32"}]}}}, "dtype": {"type": "DT_FLOAT"}}}, {"name": "StatefulPartitionedCall/model/rrdb_net/sequential/rrdb_4/rdb_14/conv2d_82/BiasAdd/ReadVariableOp", "op": "Const", "attr": {"dtype": {"type": "DT_FLOAT"}, "value": {"tensor": {"dtype": "DT_FLOAT", "tensorShape": {"dim": [{"size": "32"}]}}}}}, {"name": "StatefulPartitionedCall/model/rrdb_net/sequential/rrdb_4/rdb_14/concat_3/axis", "op": "Const", "attr": {"dtype": {"type": "DT_INT32"}, "value": {"tensor": {"dtype": "DT_INT32", "tensorShape": {}}}}}, {"name": "StatefulPartitionedCall/model/rrdb_net/sequential/rrdb_4/rdb_14/conv2d_83/Conv2D/ReadVariableOp", "op": "Const", "attr": {"dtype": {"type": "DT_FLOAT"}, "value": {"tensor": {"dtype": "DT_FLOAT", "tensorShape": {"dim": [{"size": "3"}, {"size": "3"}, {"size": "160"}, {"size": "32"}]}}}}}, {"name": "StatefulPartitionedCall/model/rrdb_net/sequential/rrdb_4/rdb_14/conv2d_83/BiasAdd/ReadVariableOp", "op": "Const", "attr": {"dtype": {"type": "DT_FLOAT"}, "value": {"tensor": {"dtype": "DT_FLOAT", "tensorShape": {"dim": [{"size": "32"}]}}}}}, {"name": "StatefulPartitionedCall/model/rrdb_net/sequential/rrdb_5/rdb_15/conv2d_84/Conv2D/ReadVariableOp", "op": "Const", "attr": {"value": {"tensor": {"dtype": "DT_FLOAT", "tensorShape": {"dim": [{"size": "3"}, {"size": "3"}, {"size": "32"}, {"size": "32"}]}}}, "dtype": {"type": "DT_FLOAT"}}}, {"name": "StatefulPartitionedCall/model/rrdb_net/sequential/rrdb_5/rdb_15/conv2d_84/BiasAdd/ReadVariableOp", "op": "Const", "attr": {"value": {"tensor": {"dtype": "DT_FLOAT", "tensorShape": {"dim": [{"size": "32"}]}}}, "dtype": {"type": "DT_FLOAT"}}}, {"name": "StatefulPartitionedCall/model/rrdb_net/sequential/rrdb_5/rdb_15/concat/axis", "op": "Const", "attr": {"dtype": {"type": "DT_INT32"}, "value": {"tensor": {"dtype": "DT_INT32", "tensorShape": {}}}}}, {"name": "StatefulPartitionedCall/model/rrdb_net/sequential/rrdb_5/rdb_15/conv2d_85/Conv2D/ReadVariableOp", "op": "Const", "attr": {"dtype": {"type": "DT_FLOAT"}, "value": {"tensor": {"dtype": "DT_FLOAT", "tensorShape": {"dim": [{"size": "3"}, {"size": "3"}, {"size": "64"}, {"size": "32"}]}}}}}, {"name": "StatefulPartitionedCall/model/rrdb_net/sequential/rrdb_5/rdb_15/conv2d_85/BiasAdd/ReadVariableOp", "op": "Const", "attr": {"value": {"tensor": {"dtype": "DT_FLOAT", "tensorShape": {"dim": [{"size": "32"}]}}}, "dtype": {"type": "DT_FLOAT"}}}, {"name": "StatefulPartitionedCall/model/rrdb_net/sequential/rrdb_5/rdb_15/concat_1/axis", "op": "Const", "attr": {"dtype": {"type": "DT_INT32"}, "value": {"tensor": {"dtype": "DT_INT32", "tensorShape": {}}}}}, {"name": "StatefulPartitionedCall/model/rrdb_net/sequential/rrdb_5/rdb_15/conv2d_86/Conv2D/ReadVariableOp", "op": "Const", "attr": {"dtype": {"type": "DT_FLOAT"}, "value": {"tensor": {"dtype": "DT_FLOAT", "tensorShape": {"dim": [{"size": "3"}, {"size": "3"}, {"size": "96"}, {"size": "32"}]}}}}}, {"name": "StatefulPartitionedCall/model/rrdb_net/sequential/rrdb_5/rdb_15/conv2d_86/BiasAdd/ReadVariableOp", "op": "Const", "attr": {"dtype": {"type": "DT_FLOAT"}, "value": {"tensor": {"dtype": "DT_FLOAT", "tensorShape": {"dim": [{"size": "32"}]}}}}}, {"name": "StatefulPartitionedCall/model/rrdb_net/sequential/rrdb_5/rdb_15/concat_2/axis", "op": "Const", "attr": {"value": {"tensor": {"dtype": "DT_INT32", "tensorShape": {}}}, "dtype": {"type": "DT_INT32"}}}, {"name": "StatefulPartitionedCall/model/rrdb_net/sequential/rrdb_5/rdb_15/conv2d_87/Conv2D/ReadVariableOp", "op": "Const", "attr": {"dtype": {"type": "DT_FLOAT"}, "value": {"tensor": {"dtype": "DT_FLOAT", "tensorShape": {"dim": [{"size": "3"}, {"size": "3"}, {"size": "128"}, {"size": "32"}]}}}}}, {"name": "StatefulPartitionedCall/model/rrdb_net/sequential/rrdb_5/rdb_15/conv2d_87/BiasAdd/ReadVariableOp", "op": "Const", "attr": {"value": {"tensor": {"dtype": "DT_FLOAT", "tensorShape": {"dim": [{"size": "32"}]}}}, "dtype": {"type": "DT_FLOAT"}}}, {"name": "StatefulPartitionedCall/model/rrdb_net/sequential/rrdb_5/rdb_15/concat_3/axis", "op": "Const", "attr": {"value": {"tensor": {"dtype": "DT_INT32", "tensorShape": {}}}, "dtype": {"type": "DT_INT32"}}}, {"name": "StatefulPartitionedCall/model/rrdb_net/sequential/rrdb_5/rdb_15/conv2d_88/Conv2D/ReadVariableOp", "op": "Const", "attr": {"value": {"tensor": {"dtype": "DT_FLOAT", "tensorShape": {"dim": [{"size": "3"}, {"size": "3"}, {"size": "160"}, {"size": "32"}]}}}, "dtype": {"type": "DT_FLOAT"}}}, {"name": "StatefulPartitionedCall/model/rrdb_net/sequential/rrdb_5/rdb_15/conv2d_88/BiasAdd/ReadVariableOp", "op": "Const", "attr": {"dtype": {"type": "DT_FLOAT"}, "value": {"tensor": {"dtype": "DT_FLOAT", "tensorShape": {"dim": [{"size": "32"}]}}}}}, {"name": "StatefulPartitionedCall/model/rrdb_net/sequential/rrdb_5/rdb_16/conv2d_89/Conv2D/ReadVariableOp", "op": "Const", "attr": {"dtype": {"type": "DT_FLOAT"}, "value": {"tensor": {"dtype": "DT_FLOAT", "tensorShape": {"dim": [{"size": "3"}, {"size": "3"}, {"size": "32"}, {"size": "32"}]}}}}}, {"name": "StatefulPartitionedCall/model/rrdb_net/sequential/rrdb_5/rdb_16/conv2d_89/BiasAdd/ReadVariableOp", "op": "Const", "attr": {"dtype": {"type": "DT_FLOAT"}, "value": {"tensor": {"dtype": "DT_FLOAT", "tensorShape": {"dim": [{"size": "32"}]}}}}}, {"name": "StatefulPartitionedCall/model/rrdb_net/sequential/rrdb_5/rdb_16/concat/axis", "op": "Const", "attr": {"dtype": {"type": "DT_INT32"}, "value": {"tensor": {"dtype": "DT_INT32", "tensorShape": {}}}}}, {"name": "StatefulPartitionedCall/model/rrdb_net/sequential/rrdb_5/rdb_16/conv2d_90/Conv2D/ReadVariableOp", "op": "Const", "attr": {"value": {"tensor": {"dtype": "DT_FLOAT", "tensorShape": {"dim": [{"size": "3"}, {"size": "3"}, {"size": "64"}, {"size": "32"}]}}}, "dtype": {"type": "DT_FLOAT"}}}, {"name": "StatefulPartitionedCall/model/rrdb_net/sequential/rrdb_5/rdb_16/conv2d_90/BiasAdd/ReadVariableOp", "op": "Const", "attr": {"dtype": {"type": "DT_FLOAT"}, "value": {"tensor": {"dtype": "DT_FLOAT", "tensorShape": {"dim": [{"size": "32"}]}}}}}, {"name": "StatefulPartitionedCall/model/rrdb_net/sequential/rrdb_5/rdb_16/concat_1/axis", "op": "Const", "attr": {"value": {"tensor": {"dtype": "DT_INT32", "tensorShape": {}}}, "dtype": {"type": "DT_INT32"}}}, {"name": "StatefulPartitionedCall/model/rrdb_net/sequential/rrdb_5/rdb_16/conv2d_91/Conv2D/ReadVariableOp", "op": "Const", "attr": {"dtype": {"type": "DT_FLOAT"}, "value": {"tensor": {"dtype": "DT_FLOAT", "tensorShape": {"dim": [{"size": "3"}, {"size": "3"}, {"size": "96"}, {"size": "32"}]}}}}}, {"name": "StatefulPartitionedCall/model/rrdb_net/sequential/rrdb_5/rdb_16/conv2d_91/BiasAdd/ReadVariableOp", "op": "Const", "attr": {"dtype": {"type": "DT_FLOAT"}, "value": {"tensor": {"dtype": "DT_FLOAT", "tensorShape": {"dim": [{"size": "32"}]}}}}}, {"name": "StatefulPartitionedCall/model/rrdb_net/sequential/rrdb_5/rdb_16/concat_2/axis", "op": "Const", "attr": {"dtype": {"type": "DT_INT32"}, "value": {"tensor": {"dtype": "DT_INT32", "tensorShape": {}}}}}, {"name": "StatefulPartitionedCall/model/rrdb_net/sequential/rrdb_5/rdb_16/conv2d_92/Conv2D/ReadVariableOp", "op": "Const", "attr": {"value": {"tensor": {"dtype": "DT_FLOAT", "tensorShape": {"dim": [{"size": "3"}, {"size": "3"}, {"size": "128"}, {"size": "32"}]}}}, "dtype": {"type": "DT_FLOAT"}}}, {"name": "StatefulPartitionedCall/model/rrdb_net/sequential/rrdb_5/rdb_16/conv2d_92/BiasAdd/ReadVariableOp", "op": "Const", "attr": {"value": {"tensor": {"dtype": "DT_FLOAT", "tensorShape": {"dim": [{"size": "32"}]}}}, "dtype": {"type": "DT_FLOAT"}}}, {"name": "StatefulPartitionedCall/model/rrdb_net/sequential/rrdb_5/rdb_16/concat_3/axis", "op": "Const", "attr": {"dtype": {"type": "DT_INT32"}, "value": {"tensor": {"dtype": "DT_INT32", "tensorShape": {}}}}}, {"name": "StatefulPartitionedCall/model/rrdb_net/sequential/rrdb_5/rdb_16/conv2d_93/Conv2D/ReadVariableOp", "op": "Const", "attr": {"dtype": {"type": "DT_FLOAT"}, "value": {"tensor": {"dtype": "DT_FLOAT", "tensorShape": {"dim": [{"size": "3"}, {"size": "3"}, {"size": "160"}, {"size": "32"}]}}}}}, {"name": "StatefulPartitionedCall/model/rrdb_net/sequential/rrdb_5/rdb_16/conv2d_93/BiasAdd/ReadVariableOp", "op": "Const", "attr": {"dtype": {"type": "DT_FLOAT"}, "value": {"tensor": {"dtype": "DT_FLOAT", "tensorShape": {"dim": [{"size": "32"}]}}}}}, {"name": "StatefulPartitionedCall/model/rrdb_net/sequential/rrdb_5/rdb_17/conv2d_94/Conv2D/ReadVariableOp", "op": "Const", "attr": {"dtype": {"type": "DT_FLOAT"}, "value": {"tensor": {"dtype": "DT_FLOAT", "tensorShape": {"dim": [{"size": "3"}, {"size": "3"}, {"size": "32"}, {"size": "32"}]}}}}}, {"name": "StatefulPartitionedCall/model/rrdb_net/sequential/rrdb_5/rdb_17/conv2d_94/BiasAdd/ReadVariableOp", "op": "Const", "attr": {"dtype": {"type": "DT_FLOAT"}, "value": {"tensor": {"dtype": "DT_FLOAT", "tensorShape": {"dim": [{"size": "32"}]}}}}}, {"name": "StatefulPartitionedCall/model/rrdb_net/sequential/rrdb_5/rdb_17/concat/axis", "op": "Const", "attr": {"value": {"tensor": {"dtype": "DT_INT32", "tensorShape": {}}}, "dtype": {"type": "DT_INT32"}}}, {"name": "StatefulPartitionedCall/model/rrdb_net/sequential/rrdb_5/rdb_17/conv2d_95/Conv2D/ReadVariableOp", "op": "Const", "attr": {"dtype": {"type": "DT_FLOAT"}, "value": {"tensor": {"dtype": "DT_FLOAT", "tensorShape": {"dim": [{"size": "3"}, {"size": "3"}, {"size": "64"}, {"size": "32"}]}}}}}, {"name": "StatefulPartitionedCall/model/rrdb_net/sequential/rrdb_5/rdb_17/conv2d_95/BiasAdd/ReadVariableOp", "op": "Const", "attr": {"dtype": {"type": "DT_FLOAT"}, "value": {"tensor": {"dtype": "DT_FLOAT", "tensorShape": {"dim": [{"size": "32"}]}}}}}, {"name": "StatefulPartitionedCall/model/rrdb_net/sequential/rrdb_5/rdb_17/concat_1/axis", "op": "Const", "attr": {"value": {"tensor": {"dtype": "DT_INT32", "tensorShape": {}}}, "dtype": {"type": "DT_INT32"}}}, {"name": "StatefulPartitionedCall/model/rrdb_net/sequential/rrdb_5/rdb_17/conv2d_96/Conv2D/ReadVariableOp", "op": "Const", "attr": {"value": {"tensor": {"dtype": "DT_FLOAT", "tensorShape": {"dim": [{"size": "3"}, {"size": "3"}, {"size": "96"}, {"size": "32"}]}}}, "dtype": {"type": "DT_FLOAT"}}}, {"name": "StatefulPartitionedCall/model/rrdb_net/sequential/rrdb_5/rdb_17/conv2d_96/BiasAdd/ReadVariableOp", "op": "Const", "attr": {"dtype": {"type": "DT_FLOAT"}, "value": {"tensor": {"dtype": "DT_FLOAT", "tensorShape": {"dim": [{"size": "32"}]}}}}}, {"name": "StatefulPartitionedCall/model/rrdb_net/sequential/rrdb_5/rdb_17/concat_2/axis", "op": "Const", "attr": {"value": {"tensor": {"dtype": "DT_INT32", "tensorShape": {}}}, "dtype": {"type": "DT_INT32"}}}, {"name": "StatefulPartitionedCall/model/rrdb_net/sequential/rrdb_5/rdb_17/conv2d_97/Conv2D/ReadVariableOp", "op": "Const", "attr": {"value": {"tensor": {"dtype": "DT_FLOAT", "tensorShape": {"dim": [{"size": "3"}, {"size": "3"}, {"size": "128"}, {"size": "32"}]}}}, "dtype": {"type": "DT_FLOAT"}}}, {"name": "StatefulPartitionedCall/model/rrdb_net/sequential/rrdb_5/rdb_17/conv2d_97/BiasAdd/ReadVariableOp", "op": "Const", "attr": {"dtype": {"type": "DT_FLOAT"}, "value": {"tensor": {"dtype": "DT_FLOAT", "tensorShape": {"dim": [{"size": "32"}]}}}}}, {"name": "StatefulPartitionedCall/model/rrdb_net/sequential/rrdb_5/rdb_17/concat_3/axis", "op": "Const", "attr": {"value": {"tensor": {"dtype": "DT_INT32", "tensorShape": {}}}, "dtype": {"type": "DT_INT32"}}}, {"name": "StatefulPartitionedCall/model/rrdb_net/sequential/rrdb_5/rdb_17/conv2d_98/Conv2D/ReadVariableOp", "op": "Const", "attr": {"value": {"tensor": {"dtype": "DT_FLOAT", "tensorShape": {"dim": [{"size": "3"}, {"size": "3"}, {"size": "160"}, {"size": "32"}]}}}, "dtype": {"type": "DT_FLOAT"}}}, {"name": "StatefulPartitionedCall/model/rrdb_net/sequential/rrdb_5/rdb_17/conv2d_98/BiasAdd/ReadVariableOp", "op": "Const", "attr": {"value": {"tensor": {"dtype": "DT_FLOAT", "tensorShape": {"dim": [{"size": "32"}]}}}, "dtype": {"type": "DT_FLOAT"}}}, {"name": "StatefulPartitionedCall/model/rrdb_net/sequential/rrdb_6/rdb_18/conv2d_99/Conv2D/ReadVariableOp", "op": "Const", "attr": {"value": {"tensor": {"dtype": "DT_FLOAT", "tensorShape": {"dim": [{"size": "3"}, {"size": "3"}, {"size": "32"}, {"size": "32"}]}}}, "dtype": {"type": "DT_FLOAT"}}}, {"name": "StatefulPartitionedCall/model/rrdb_net/sequential/rrdb_6/rdb_18/conv2d_99/BiasAdd/ReadVariableOp", "op": "Const", "attr": {"dtype": {"type": "DT_FLOAT"}, "value": {"tensor": {"dtype": "DT_FLOAT", "tensorShape": {"dim": [{"size": "32"}]}}}}}, {"name": "StatefulPartitionedCall/model/rrdb_net/sequential/rrdb_6/rdb_18/concat/axis", "op": "Const", "attr": {"value": {"tensor": {"dtype": "DT_INT32", "tensorShape": {}}}, "dtype": {"type": "DT_INT32"}}}, {"name": "StatefulPartitionedCall/model/rrdb_net/sequential/rrdb_6/rdb_18/conv2d_100/Conv2D/ReadVariableOp", "op": "Const", "attr": {"value": {"tensor": {"dtype": "DT_FLOAT", "tensorShape": {"dim": [{"size": "3"}, {"size": "3"}, {"size": "64"}, {"size": "32"}]}}}, "dtype": {"type": "DT_FLOAT"}}}, {"name": "StatefulPartitionedCall/model/rrdb_net/sequential/rrdb_6/rdb_18/conv2d_100/BiasAdd/ReadVariableOp", "op": "Const", "attr": {"dtype": {"type": "DT_FLOAT"}, "value": {"tensor": {"dtype": "DT_FLOAT", "tensorShape": {"dim": [{"size": "32"}]}}}}}, {"name": "StatefulPartitionedCall/model/rrdb_net/sequential/rrdb_6/rdb_18/concat_1/axis", "op": "Const", "attr": {"value": {"tensor": {"dtype": "DT_INT32", "tensorShape": {}}}, "dtype": {"type": "DT_INT32"}}}, {"name": "StatefulPartitionedCall/model/rrdb_net/sequential/rrdb_6/rdb_18/conv2d_101/Conv2D/ReadVariableOp", "op": "Const", "attr": {"value": {"tensor": {"dtype": "DT_FLOAT", "tensorShape": {"dim": [{"size": "3"}, {"size": "3"}, {"size": "96"}, {"size": "32"}]}}}, "dtype": {"type": "DT_FLOAT"}}}, {"name": "StatefulPartitionedCall/model/rrdb_net/sequential/rrdb_6/rdb_18/conv2d_101/BiasAdd/ReadVariableOp", "op": "Const", "attr": {"value": {"tensor": {"dtype": "DT_FLOAT", "tensorShape": {"dim": [{"size": "32"}]}}}, "dtype": {"type": "DT_FLOAT"}}}, {"name": "StatefulPartitionedCall/model/rrdb_net/sequential/rrdb_6/rdb_18/concat_2/axis", "op": "Const", "attr": {"value": {"tensor": {"dtype": "DT_INT32", "tensorShape": {}}}, "dtype": {"type": "DT_INT32"}}}, {"name": "StatefulPartitionedCall/model/rrdb_net/sequential/rrdb_6/rdb_18/conv2d_102/Conv2D/ReadVariableOp", "op": "Const", "attr": {"dtype": {"type": "DT_FLOAT"}, "value": {"tensor": {"dtype": "DT_FLOAT", "tensorShape": {"dim": [{"size": "3"}, {"size": "3"}, {"size": "128"}, {"size": "32"}]}}}}}, {"name": "StatefulPartitionedCall/model/rrdb_net/sequential/rrdb_6/rdb_18/conv2d_102/BiasAdd/ReadVariableOp", "op": "Const", "attr": {"dtype": {"type": "DT_FLOAT"}, "value": {"tensor": {"dtype": "DT_FLOAT", "tensorShape": {"dim": [{"size": "32"}]}}}}}, {"name": "StatefulPartitionedCall/model/rrdb_net/sequential/rrdb_6/rdb_18/concat_3/axis", "op": "Const", "attr": {"value": {"tensor": {"dtype": "DT_INT32", "tensorShape": {}}}, "dtype": {"type": "DT_INT32"}}}, {"name": "StatefulPartitionedCall/model/rrdb_net/sequential/rrdb_6/rdb_18/conv2d_103/Conv2D/ReadVariableOp", "op": "Const", "attr": {"value": {"tensor": {"dtype": "DT_FLOAT", "tensorShape": {"dim": [{"size": "3"}, {"size": "3"}, {"size": "160"}, {"size": "32"}]}}}, "dtype": {"type": "DT_FLOAT"}}}, {"name": "StatefulPartitionedCall/model/rrdb_net/sequential/rrdb_6/rdb_18/conv2d_103/BiasAdd/ReadVariableOp", "op": "Const", "attr": {"dtype": {"type": "DT_FLOAT"}, "value": {"tensor": {"dtype": "DT_FLOAT", "tensorShape": {"dim": [{"size": "32"}]}}}}}, {"name": "StatefulPartitionedCall/model/rrdb_net/sequential/rrdb_6/rdb_19/conv2d_104/Conv2D/ReadVariableOp", "op": "Const", "attr": {"dtype": {"type": "DT_FLOAT"}, "value": {"tensor": {"dtype": "DT_FLOAT", "tensorShape": {"dim": [{"size": "3"}, {"size": "3"}, {"size": "32"}, {"size": "32"}]}}}}}, {"name": "StatefulPartitionedCall/model/rrdb_net/sequential/rrdb_6/rdb_19/conv2d_104/BiasAdd/ReadVariableOp", "op": "Const", "attr": {"value": {"tensor": {"dtype": "DT_FLOAT", "tensorShape": {"dim": [{"size": "32"}]}}}, "dtype": {"type": "DT_FLOAT"}}}, {"name": "StatefulPartitionedCall/model/rrdb_net/sequential/rrdb_6/rdb_19/concat/axis", "op": "Const", "attr": {"dtype": {"type": "DT_INT32"}, "value": {"tensor": {"dtype": "DT_INT32", "tensorShape": {}}}}}, {"name": "StatefulPartitionedCall/model/rrdb_net/sequential/rrdb_6/rdb_19/conv2d_105/Conv2D/ReadVariableOp", "op": "Const", "attr": {"value": {"tensor": {"dtype": "DT_FLOAT", "tensorShape": {"dim": [{"size": "3"}, {"size": "3"}, {"size": "64"}, {"size": "32"}]}}}, "dtype": {"type": "DT_FLOAT"}}}, {"name": "StatefulPartitionedCall/model/rrdb_net/sequential/rrdb_6/rdb_19/conv2d_105/BiasAdd/ReadVariableOp", "op": "Const", "attr": {"value": {"tensor": {"dtype": "DT_FLOAT", "tensorShape": {"dim": [{"size": "32"}]}}}, "dtype": {"type": "DT_FLOAT"}}}, {"name": "StatefulPartitionedCall/model/rrdb_net/sequential/rrdb_6/rdb_19/concat_1/axis", "op": "Const", "attr": {"dtype": {"type": "DT_INT32"}, "value": {"tensor": {"dtype": "DT_INT32", "tensorShape": {}}}}}, {"name": "StatefulPartitionedCall/model/rrdb_net/sequential/rrdb_6/rdb_19/conv2d_106/Conv2D/ReadVariableOp", "op": "Const", "attr": {"value": {"tensor": {"dtype": "DT_FLOAT", "tensorShape": {"dim": [{"size": "3"}, {"size": "3"}, {"size": "96"}, {"size": "32"}]}}}, "dtype": {"type": "DT_FLOAT"}}}, {"name": "StatefulPartitionedCall/model/rrdb_net/sequential/rrdb_6/rdb_19/conv2d_106/BiasAdd/ReadVariableOp", "op": "Const", "attr": {"value": {"tensor": {"dtype": "DT_FLOAT", "tensorShape": {"dim": [{"size": "32"}]}}}, "dtype": {"type": "DT_FLOAT"}}}, {"name": "StatefulPartitionedCall/model/rrdb_net/sequential/rrdb_6/rdb_19/concat_2/axis", "op": "Const", "attr": {"dtype": {"type": "DT_INT32"}, "value": {"tensor": {"dtype": "DT_INT32", "tensorShape": {}}}}}, {"name": "StatefulPartitionedCall/model/rrdb_net/sequential/rrdb_6/rdb_19/conv2d_107/Conv2D/ReadVariableOp", "op": "Const", "attr": {"value": {"tensor": {"dtype": "DT_FLOAT", "tensorShape": {"dim": [{"size": "3"}, {"size": "3"}, {"size": "128"}, {"size": "32"}]}}}, "dtype": {"type": "DT_FLOAT"}}}, {"name": "StatefulPartitionedCall/model/rrdb_net/sequential/rrdb_6/rdb_19/conv2d_107/BiasAdd/ReadVariableOp", "op": "Const", "attr": {"dtype": {"type": "DT_FLOAT"}, "value": {"tensor": {"dtype": "DT_FLOAT", "tensorShape": {"dim": [{"size": "32"}]}}}}}, {"name": "StatefulPartitionedCall/model/rrdb_net/sequential/rrdb_6/rdb_19/concat_3/axis", "op": "Const", "attr": {"value": {"tensor": {"dtype": "DT_INT32", "tensorShape": {}}}, "dtype": {"type": "DT_INT32"}}}, {"name": "StatefulPartitionedCall/model/rrdb_net/sequential/rrdb_6/rdb_19/conv2d_108/Conv2D/ReadVariableOp", "op": "Const", "attr": {"dtype": {"type": "DT_FLOAT"}, "value": {"tensor": {"dtype": "DT_FLOAT", "tensorShape": {"dim": [{"size": "3"}, {"size": "3"}, {"size": "160"}, {"size": "32"}]}}}}}, {"name": "StatefulPartitionedCall/model/rrdb_net/sequential/rrdb_6/rdb_19/conv2d_108/BiasAdd/ReadVariableOp", "op": "Const", "attr": {"value": {"tensor": {"dtype": "DT_FLOAT", "tensorShape": {"dim": [{"size": "32"}]}}}, "dtype": {"type": "DT_FLOAT"}}}, {"name": "StatefulPartitionedCall/model/rrdb_net/sequential/rrdb_6/rdb_20/conv2d_109/Conv2D/ReadVariableOp", "op": "Const", "attr": {"value": {"tensor": {"dtype": "DT_FLOAT", "tensorShape": {"dim": [{"size": "3"}, {"size": "3"}, {"size": "32"}, {"size": "32"}]}}}, "dtype": {"type": "DT_FLOAT"}}}, {"name": "StatefulPartitionedCall/model/rrdb_net/sequential/rrdb_6/rdb_20/conv2d_109/BiasAdd/ReadVariableOp", "op": "Const", "attr": {"dtype": {"type": "DT_FLOAT"}, "value": {"tensor": {"dtype": "DT_FLOAT", "tensorShape": {"dim": [{"size": "32"}]}}}}}, {"name": "StatefulPartitionedCall/model/rrdb_net/sequential/rrdb_6/rdb_20/concat/axis", "op": "Const", "attr": {"value": {"tensor": {"dtype": "DT_INT32", "tensorShape": {}}}, "dtype": {"type": "DT_INT32"}}}, {"name": "StatefulPartitionedCall/model/rrdb_net/sequential/rrdb_6/rdb_20/conv2d_110/Conv2D/ReadVariableOp", "op": "Const", "attr": {"dtype": {"type": "DT_FLOAT"}, "value": {"tensor": {"dtype": "DT_FLOAT", "tensorShape": {"dim": [{"size": "3"}, {"size": "3"}, {"size": "64"}, {"size": "32"}]}}}}}, {"name": "StatefulPartitionedCall/model/rrdb_net/sequential/rrdb_6/rdb_20/conv2d_110/BiasAdd/ReadVariableOp", "op": "Const", "attr": {"dtype": {"type": "DT_FLOAT"}, "value": {"tensor": {"dtype": "DT_FLOAT", "tensorShape": {"dim": [{"size": "32"}]}}}}}, {"name": "StatefulPartitionedCall/model/rrdb_net/sequential/rrdb_6/rdb_20/concat_1/axis", "op": "Const", "attr": {"dtype": {"type": "DT_INT32"}, "value": {"tensor": {"dtype": "DT_INT32", "tensorShape": {}}}}}, {"name": "StatefulPartitionedCall/model/rrdb_net/sequential/rrdb_6/rdb_20/conv2d_111/Conv2D/ReadVariableOp", "op": "Const", "attr": {"value": {"tensor": {"dtype": "DT_FLOAT", "tensorShape": {"dim": [{"size": "3"}, {"size": "3"}, {"size": "96"}, {"size": "32"}]}}}, "dtype": {"type": "DT_FLOAT"}}}, {"name": "StatefulPartitionedCall/model/rrdb_net/sequential/rrdb_6/rdb_20/conv2d_111/BiasAdd/ReadVariableOp", "op": "Const", "attr": {"dtype": {"type": "DT_FLOAT"}, "value": {"tensor": {"dtype": "DT_FLOAT", "tensorShape": {"dim": [{"size": "32"}]}}}}}, {"name": "StatefulPartitionedCall/model/rrdb_net/sequential/rrdb_6/rdb_20/concat_2/axis", "op": "Const", "attr": {"dtype": {"type": "DT_INT32"}, "value": {"tensor": {"dtype": "DT_INT32", "tensorShape": {}}}}}, {"name": "StatefulPartitionedCall/model/rrdb_net/sequential/rrdb_6/rdb_20/conv2d_112/Conv2D/ReadVariableOp", "op": "Const", "attr": {"dtype": {"type": "DT_FLOAT"}, "value": {"tensor": {"dtype": "DT_FLOAT", "tensorShape": {"dim": [{"size": "3"}, {"size": "3"}, {"size": "128"}, {"size": "32"}]}}}}}, {"name": "StatefulPartitionedCall/model/rrdb_net/sequential/rrdb_6/rdb_20/conv2d_112/BiasAdd/ReadVariableOp", "op": "Const", "attr": {"value": {"tensor": {"dtype": "DT_FLOAT", "tensorShape": {"dim": [{"size": "32"}]}}}, "dtype": {"type": "DT_FLOAT"}}}, {"name": "StatefulPartitionedCall/model/rrdb_net/sequential/rrdb_6/rdb_20/concat_3/axis", "op": "Const", "attr": {"value": {"tensor": {"dtype": "DT_INT32", "tensorShape": {}}}, "dtype": {"type": "DT_INT32"}}}, {"name": "StatefulPartitionedCall/model/rrdb_net/sequential/rrdb_6/rdb_20/conv2d_113/Conv2D/ReadVariableOp", "op": "Const", "attr": {"dtype": {"type": "DT_FLOAT"}, "value": {"tensor": {"dtype": "DT_FLOAT", "tensorShape": {"dim": [{"size": "3"}, {"size": "3"}, {"size": "160"}, {"size": "32"}]}}}}}, {"name": "StatefulPartitionedCall/model/rrdb_net/sequential/rrdb_6/rdb_20/conv2d_113/BiasAdd/ReadVariableOp", "op": "Const", "attr": {"dtype": {"type": "DT_FLOAT"}, "value": {"tensor": {"dtype": "DT_FLOAT", "tensorShape": {"dim": [{"size": "32"}]}}}}}, {"name": "StatefulPartitionedCall/model/rrdb_net/sequential/rrdb_7/rdb_21/conv2d_114/Conv2D/ReadVariableOp", "op": "Const", "attr": {"dtype": {"type": "DT_FLOAT"}, "value": {"tensor": {"dtype": "DT_FLOAT", "tensorShape": {"dim": [{"size": "3"}, {"size": "3"}, {"size": "32"}, {"size": "32"}]}}}}}, {"name": "StatefulPartitionedCall/model/rrdb_net/sequential/rrdb_7/rdb_21/conv2d_114/BiasAdd/ReadVariableOp", "op": "Const", "attr": {"value": {"tensor": {"dtype": "DT_FLOAT", "tensorShape": {"dim": [{"size": "32"}]}}}, "dtype": {"type": "DT_FLOAT"}}}, {"name": "StatefulPartitionedCall/model/rrdb_net/sequential/rrdb_7/rdb_21/concat/axis", "op": "Const", "attr": {"value": {"tensor": {"dtype": "DT_INT32", "tensorShape": {}}}, "dtype": {"type": "DT_INT32"}}}, {"name": "StatefulPartitionedCall/model/rrdb_net/sequential/rrdb_7/rdb_21/conv2d_115/Conv2D/ReadVariableOp", "op": "Const", "attr": {"value": {"tensor": {"dtype": "DT_FLOAT", "tensorShape": {"dim": [{"size": "3"}, {"size": "3"}, {"size": "64"}, {"size": "32"}]}}}, "dtype": {"type": "DT_FLOAT"}}}, {"name": "StatefulPartitionedCall/model/rrdb_net/sequential/rrdb_7/rdb_21/conv2d_115/BiasAdd/ReadVariableOp", "op": "Const", "attr": {"dtype": {"type": "DT_FLOAT"}, "value": {"tensor": {"dtype": "DT_FLOAT", "tensorShape": {"dim": [{"size": "32"}]}}}}}, {"name": "StatefulPartitionedCall/model/rrdb_net/sequential/rrdb_7/rdb_21/concat_1/axis", "op": "Const", "attr": {"value": {"tensor": {"dtype": "DT_INT32", "tensorShape": {}}}, "dtype": {"type": "DT_INT32"}}}, {"name": "StatefulPartitionedCall/model/rrdb_net/sequential/rrdb_7/rdb_21/conv2d_116/Conv2D/ReadVariableOp", "op": "Const", "attr": {"dtype": {"type": "DT_FLOAT"}, "value": {"tensor": {"dtype": "DT_FLOAT", "tensorShape": {"dim": [{"size": "3"}, {"size": "3"}, {"size": "96"}, {"size": "32"}]}}}}}, {"name": "StatefulPartitionedCall/model/rrdb_net/sequential/rrdb_7/rdb_21/conv2d_116/BiasAdd/ReadVariableOp", "op": "Const", "attr": {"dtype": {"type": "DT_FLOAT"}, "value": {"tensor": {"dtype": "DT_FLOAT", "tensorShape": {"dim": [{"size": "32"}]}}}}}, {"name": "StatefulPartitionedCall/model/rrdb_net/sequential/rrdb_7/rdb_21/concat_2/axis", "op": "Const", "attr": {"dtype": {"type": "DT_INT32"}, "value": {"tensor": {"dtype": "DT_INT32", "tensorShape": {}}}}}, {"name": "StatefulPartitionedCall/model/rrdb_net/sequential/rrdb_7/rdb_21/conv2d_117/Conv2D/ReadVariableOp", "op": "Const", "attr": {"dtype": {"type": "DT_FLOAT"}, "value": {"tensor": {"dtype": "DT_FLOAT", "tensorShape": {"dim": [{"size": "3"}, {"size": "3"}, {"size": "128"}, {"size": "32"}]}}}}}, {"name": "StatefulPartitionedCall/model/rrdb_net/sequential/rrdb_7/rdb_21/conv2d_117/BiasAdd/ReadVariableOp", "op": "Const", "attr": {"dtype": {"type": "DT_FLOAT"}, "value": {"tensor": {"dtype": "DT_FLOAT", "tensorShape": {"dim": [{"size": "32"}]}}}}}, {"name": "StatefulPartitionedCall/model/rrdb_net/sequential/rrdb_7/rdb_21/concat_3/axis", "op": "Const", "attr": {"dtype": {"type": "DT_INT32"}, "value": {"tensor": {"dtype": "DT_INT32", "tensorShape": {}}}}}, {"name": "StatefulPartitionedCall/model/rrdb_net/sequential/rrdb_7/rdb_21/conv2d_118/Conv2D/ReadVariableOp", "op": "Const", "attr": {"dtype": {"type": "DT_FLOAT"}, "value": {"tensor": {"dtype": "DT_FLOAT", "tensorShape": {"dim": [{"size": "3"}, {"size": "3"}, {"size": "160"}, {"size": "32"}]}}}}}, {"name": "StatefulPartitionedCall/model/rrdb_net/sequential/rrdb_7/rdb_21/conv2d_118/BiasAdd/ReadVariableOp", "op": "Const", "attr": {"value": {"tensor": {"dtype": "DT_FLOAT", "tensorShape": {"dim": [{"size": "32"}]}}}, "dtype": {"type": "DT_FLOAT"}}}, {"name": "StatefulPartitionedCall/model/rrdb_net/sequential/rrdb_7/rdb_22/conv2d_119/Conv2D/ReadVariableOp", "op": "Const", "attr": {"value": {"tensor": {"dtype": "DT_FLOAT", "tensorShape": {"dim": [{"size": "3"}, {"size": "3"}, {"size": "32"}, {"size": "32"}]}}}, "dtype": {"type": "DT_FLOAT"}}}, {"name": "StatefulPartitionedCall/model/rrdb_net/sequential/rrdb_7/rdb_22/conv2d_119/BiasAdd/ReadVariableOp", "op": "Const", "attr": {"value": {"tensor": {"dtype": "DT_FLOAT", "tensorShape": {"dim": [{"size": "32"}]}}}, "dtype": {"type": "DT_FLOAT"}}}, {"name": "StatefulPartitionedCall/model/rrdb_net/sequential/rrdb_7/rdb_22/concat/axis", "op": "Const", "attr": {"dtype": {"type": "DT_INT32"}, "value": {"tensor": {"dtype": "DT_INT32", "tensorShape": {}}}}}, {"name": "StatefulPartitionedCall/model/rrdb_net/sequential/rrdb_7/rdb_22/conv2d_120/Conv2D/ReadVariableOp", "op": "Const", "attr": {"value": {"tensor": {"dtype": "DT_FLOAT", "tensorShape": {"dim": [{"size": "3"}, {"size": "3"}, {"size": "64"}, {"size": "32"}]}}}, "dtype": {"type": "DT_FLOAT"}}}, {"name": "StatefulPartitionedCall/model/rrdb_net/sequential/rrdb_7/rdb_22/conv2d_120/BiasAdd/ReadVariableOp", "op": "Const", "attr": {"value": {"tensor": {"dtype": "DT_FLOAT", "tensorShape": {"dim": [{"size": "32"}]}}}, "dtype": {"type": "DT_FLOAT"}}}, {"name": "StatefulPartitionedCall/model/rrdb_net/sequential/rrdb_7/rdb_22/concat_1/axis", "op": "Const", "attr": {"value": {"tensor": {"dtype": "DT_INT32", "tensorShape": {}}}, "dtype": {"type": "DT_INT32"}}}, {"name": "StatefulPartitionedCall/model/rrdb_net/sequential/rrdb_7/rdb_22/conv2d_121/Conv2D/ReadVariableOp", "op": "Const", "attr": {"value": {"tensor": {"dtype": "DT_FLOAT", "tensorShape": {"dim": [{"size": "3"}, {"size": "3"}, {"size": "96"}, {"size": "32"}]}}}, "dtype": {"type": "DT_FLOAT"}}}, {"name": "StatefulPartitionedCall/model/rrdb_net/sequential/rrdb_7/rdb_22/conv2d_121/BiasAdd/ReadVariableOp", "op": "Const", "attr": {"value": {"tensor": {"dtype": "DT_FLOAT", "tensorShape": {"dim": [{"size": "32"}]}}}, "dtype": {"type": "DT_FLOAT"}}}, {"name": "StatefulPartitionedCall/model/rrdb_net/sequential/rrdb_7/rdb_22/concat_2/axis", "op": "Const", "attr": {"value": {"tensor": {"dtype": "DT_INT32", "tensorShape": {}}}, "dtype": {"type": "DT_INT32"}}}, {"name": "StatefulPartitionedCall/model/rrdb_net/sequential/rrdb_7/rdb_22/conv2d_122/Conv2D/ReadVariableOp", "op": "Const", "attr": {"dtype": {"type": "DT_FLOAT"}, "value": {"tensor": {"dtype": "DT_FLOAT", "tensorShape": {"dim": [{"size": "3"}, {"size": "3"}, {"size": "128"}, {"size": "32"}]}}}}}, {"name": "StatefulPartitionedCall/model/rrdb_net/sequential/rrdb_7/rdb_22/conv2d_122/BiasAdd/ReadVariableOp", "op": "Const", "attr": {"value": {"tensor": {"dtype": "DT_FLOAT", "tensorShape": {"dim": [{"size": "32"}]}}}, "dtype": {"type": "DT_FLOAT"}}}, {"name": "StatefulPartitionedCall/model/rrdb_net/sequential/rrdb_7/rdb_22/concat_3/axis", "op": "Const", "attr": {"value": {"tensor": {"dtype": "DT_INT32", "tensorShape": {}}}, "dtype": {"type": "DT_INT32"}}}, {"name": "StatefulPartitionedCall/model/rrdb_net/sequential/rrdb_7/rdb_22/conv2d_123/Conv2D/ReadVariableOp", "op": "Const", "attr": {"dtype": {"type": "DT_FLOAT"}, "value": {"tensor": {"dtype": "DT_FLOAT", "tensorShape": {"dim": [{"size": "3"}, {"size": "3"}, {"size": "160"}, {"size": "32"}]}}}}}, {"name": "StatefulPartitionedCall/model/rrdb_net/sequential/rrdb_7/rdb_22/conv2d_123/BiasAdd/ReadVariableOp", "op": "Const", "attr": {"value": {"tensor": {"dtype": "DT_FLOAT", "tensorShape": {"dim": [{"size": "32"}]}}}, "dtype": {"type": "DT_FLOAT"}}}, {"name": "StatefulPartitionedCall/model/rrdb_net/sequential/rrdb_7/rdb_23/conv2d_124/Conv2D/ReadVariableOp", "op": "Const", "attr": {"dtype": {"type": "DT_FLOAT"}, "value": {"tensor": {"dtype": "DT_FLOAT", "tensorShape": {"dim": [{"size": "3"}, {"size": "3"}, {"size": "32"}, {"size": "32"}]}}}}}, {"name": "StatefulPartitionedCall/model/rrdb_net/sequential/rrdb_7/rdb_23/conv2d_124/BiasAdd/ReadVariableOp", "op": "Const", "attr": {"dtype": {"type": "DT_FLOAT"}, "value": {"tensor": {"dtype": "DT_FLOAT", "tensorShape": {"dim": [{"size": "32"}]}}}}}, {"name": "StatefulPartitionedCall/model/rrdb_net/sequential/rrdb_7/rdb_23/concat/axis", "op": "Const", "attr": {"dtype": {"type": "DT_INT32"}, "value": {"tensor": {"dtype": "DT_INT32", "tensorShape": {}}}}}, {"name": "StatefulPartitionedCall/model/rrdb_net/sequential/rrdb_7/rdb_23/conv2d_125/Conv2D/ReadVariableOp", "op": "Const", "attr": {"dtype": {"type": "DT_FLOAT"}, "value": {"tensor": {"dtype": "DT_FLOAT", "tensorShape": {"dim": [{"size": "3"}, {"size": "3"}, {"size": "64"}, {"size": "32"}]}}}}}, {"name": "StatefulPartitionedCall/model/rrdb_net/sequential/rrdb_7/rdb_23/conv2d_125/BiasAdd/ReadVariableOp", "op": "Const", "attr": {"dtype": {"type": "DT_FLOAT"}, "value": {"tensor": {"dtype": "DT_FLOAT", "tensorShape": {"dim": [{"size": "32"}]}}}}}, {"name": "StatefulPartitionedCall/model/rrdb_net/sequential/rrdb_7/rdb_23/concat_1/axis", "op": "Const", "attr": {"dtype": {"type": "DT_INT32"}, "value": {"tensor": {"dtype": "DT_INT32", "tensorShape": {}}}}}, {"name": "StatefulPartitionedCall/model/rrdb_net/sequential/rrdb_7/rdb_23/conv2d_126/Conv2D/ReadVariableOp", "op": "Const", "attr": {"value": {"tensor": {"dtype": "DT_FLOAT", "tensorShape": {"dim": [{"size": "3"}, {"size": "3"}, {"size": "96"}, {"size": "32"}]}}}, "dtype": {"type": "DT_FLOAT"}}}, {"name": "StatefulPartitionedCall/model/rrdb_net/sequential/rrdb_7/rdb_23/conv2d_126/BiasAdd/ReadVariableOp", "op": "Const", "attr": {"value": {"tensor": {"dtype": "DT_FLOAT", "tensorShape": {"dim": [{"size": "32"}]}}}, "dtype": {"type": "DT_FLOAT"}}}, {"name": "StatefulPartitionedCall/model/rrdb_net/sequential/rrdb_7/rdb_23/concat_2/axis", "op": "Const", "attr": {"value": {"tensor": {"dtype": "DT_INT32", "tensorShape": {}}}, "dtype": {"type": "DT_INT32"}}}, {"name": "StatefulPartitionedCall/model/rrdb_net/sequential/rrdb_7/rdb_23/conv2d_127/Conv2D/ReadVariableOp", "op": "Const", "attr": {"value": {"tensor": {"dtype": "DT_FLOAT", "tensorShape": {"dim": [{"size": "3"}, {"size": "3"}, {"size": "128"}, {"size": "32"}]}}}, "dtype": {"type": "DT_FLOAT"}}}, {"name": "StatefulPartitionedCall/model/rrdb_net/sequential/rrdb_7/rdb_23/conv2d_127/BiasAdd/ReadVariableOp", "op": "Const", "attr": {"dtype": {"type": "DT_FLOAT"}, "value": {"tensor": {"dtype": "DT_FLOAT", "tensorShape": {"dim": [{"size": "32"}]}}}}}, {"name": "StatefulPartitionedCall/model/rrdb_net/sequential/rrdb_7/rdb_23/concat_3/axis", "op": "Const", "attr": {"value": {"tensor": {"dtype": "DT_INT32", "tensorShape": {}}}, "dtype": {"type": "DT_INT32"}}}, {"name": "StatefulPartitionedCall/model/rrdb_net/sequential/rrdb_7/rdb_23/conv2d_128/Conv2D/ReadVariableOp", "op": "Const", "attr": {"value": {"tensor": {"dtype": "DT_FLOAT", "tensorShape": {"dim": [{"size": "3"}, {"size": "3"}, {"size": "160"}, {"size": "32"}]}}}, "dtype": {"type": "DT_FLOAT"}}}, {"name": "StatefulPartitionedCall/model/rrdb_net/sequential/rrdb_7/rdb_23/conv2d_128/BiasAdd/ReadVariableOp", "op": "Const", "attr": {"value": {"tensor": {"dtype": "DT_FLOAT", "tensorShape": {"dim": [{"size": "32"}]}}}, "dtype": {"type": "DT_FLOAT"}}}, {"name": "StatefulPartitionedCall/model/rrdb_net/sequential/rrdb_8/rdb_24/conv2d_129/Conv2D/ReadVariableOp", "op": "Const", "attr": {"dtype": {"type": "DT_FLOAT"}, "value": {"tensor": {"dtype": "DT_FLOAT", "tensorShape": {"dim": [{"size": "3"}, {"size": "3"}, {"size": "32"}, {"size": "32"}]}}}}}, {"name": "StatefulPartitionedCall/model/rrdb_net/sequential/rrdb_8/rdb_24/conv2d_129/BiasAdd/ReadVariableOp", "op": "Const", "attr": {"value": {"tensor": {"dtype": "DT_FLOAT", "tensorShape": {"dim": [{"size": "32"}]}}}, "dtype": {"type": "DT_FLOAT"}}}, {"name": "StatefulPartitionedCall/model/rrdb_net/sequential/rrdb_8/rdb_24/concat/axis", "op": "Const", "attr": {"value": {"tensor": {"dtype": "DT_INT32", "tensorShape": {}}}, "dtype": {"type": "DT_INT32"}}}, {"name": "StatefulPartitionedCall/model/rrdb_net/sequential/rrdb_8/rdb_24/conv2d_130/Conv2D/ReadVariableOp", "op": "Const", "attr": {"value": {"tensor": {"dtype": "DT_FLOAT", "tensorShape": {"dim": [{"size": "3"}, {"size": "3"}, {"size": "64"}, {"size": "32"}]}}}, "dtype": {"type": "DT_FLOAT"}}}, {"name": "StatefulPartitionedCall/model/rrdb_net/sequential/rrdb_8/rdb_24/conv2d_130/BiasAdd/ReadVariableOp", "op": "Const", "attr": {"dtype": {"type": "DT_FLOAT"}, "value": {"tensor": {"dtype": "DT_FLOAT", "tensorShape": {"dim": [{"size": "32"}]}}}}}, {"name": "StatefulPartitionedCall/model/rrdb_net/sequential/rrdb_8/rdb_24/concat_1/axis", "op": "Const", "attr": {"dtype": {"type": "DT_INT32"}, "value": {"tensor": {"dtype": "DT_INT32", "tensorShape": {}}}}}, {"name": "StatefulPartitionedCall/model/rrdb_net/sequential/rrdb_8/rdb_24/conv2d_131/Conv2D/ReadVariableOp", "op": "Const", "attr": {"value": {"tensor": {"dtype": "DT_FLOAT", "tensorShape": {"dim": [{"size": "3"}, {"size": "3"}, {"size": "96"}, {"size": "32"}]}}}, "dtype": {"type": "DT_FLOAT"}}}, {"name": "StatefulPartitionedCall/model/rrdb_net/sequential/rrdb_8/rdb_24/conv2d_131/BiasAdd/ReadVariableOp", "op": "Const", "attr": {"dtype": {"type": "DT_FLOAT"}, "value": {"tensor": {"dtype": "DT_FLOAT", "tensorShape": {"dim": [{"size": "32"}]}}}}}, {"name": "StatefulPartitionedCall/model/rrdb_net/sequential/rrdb_8/rdb_24/concat_2/axis", "op": "Const", "attr": {"value": {"tensor": {"dtype": "DT_INT32", "tensorShape": {}}}, "dtype": {"type": "DT_INT32"}}}, {"name": "StatefulPartitionedCall/model/rrdb_net/sequential/rrdb_8/rdb_24/conv2d_132/Conv2D/ReadVariableOp", "op": "Const", "attr": {"value": {"tensor": {"dtype": "DT_FLOAT", "tensorShape": {"dim": [{"size": "3"}, {"size": "3"}, {"size": "128"}, {"size": "32"}]}}}, "dtype": {"type": "DT_FLOAT"}}}, {"name": "StatefulPartitionedCall/model/rrdb_net/sequential/rrdb_8/rdb_24/conv2d_132/BiasAdd/ReadVariableOp", "op": "Const", "attr": {"value": {"tensor": {"dtype": "DT_FLOAT", "tensorShape": {"dim": [{"size": "32"}]}}}, "dtype": {"type": "DT_FLOAT"}}}, {"name": "StatefulPartitionedCall/model/rrdb_net/sequential/rrdb_8/rdb_24/concat_3/axis", "op": "Const", "attr": {"value": {"tensor": {"dtype": "DT_INT32", "tensorShape": {}}}, "dtype": {"type": "DT_INT32"}}}, {"name": "StatefulPartitionedCall/model/rrdb_net/sequential/rrdb_8/rdb_24/conv2d_133/Conv2D/ReadVariableOp", "op": "Const", "attr": {"dtype": {"type": "DT_FLOAT"}, "value": {"tensor": {"dtype": "DT_FLOAT", "tensorShape": {"dim": [{"size": "3"}, {"size": "3"}, {"size": "160"}, {"size": "32"}]}}}}}, {"name": "StatefulPartitionedCall/model/rrdb_net/sequential/rrdb_8/rdb_24/conv2d_133/BiasAdd/ReadVariableOp", "op": "Const", "attr": {"value": {"tensor": {"dtype": "DT_FLOAT", "tensorShape": {"dim": [{"size": "32"}]}}}, "dtype": {"type": "DT_FLOAT"}}}, {"name": "StatefulPartitionedCall/model/rrdb_net/sequential/rrdb_8/rdb_25/conv2d_134/Conv2D/ReadVariableOp", "op": "Const", "attr": {"dtype": {"type": "DT_FLOAT"}, "value": {"tensor": {"dtype": "DT_FLOAT", "tensorShape": {"dim": [{"size": "3"}, {"size": "3"}, {"size": "32"}, {"size": "32"}]}}}}}, {"name": "StatefulPartitionedCall/model/rrdb_net/sequential/rrdb_8/rdb_25/conv2d_134/BiasAdd/ReadVariableOp", "op": "Const", "attr": {"dtype": {"type": "DT_FLOAT"}, "value": {"tensor": {"dtype": "DT_FLOAT", "tensorShape": {"dim": [{"size": "32"}]}}}}}, {"name": "StatefulPartitionedCall/model/rrdb_net/sequential/rrdb_8/rdb_25/concat/axis", "op": "Const", "attr": {"value": {"tensor": {"dtype": "DT_INT32", "tensorShape": {}}}, "dtype": {"type": "DT_INT32"}}}, {"name": "StatefulPartitionedCall/model/rrdb_net/sequential/rrdb_8/rdb_25/conv2d_135/Conv2D/ReadVariableOp", "op": "Const", "attr": {"value": {"tensor": {"dtype": "DT_FLOAT", "tensorShape": {"dim": [{"size": "3"}, {"size": "3"}, {"size": "64"}, {"size": "32"}]}}}, "dtype": {"type": "DT_FLOAT"}}}, {"name": "StatefulPartitionedCall/model/rrdb_net/sequential/rrdb_8/rdb_25/conv2d_135/BiasAdd/ReadVariableOp", "op": "Const", "attr": {"value": {"tensor": {"dtype": "DT_FLOAT", "tensorShape": {"dim": [{"size": "32"}]}}}, "dtype": {"type": "DT_FLOAT"}}}, {"name": "StatefulPartitionedCall/model/rrdb_net/sequential/rrdb_8/rdb_25/concat_1/axis", "op": "Const", "attr": {"value": {"tensor": {"dtype": "DT_INT32", "tensorShape": {}}}, "dtype": {"type": "DT_INT32"}}}, {"name": "StatefulPartitionedCall/model/rrdb_net/sequential/rrdb_8/rdb_25/conv2d_136/Conv2D/ReadVariableOp", "op": "Const", "attr": {"dtype": {"type": "DT_FLOAT"}, "value": {"tensor": {"dtype": "DT_FLOAT", "tensorShape": {"dim": [{"size": "3"}, {"size": "3"}, {"size": "96"}, {"size": "32"}]}}}}}, {"name": "StatefulPartitionedCall/model/rrdb_net/sequential/rrdb_8/rdb_25/conv2d_136/BiasAdd/ReadVariableOp", "op": "Const", "attr": {"value": {"tensor": {"dtype": "DT_FLOAT", "tensorShape": {"dim": [{"size": "32"}]}}}, "dtype": {"type": "DT_FLOAT"}}}, {"name": "StatefulPartitionedCall/model/rrdb_net/sequential/rrdb_8/rdb_25/concat_2/axis", "op": "Const", "attr": {"dtype": {"type": "DT_INT32"}, "value": {"tensor": {"dtype": "DT_INT32", "tensorShape": {}}}}}, {"name": "StatefulPartitionedCall/model/rrdb_net/sequential/rrdb_8/rdb_25/conv2d_137/Conv2D/ReadVariableOp", "op": "Const", "attr": {"dtype": {"type": "DT_FLOAT"}, "value": {"tensor": {"dtype": "DT_FLOAT", "tensorShape": {"dim": [{"size": "3"}, {"size": "3"}, {"size": "128"}, {"size": "32"}]}}}}}, {"name": "StatefulPartitionedCall/model/rrdb_net/sequential/rrdb_8/rdb_25/conv2d_137/BiasAdd/ReadVariableOp", "op": "Const", "attr": {"dtype": {"type": "DT_FLOAT"}, "value": {"tensor": {"dtype": "DT_FLOAT", "tensorShape": {"dim": [{"size": "32"}]}}}}}, {"name": "StatefulPartitionedCall/model/rrdb_net/sequential/rrdb_8/rdb_25/concat_3/axis", "op": "Const", "attr": {"value": {"tensor": {"dtype": "DT_INT32", "tensorShape": {}}}, "dtype": {"type": "DT_INT32"}}}, {"name": "StatefulPartitionedCall/model/rrdb_net/sequential/rrdb_8/rdb_25/conv2d_138/Conv2D/ReadVariableOp", "op": "Const", "attr": {"value": {"tensor": {"dtype": "DT_FLOAT", "tensorShape": {"dim": [{"size": "3"}, {"size": "3"}, {"size": "160"}, {"size": "32"}]}}}, "dtype": {"type": "DT_FLOAT"}}}, {"name": "StatefulPartitionedCall/model/rrdb_net/sequential/rrdb_8/rdb_25/conv2d_138/BiasAdd/ReadVariableOp", "op": "Const", "attr": {"dtype": {"type": "DT_FLOAT"}, "value": {"tensor": {"dtype": "DT_FLOAT", "tensorShape": {"dim": [{"size": "32"}]}}}}}, {"name": "StatefulPartitionedCall/model/rrdb_net/sequential/rrdb_8/rdb_26/conv2d_139/Conv2D/ReadVariableOp", "op": "Const", "attr": {"dtype": {"type": "DT_FLOAT"}, "value": {"tensor": {"dtype": "DT_FLOAT", "tensorShape": {"dim": [{"size": "3"}, {"size": "3"}, {"size": "32"}, {"size": "32"}]}}}}}, {"name": "StatefulPartitionedCall/model/rrdb_net/sequential/rrdb_8/rdb_26/conv2d_139/BiasAdd/ReadVariableOp", "op": "Const", "attr": {"dtype": {"type": "DT_FLOAT"}, "value": {"tensor": {"dtype": "DT_FLOAT", "tensorShape": {"dim": [{"size": "32"}]}}}}}, {"name": "StatefulPartitionedCall/model/rrdb_net/sequential/rrdb_8/rdb_26/concat/axis", "op": "Const", "attr": {"dtype": {"type": "DT_INT32"}, "value": {"tensor": {"dtype": "DT_INT32", "tensorShape": {}}}}}, {"name": "StatefulPartitionedCall/model/rrdb_net/sequential/rrdb_8/rdb_26/conv2d_140/Conv2D/ReadVariableOp", "op": "Const", "attr": {"dtype": {"type": "DT_FLOAT"}, "value": {"tensor": {"dtype": "DT_FLOAT", "tensorShape": {"dim": [{"size": "3"}, {"size": "3"}, {"size": "64"}, {"size": "32"}]}}}}}, {"name": "StatefulPartitionedCall/model/rrdb_net/sequential/rrdb_8/rdb_26/conv2d_140/BiasAdd/ReadVariableOp", "op": "Const", "attr": {"value": {"tensor": {"dtype": "DT_FLOAT", "tensorShape": {"dim": [{"size": "32"}]}}}, "dtype": {"type": "DT_FLOAT"}}}, {"name": "StatefulPartitionedCall/model/rrdb_net/sequential/rrdb_8/rdb_26/concat_1/axis", "op": "Const", "attr": {"dtype": {"type": "DT_INT32"}, "value": {"tensor": {"dtype": "DT_INT32", "tensorShape": {}}}}}, {"name": "StatefulPartitionedCall/model/rrdb_net/sequential/rrdb_8/rdb_26/conv2d_141/Conv2D/ReadVariableOp", "op": "Const", "attr": {"dtype": {"type": "DT_FLOAT"}, "value": {"tensor": {"dtype": "DT_FLOAT", "tensorShape": {"dim": [{"size": "3"}, {"size": "3"}, {"size": "96"}, {"size": "32"}]}}}}}, {"name": "StatefulPartitionedCall/model/rrdb_net/sequential/rrdb_8/rdb_26/conv2d_141/BiasAdd/ReadVariableOp", "op": "Const", "attr": {"value": {"tensor": {"dtype": "DT_FLOAT", "tensorShape": {"dim": [{"size": "32"}]}}}, "dtype": {"type": "DT_FLOAT"}}}, {"name": "StatefulPartitionedCall/model/rrdb_net/sequential/rrdb_8/rdb_26/concat_2/axis", "op": "Const", "attr": {"dtype": {"type": "DT_INT32"}, "value": {"tensor": {"dtype": "DT_INT32", "tensorShape": {}}}}}, {"name": "StatefulPartitionedCall/model/rrdb_net/sequential/rrdb_8/rdb_26/conv2d_142/Conv2D/ReadVariableOp", "op": "Const", "attr": {"dtype": {"type": "DT_FLOAT"}, "value": {"tensor": {"dtype": "DT_FLOAT", "tensorShape": {"dim": [{"size": "3"}, {"size": "3"}, {"size": "128"}, {"size": "32"}]}}}}}, {"name": "StatefulPartitionedCall/model/rrdb_net/sequential/rrdb_8/rdb_26/conv2d_142/BiasAdd/ReadVariableOp", "op": "Const", "attr": {"dtype": {"type": "DT_FLOAT"}, "value": {"tensor": {"dtype": "DT_FLOAT", "tensorShape": {"dim": [{"size": "32"}]}}}}}, {"name": "StatefulPartitionedCall/model/rrdb_net/sequential/rrdb_8/rdb_26/concat_3/axis", "op": "Const", "attr": {"dtype": {"type": "DT_INT32"}, "value": {"tensor": {"dtype": "DT_INT32", "tensorShape": {}}}}}, {"name": "StatefulPartitionedCall/model/rrdb_net/sequential/rrdb_8/rdb_26/conv2d_143/Conv2D/ReadVariableOp", "op": "Const", "attr": {"value": {"tensor": {"dtype": "DT_FLOAT", "tensorShape": {"dim": [{"size": "3"}, {"size": "3"}, {"size": "160"}, {"size": "32"}]}}}, "dtype": {"type": "DT_FLOAT"}}}, {"name": "StatefulPartitionedCall/model/rrdb_net/sequential/rrdb_8/rdb_26/conv2d_143/BiasAdd/ReadVariableOp", "op": "Const", "attr": {"value": {"tensor": {"dtype": "DT_FLOAT", "tensorShape": {"dim": [{"size": "32"}]}}}, "dtype": {"type": "DT_FLOAT"}}}, {"name": "StatefulPartitionedCall/model/rrdb_net/sequential/rrdb_9/rdb_27/conv2d_144/Conv2D/ReadVariableOp", "op": "Const", "attr": {"dtype": {"type": "DT_FLOAT"}, "value": {"tensor": {"dtype": "DT_FLOAT", "tensorShape": {"dim": [{"size": "3"}, {"size": "3"}, {"size": "32"}, {"size": "32"}]}}}}}, {"name": "StatefulPartitionedCall/model/rrdb_net/sequential/rrdb_9/rdb_27/conv2d_144/BiasAdd/ReadVariableOp", "op": "Const", "attr": {"dtype": {"type": "DT_FLOAT"}, "value": {"tensor": {"dtype": "DT_FLOAT", "tensorShape": {"dim": [{"size": "32"}]}}}}}, {"name": "StatefulPartitionedCall/model/rrdb_net/sequential/rrdb_9/rdb_27/concat/axis", "op": "Const", "attr": {"value": {"tensor": {"dtype": "DT_INT32", "tensorShape": {}}}, "dtype": {"type": "DT_INT32"}}}, {"name": "StatefulPartitionedCall/model/rrdb_net/sequential/rrdb_9/rdb_27/conv2d_145/Conv2D/ReadVariableOp", "op": "Const", "attr": {"dtype": {"type": "DT_FLOAT"}, "value": {"tensor": {"dtype": "DT_FLOAT", "tensorShape": {"dim": [{"size": "3"}, {"size": "3"}, {"size": "64"}, {"size": "32"}]}}}}}, {"name": "StatefulPartitionedCall/model/rrdb_net/sequential/rrdb_9/rdb_27/conv2d_145/BiasAdd/ReadVariableOp", "op": "Const", "attr": {"value": {"tensor": {"dtype": "DT_FLOAT", "tensorShape": {"dim": [{"size": "32"}]}}}, "dtype": {"type": "DT_FLOAT"}}}, {"name": "StatefulPartitionedCall/model/rrdb_net/sequential/rrdb_9/rdb_27/concat_1/axis", "op": "Const", "attr": {"value": {"tensor": {"dtype": "DT_INT32", "tensorShape": {}}}, "dtype": {"type": "DT_INT32"}}}, {"name": "StatefulPartitionedCall/model/rrdb_net/sequential/rrdb_9/rdb_27/conv2d_146/Conv2D/ReadVariableOp", "op": "Const", "attr": {"dtype": {"type": "DT_FLOAT"}, "value": {"tensor": {"dtype": "DT_FLOAT", "tensorShape": {"dim": [{"size": "3"}, {"size": "3"}, {"size": "96"}, {"size": "32"}]}}}}}, {"name": "StatefulPartitionedCall/model/rrdb_net/sequential/rrdb_9/rdb_27/conv2d_146/BiasAdd/ReadVariableOp", "op": "Const", "attr": {"dtype": {"type": "DT_FLOAT"}, "value": {"tensor": {"dtype": "DT_FLOAT", "tensorShape": {"dim": [{"size": "32"}]}}}}}, {"name": "StatefulPartitionedCall/model/rrdb_net/sequential/rrdb_9/rdb_27/concat_2/axis", "op": "Const", "attr": {"value": {"tensor": {"dtype": "DT_INT32", "tensorShape": {}}}, "dtype": {"type": "DT_INT32"}}}, {"name": "StatefulPartitionedCall/model/rrdb_net/sequential/rrdb_9/rdb_27/conv2d_147/Conv2D/ReadVariableOp", "op": "Const", "attr": {"dtype": {"type": "DT_FLOAT"}, "value": {"tensor": {"dtype": "DT_FLOAT", "tensorShape": {"dim": [{"size": "3"}, {"size": "3"}, {"size": "128"}, {"size": "32"}]}}}}}, {"name": "StatefulPartitionedCall/model/rrdb_net/sequential/rrdb_9/rdb_27/conv2d_147/BiasAdd/ReadVariableOp", "op": "Const", "attr": {"dtype": {"type": "DT_FLOAT"}, "value": {"tensor": {"dtype": "DT_FLOAT", "tensorShape": {"dim": [{"size": "32"}]}}}}}, {"name": "StatefulPartitionedCall/model/rrdb_net/sequential/rrdb_9/rdb_27/concat_3/axis", "op": "Const", "attr": {"value": {"tensor": {"dtype": "DT_INT32", "tensorShape": {}}}, "dtype": {"type": "DT_INT32"}}}, {"name": "StatefulPartitionedCall/model/rrdb_net/sequential/rrdb_9/rdb_27/conv2d_148/Conv2D/ReadVariableOp", "op": "Const", "attr": {"value": {"tensor": {"dtype": "DT_FLOAT", "tensorShape": {"dim": [{"size": "3"}, {"size": "3"}, {"size": "160"}, {"size": "32"}]}}}, "dtype": {"type": "DT_FLOAT"}}}, {"name": "StatefulPartitionedCall/model/rrdb_net/sequential/rrdb_9/rdb_27/conv2d_148/BiasAdd/ReadVariableOp", "op": "Const", "attr": {"dtype": {"type": "DT_FLOAT"}, "value": {"tensor": {"dtype": "DT_FLOAT", "tensorShape": {"dim": [{"size": "32"}]}}}}}, {"name": "StatefulPartitionedCall/model/rrdb_net/sequential/rrdb_9/rdb_28/conv2d_149/Conv2D/ReadVariableOp", "op": "Const", "attr": {"dtype": {"type": "DT_FLOAT"}, "value": {"tensor": {"dtype": "DT_FLOAT", "tensorShape": {"dim": [{"size": "3"}, {"size": "3"}, {"size": "32"}, {"size": "32"}]}}}}}, {"name": "StatefulPartitionedCall/model/rrdb_net/sequential/rrdb_9/rdb_28/conv2d_149/BiasAdd/ReadVariableOp", "op": "Const", "attr": {"dtype": {"type": "DT_FLOAT"}, "value": {"tensor": {"dtype": "DT_FLOAT", "tensorShape": {"dim": [{"size": "32"}]}}}}}, {"name": "StatefulPartitionedCall/model/rrdb_net/sequential/rrdb_9/rdb_28/concat/axis", "op": "Const", "attr": {"value": {"tensor": {"dtype": "DT_INT32", "tensorShape": {}}}, "dtype": {"type": "DT_INT32"}}}, {"name": "StatefulPartitionedCall/model/rrdb_net/sequential/rrdb_9/rdb_28/conv2d_150/Conv2D/ReadVariableOp", "op": "Const", "attr": {"dtype": {"type": "DT_FLOAT"}, "value": {"tensor": {"dtype": "DT_FLOAT", "tensorShape": {"dim": [{"size": "3"}, {"size": "3"}, {"size": "64"}, {"size": "32"}]}}}}}, {"name": "StatefulPartitionedCall/model/rrdb_net/sequential/rrdb_9/rdb_28/conv2d_150/BiasAdd/ReadVariableOp", "op": "Const", "attr": {"value": {"tensor": {"dtype": "DT_FLOAT", "tensorShape": {"dim": [{"size": "32"}]}}}, "dtype": {"type": "DT_FLOAT"}}}, {"name": "StatefulPartitionedCall/model/rrdb_net/sequential/rrdb_9/rdb_28/concat_1/axis", "op": "Const", "attr": {"dtype": {"type": "DT_INT32"}, "value": {"tensor": {"dtype": "DT_INT32", "tensorShape": {}}}}}, {"name": "StatefulPartitionedCall/model/rrdb_net/sequential/rrdb_9/rdb_28/conv2d_151/Conv2D/ReadVariableOp", "op": "Const", "attr": {"value": {"tensor": {"dtype": "DT_FLOAT", "tensorShape": {"dim": [{"size": "3"}, {"size": "3"}, {"size": "96"}, {"size": "32"}]}}}, "dtype": {"type": "DT_FLOAT"}}}, {"name": "StatefulPartitionedCall/model/rrdb_net/sequential/rrdb_9/rdb_28/conv2d_151/BiasAdd/ReadVariableOp", "op": "Const", "attr": {"value": {"tensor": {"dtype": "DT_FLOAT", "tensorShape": {"dim": [{"size": "32"}]}}}, "dtype": {"type": "DT_FLOAT"}}}, {"name": "StatefulPartitionedCall/model/rrdb_net/sequential/rrdb_9/rdb_28/concat_2/axis", "op": "Const", "attr": {"dtype": {"type": "DT_INT32"}, "value": {"tensor": {"dtype": "DT_INT32", "tensorShape": {}}}}}, {"name": "StatefulPartitionedCall/model/rrdb_net/sequential/rrdb_9/rdb_28/conv2d_152/Conv2D/ReadVariableOp", "op": "Const", "attr": {"value": {"tensor": {"dtype": "DT_FLOAT", "tensorShape": {"dim": [{"size": "3"}, {"size": "3"}, {"size": "128"}, {"size": "32"}]}}}, "dtype": {"type": "DT_FLOAT"}}}, {"name": "StatefulPartitionedCall/model/rrdb_net/sequential/rrdb_9/rdb_28/conv2d_152/BiasAdd/ReadVariableOp", "op": "Const", "attr": {"dtype": {"type": "DT_FLOAT"}, "value": {"tensor": {"dtype": "DT_FLOAT", "tensorShape": {"dim": [{"size": "32"}]}}}}}, {"name": "StatefulPartitionedCall/model/rrdb_net/sequential/rrdb_9/rdb_28/concat_3/axis", "op": "Const", "attr": {"dtype": {"type": "DT_INT32"}, "value": {"tensor": {"dtype": "DT_INT32", "tensorShape": {}}}}}, {"name": "StatefulPartitionedCall/model/rrdb_net/sequential/rrdb_9/rdb_28/conv2d_153/Conv2D/ReadVariableOp", "op": "Const", "attr": {"dtype": {"type": "DT_FLOAT"}, "value": {"tensor": {"dtype": "DT_FLOAT", "tensorShape": {"dim": [{"size": "3"}, {"size": "3"}, {"size": "160"}, {"size": "32"}]}}}}}, {"name": "StatefulPartitionedCall/model/rrdb_net/sequential/rrdb_9/rdb_28/conv2d_153/BiasAdd/ReadVariableOp", "op": "Const", "attr": {"value": {"tensor": {"dtype": "DT_FLOAT", "tensorShape": {"dim": [{"size": "32"}]}}}, "dtype": {"type": "DT_FLOAT"}}}, {"name": "StatefulPartitionedCall/model/rrdb_net/sequential/rrdb_9/rdb_29/conv2d_154/Conv2D/ReadVariableOp", "op": "Const", "attr": {"dtype": {"type": "DT_FLOAT"}, "value": {"tensor": {"dtype": "DT_FLOAT", "tensorShape": {"dim": [{"size": "3"}, {"size": "3"}, {"size": "32"}, {"size": "32"}]}}}}}, {"name": "StatefulPartitionedCall/model/rrdb_net/sequential/rrdb_9/rdb_29/conv2d_154/BiasAdd/ReadVariableOp", "op": "Const", "attr": {"value": {"tensor": {"dtype": "DT_FLOAT", "tensorShape": {"dim": [{"size": "32"}]}}}, "dtype": {"type": "DT_FLOAT"}}}, {"name": "StatefulPartitionedCall/model/rrdb_net/sequential/rrdb_9/rdb_29/concat/axis", "op": "Const", "attr": {"dtype": {"type": "DT_INT32"}, "value": {"tensor": {"dtype": "DT_INT32", "tensorShape": {}}}}}, {"name": "StatefulPartitionedCall/model/rrdb_net/sequential/rrdb_9/rdb_29/conv2d_155/Conv2D/ReadVariableOp", "op": "Const", "attr": {"dtype": {"type": "DT_FLOAT"}, "value": {"tensor": {"dtype": "DT_FLOAT", "tensorShape": {"dim": [{"size": "3"}, {"size": "3"}, {"size": "64"}, {"size": "32"}]}}}}}, {"name": "StatefulPartitionedCall/model/rrdb_net/sequential/rrdb_9/rdb_29/conv2d_155/BiasAdd/ReadVariableOp", "op": "Const", "attr": {"dtype": {"type": "DT_FLOAT"}, "value": {"tensor": {"dtype": "DT_FLOAT", "tensorShape": {"dim": [{"size": "32"}]}}}}}, {"name": "StatefulPartitionedCall/model/rrdb_net/sequential/rrdb_9/rdb_29/concat_1/axis", "op": "Const", "attr": {"value": {"tensor": {"dtype": "DT_INT32", "tensorShape": {}}}, "dtype": {"type": "DT_INT32"}}}, {"name": "StatefulPartitionedCall/model/rrdb_net/sequential/rrdb_9/rdb_29/conv2d_156/Conv2D/ReadVariableOp", "op": "Const", "attr": {"value": {"tensor": {"dtype": "DT_FLOAT", "tensorShape": {"dim": [{"size": "3"}, {"size": "3"}, {"size": "96"}, {"size": "32"}]}}}, "dtype": {"type": "DT_FLOAT"}}}, {"name": "StatefulPartitionedCall/model/rrdb_net/sequential/rrdb_9/rdb_29/conv2d_156/BiasAdd/ReadVariableOp", "op": "Const", "attr": {"value": {"tensor": {"dtype": "DT_FLOAT", "tensorShape": {"dim": [{"size": "32"}]}}}, "dtype": {"type": "DT_FLOAT"}}}, {"name": "StatefulPartitionedCall/model/rrdb_net/sequential/rrdb_9/rdb_29/concat_2/axis", "op": "Const", "attr": {"dtype": {"type": "DT_INT32"}, "value": {"tensor": {"dtype": "DT_INT32", "tensorShape": {}}}}}, {"name": "StatefulPartitionedCall/model/rrdb_net/sequential/rrdb_9/rdb_29/conv2d_157/Conv2D/ReadVariableOp", "op": "Const", "attr": {"dtype": {"type": "DT_FLOAT"}, "value": {"tensor": {"dtype": "DT_FLOAT", "tensorShape": {"dim": [{"size": "3"}, {"size": "3"}, {"size": "128"}, {"size": "32"}]}}}}}, {"name": "StatefulPartitionedCall/model/rrdb_net/sequential/rrdb_9/rdb_29/conv2d_157/BiasAdd/ReadVariableOp", "op": "Const", "attr": {"dtype": {"type": "DT_FLOAT"}, "value": {"tensor": {"dtype": "DT_FLOAT", "tensorShape": {"dim": [{"size": "32"}]}}}}}, {"name": "StatefulPartitionedCall/model/rrdb_net/sequential/rrdb_9/rdb_29/concat_3/axis", "op": "Const", "attr": {"value": {"tensor": {"dtype": "DT_INT32", "tensorShape": {}}}, "dtype": {"type": "DT_INT32"}}}, {"name": "StatefulPartitionedCall/model/rrdb_net/sequential/rrdb_9/rdb_29/conv2d_158/Conv2D/ReadVariableOp", "op": "Const", "attr": {"dtype": {"type": "DT_FLOAT"}, "value": {"tensor": {"dtype": "DT_FLOAT", "tensorShape": {"dim": [{"size": "3"}, {"size": "3"}, {"size": "160"}, {"size": "32"}]}}}}}, {"name": "StatefulPartitionedCall/model/rrdb_net/sequential/rrdb_9/rdb_29/conv2d_158/BiasAdd/ReadVariableOp", "op": "Const", "attr": {"value": {"tensor": {"dtype": "DT_FLOAT", "tensorShape": {"dim": [{"size": "32"}]}}}, "dtype": {"type": "DT_FLOAT"}}}, {"name": "StatefulPartitionedCall/model/rrdb_net/sequential/rrdb_10/rdb_30/conv2d_159/Conv2D/ReadVariableOp", "op": "Const", "attr": {"dtype": {"type": "DT_FLOAT"}, "value": {"tensor": {"dtype": "DT_FLOAT", "tensorShape": {"dim": [{"size": "3"}, {"size": "3"}, {"size": "32"}, {"size": "32"}]}}}}}, {"name": "StatefulPartitionedCall/model/rrdb_net/sequential/rrdb_10/rdb_30/conv2d_159/BiasAdd/ReadVariableOp", "op": "Const", "attr": {"value": {"tensor": {"dtype": "DT_FLOAT", "tensorShape": {"dim": [{"size": "32"}]}}}, "dtype": {"type": "DT_FLOAT"}}}, {"name": "StatefulPartitionedCall/model/rrdb_net/sequential/rrdb_10/rdb_30/concat/axis", "op": "Const", "attr": {"dtype": {"type": "DT_INT32"}, "value": {"tensor": {"dtype": "DT_INT32", "tensorShape": {}}}}}, {"name": "StatefulPartitionedCall/model/rrdb_net/sequential/rrdb_10/rdb_30/conv2d_160/Conv2D/ReadVariableOp", "op": "Const", "attr": {"value": {"tensor": {"dtype": "DT_FLOAT", "tensorShape": {"dim": [{"size": "3"}, {"size": "3"}, {"size": "64"}, {"size": "32"}]}}}, "dtype": {"type": "DT_FLOAT"}}}, {"name": "StatefulPartitionedCall/model/rrdb_net/sequential/rrdb_10/rdb_30/conv2d_160/BiasAdd/ReadVariableOp", "op": "Const", "attr": {"dtype": {"type": "DT_FLOAT"}, "value": {"tensor": {"dtype": "DT_FLOAT", "tensorShape": {"dim": [{"size": "32"}]}}}}}, {"name": "StatefulPartitionedCall/model/rrdb_net/sequential/rrdb_10/rdb_30/concat_1/axis", "op": "Const", "attr": {"dtype": {"type": "DT_INT32"}, "value": {"tensor": {"dtype": "DT_INT32", "tensorShape": {}}}}}, {"name": "StatefulPartitionedCall/model/rrdb_net/sequential/rrdb_10/rdb_30/conv2d_161/Conv2D/ReadVariableOp", "op": "Const", "attr": {"dtype": {"type": "DT_FLOAT"}, "value": {"tensor": {"dtype": "DT_FLOAT", "tensorShape": {"dim": [{"size": "3"}, {"size": "3"}, {"size": "96"}, {"size": "32"}]}}}}}, {"name": "StatefulPartitionedCall/model/rrdb_net/sequential/rrdb_10/rdb_30/conv2d_161/BiasAdd/ReadVariableOp", "op": "Const", "attr": {"value": {"tensor": {"dtype": "DT_FLOAT", "tensorShape": {"dim": [{"size": "32"}]}}}, "dtype": {"type": "DT_FLOAT"}}}, {"name": "StatefulPartitionedCall/model/rrdb_net/sequential/rrdb_10/rdb_30/concat_2/axis", "op": "Const", "attr": {"dtype": {"type": "DT_INT32"}, "value": {"tensor": {"dtype": "DT_INT32", "tensorShape": {}}}}}, {"name": "StatefulPartitionedCall/model/rrdb_net/sequential/rrdb_10/rdb_30/conv2d_162/Conv2D/ReadVariableOp", "op": "Const", "attr": {"value": {"tensor": {"dtype": "DT_FLOAT", "tensorShape": {"dim": [{"size": "3"}, {"size": "3"}, {"size": "128"}, {"size": "32"}]}}}, "dtype": {"type": "DT_FLOAT"}}}, {"name": "StatefulPartitionedCall/model/rrdb_net/sequential/rrdb_10/rdb_30/conv2d_162/BiasAdd/ReadVariableOp", "op": "Const", "attr": {"dtype": {"type": "DT_FLOAT"}, "value": {"tensor": {"dtype": "DT_FLOAT", "tensorShape": {"dim": [{"size": "32"}]}}}}}, {"name": "StatefulPartitionedCall/model/rrdb_net/sequential/rrdb_10/rdb_30/concat_3/axis", "op": "Const", "attr": {"value": {"tensor": {"dtype": "DT_INT32", "tensorShape": {}}}, "dtype": {"type": "DT_INT32"}}}, {"name": "StatefulPartitionedCall/model/rrdb_net/sequential/rrdb_10/rdb_30/conv2d_163/Conv2D/ReadVariableOp", "op": "Const", "attr": {"value": {"tensor": {"dtype": "DT_FLOAT", "tensorShape": {"dim": [{"size": "3"}, {"size": "3"}, {"size": "160"}, {"size": "32"}]}}}, "dtype": {"type": "DT_FLOAT"}}}, {"name": "StatefulPartitionedCall/model/rrdb_net/sequential/rrdb_10/rdb_30/conv2d_163/BiasAdd/ReadVariableOp", "op": "Const", "attr": {"value": {"tensor": {"dtype": "DT_FLOAT", "tensorShape": {"dim": [{"size": "32"}]}}}, "dtype": {"type": "DT_FLOAT"}}}, {"name": "StatefulPartitionedCall/model/rrdb_net/sequential/rrdb_10/rdb_31/conv2d_164/Conv2D/ReadVariableOp", "op": "Const", "attr": {"dtype": {"type": "DT_FLOAT"}, "value": {"tensor": {"dtype": "DT_FLOAT", "tensorShape": {"dim": [{"size": "3"}, {"size": "3"}, {"size": "32"}, {"size": "32"}]}}}}}, {"name": "StatefulPartitionedCall/model/rrdb_net/sequential/rrdb_10/rdb_31/conv2d_164/BiasAdd/ReadVariableOp", "op": "Const", "attr": {"dtype": {"type": "DT_FLOAT"}, "value": {"tensor": {"dtype": "DT_FLOAT", "tensorShape": {"dim": [{"size": "32"}]}}}}}, {"name": "StatefulPartitionedCall/model/rrdb_net/sequential/rrdb_10/rdb_31/concat/axis", "op": "Const", "attr": {"value": {"tensor": {"dtype": "DT_INT32", "tensorShape": {}}}, "dtype": {"type": "DT_INT32"}}}, {"name": "StatefulPartitionedCall/model/rrdb_net/sequential/rrdb_10/rdb_31/conv2d_165/Conv2D/ReadVariableOp", "op": "Const", "attr": {"value": {"tensor": {"dtype": "DT_FLOAT", "tensorShape": {"dim": [{"size": "3"}, {"size": "3"}, {"size": "64"}, {"size": "32"}]}}}, "dtype": {"type": "DT_FLOAT"}}}, {"name": "StatefulPartitionedCall/model/rrdb_net/sequential/rrdb_10/rdb_31/conv2d_165/BiasAdd/ReadVariableOp", "op": "Const", "attr": {"dtype": {"type": "DT_FLOAT"}, "value": {"tensor": {"dtype": "DT_FLOAT", "tensorShape": {"dim": [{"size": "32"}]}}}}}, {"name": "StatefulPartitionedCall/model/rrdb_net/sequential/rrdb_10/rdb_31/concat_1/axis", "op": "Const", "attr": {"value": {"tensor": {"dtype": "DT_INT32", "tensorShape": {}}}, "dtype": {"type": "DT_INT32"}}}, {"name": "StatefulPartitionedCall/model/rrdb_net/sequential/rrdb_10/rdb_31/conv2d_166/Conv2D/ReadVariableOp", "op": "Const", "attr": {"dtype": {"type": "DT_FLOAT"}, "value": {"tensor": {"dtype": "DT_FLOAT", "tensorShape": {"dim": [{"size": "3"}, {"size": "3"}, {"size": "96"}, {"size": "32"}]}}}}}, {"name": "StatefulPartitionedCall/model/rrdb_net/sequential/rrdb_10/rdb_31/conv2d_166/BiasAdd/ReadVariableOp", "op": "Const", "attr": {"dtype": {"type": "DT_FLOAT"}, "value": {"tensor": {"dtype": "DT_FLOAT", "tensorShape": {"dim": [{"size": "32"}]}}}}}, {"name": "StatefulPartitionedCall/model/rrdb_net/sequential/rrdb_10/rdb_31/concat_2/axis", "op": "Const", "attr": {"dtype": {"type": "DT_INT32"}, "value": {"tensor": {"dtype": "DT_INT32", "tensorShape": {}}}}}, {"name": "StatefulPartitionedCall/model/rrdb_net/sequential/rrdb_10/rdb_31/conv2d_167/Conv2D/ReadVariableOp", "op": "Const", "attr": {"value": {"tensor": {"dtype": "DT_FLOAT", "tensorShape": {"dim": [{"size": "3"}, {"size": "3"}, {"size": "128"}, {"size": "32"}]}}}, "dtype": {"type": "DT_FLOAT"}}}, {"name": "StatefulPartitionedCall/model/rrdb_net/sequential/rrdb_10/rdb_31/conv2d_167/BiasAdd/ReadVariableOp", "op": "Const", "attr": {"value": {"tensor": {"dtype": "DT_FLOAT", "tensorShape": {"dim": [{"size": "32"}]}}}, "dtype": {"type": "DT_FLOAT"}}}, {"name": "StatefulPartitionedCall/model/rrdb_net/sequential/rrdb_10/rdb_31/concat_3/axis", "op": "Const", "attr": {"dtype": {"type": "DT_INT32"}, "value": {"tensor": {"dtype": "DT_INT32", "tensorShape": {}}}}}, {"name": "StatefulPartitionedCall/model/rrdb_net/sequential/rrdb_10/rdb_31/conv2d_168/Conv2D/ReadVariableOp", "op": "Const", "attr": {"value": {"tensor": {"dtype": "DT_FLOAT", "tensorShape": {"dim": [{"size": "3"}, {"size": "3"}, {"size": "160"}, {"size": "32"}]}}}, "dtype": {"type": "DT_FLOAT"}}}, {"name": "StatefulPartitionedCall/model/rrdb_net/sequential/rrdb_10/rdb_31/conv2d_168/BiasAdd/ReadVariableOp", "op": "Const", "attr": {"value": {"tensor": {"dtype": "DT_FLOAT", "tensorShape": {"dim": [{"size": "32"}]}}}, "dtype": {"type": "DT_FLOAT"}}}, {"name": "StatefulPartitionedCall/model/rrdb_net/sequential/rrdb_10/rdb_32/conv2d_169/Conv2D/ReadVariableOp", "op": "Const", "attr": {"dtype": {"type": "DT_FLOAT"}, "value": {"tensor": {"dtype": "DT_FLOAT", "tensorShape": {"dim": [{"size": "3"}, {"size": "3"}, {"size": "32"}, {"size": "32"}]}}}}}, {"name": "StatefulPartitionedCall/model/rrdb_net/sequential/rrdb_10/rdb_32/conv2d_169/BiasAdd/ReadVariableOp", "op": "Const", "attr": {"value": {"tensor": {"dtype": "DT_FLOAT", "tensorShape": {"dim": [{"size": "32"}]}}}, "dtype": {"type": "DT_FLOAT"}}}, {"name": "StatefulPartitionedCall/model/rrdb_net/sequential/rrdb_10/rdb_32/concat/axis", "op": "Const", "attr": {"value": {"tensor": {"dtype": "DT_INT32", "tensorShape": {}}}, "dtype": {"type": "DT_INT32"}}}, {"name": "StatefulPartitionedCall/model/rrdb_net/sequential/rrdb_10/rdb_32/conv2d_170/Conv2D/ReadVariableOp", "op": "Const", "attr": {"dtype": {"type": "DT_FLOAT"}, "value": {"tensor": {"dtype": "DT_FLOAT", "tensorShape": {"dim": [{"size": "3"}, {"size": "3"}, {"size": "64"}, {"size": "32"}]}}}}}, {"name": "StatefulPartitionedCall/model/rrdb_net/sequential/rrdb_10/rdb_32/conv2d_170/BiasAdd/ReadVariableOp", "op": "Const", "attr": {"dtype": {"type": "DT_FLOAT"}, "value": {"tensor": {"dtype": "DT_FLOAT", "tensorShape": {"dim": [{"size": "32"}]}}}}}, {"name": "StatefulPartitionedCall/model/rrdb_net/sequential/rrdb_10/rdb_32/concat_1/axis", "op": "Const", "attr": {"dtype": {"type": "DT_INT32"}, "value": {"tensor": {"dtype": "DT_INT32", "tensorShape": {}}}}}, {"name": "StatefulPartitionedCall/model/rrdb_net/sequential/rrdb_10/rdb_32/conv2d_171/Conv2D/ReadVariableOp", "op": "Const", "attr": {"value": {"tensor": {"dtype": "DT_FLOAT", "tensorShape": {"dim": [{"size": "3"}, {"size": "3"}, {"size": "96"}, {"size": "32"}]}}}, "dtype": {"type": "DT_FLOAT"}}}, {"name": "StatefulPartitionedCall/model/rrdb_net/sequential/rrdb_10/rdb_32/conv2d_171/BiasAdd/ReadVariableOp", "op": "Const", "attr": {"dtype": {"type": "DT_FLOAT"}, "value": {"tensor": {"dtype": "DT_FLOAT", "tensorShape": {"dim": [{"size": "32"}]}}}}}, {"name": "StatefulPartitionedCall/model/rrdb_net/sequential/rrdb_10/rdb_32/concat_2/axis", "op": "Const", "attr": {"dtype": {"type": "DT_INT32"}, "value": {"tensor": {"dtype": "DT_INT32", "tensorShape": {}}}}}, {"name": "StatefulPartitionedCall/model/rrdb_net/sequential/rrdb_10/rdb_32/conv2d_172/Conv2D/ReadVariableOp", "op": "Const", "attr": {"dtype": {"type": "DT_FLOAT"}, "value": {"tensor": {"dtype": "DT_FLOAT", "tensorShape": {"dim": [{"size": "3"}, {"size": "3"}, {"size": "128"}, {"size": "32"}]}}}}}, {"name": "StatefulPartitionedCall/model/rrdb_net/sequential/rrdb_10/rdb_32/conv2d_172/BiasAdd/ReadVariableOp", "op": "Const", "attr": {"value": {"tensor": {"dtype": "DT_FLOAT", "tensorShape": {"dim": [{"size": "32"}]}}}, "dtype": {"type": "DT_FLOAT"}}}, {"name": "StatefulPartitionedCall/model/rrdb_net/sequential/rrdb_10/rdb_32/concat_3/axis", "op": "Const", "attr": {"value": {"tensor": {"dtype": "DT_INT32", "tensorShape": {}}}, "dtype": {"type": "DT_INT32"}}}, {"name": "StatefulPartitionedCall/model/rrdb_net/sequential/rrdb_10/rdb_32/conv2d_173/Conv2D/ReadVariableOp", "op": "Const", "attr": {"dtype": {"type": "DT_FLOAT"}, "value": {"tensor": {"dtype": "DT_FLOAT", "tensorShape": {"dim": [{"size": "3"}, {"size": "3"}, {"size": "160"}, {"size": "32"}]}}}}}, {"name": "StatefulPartitionedCall/model/rrdb_net/sequential/rrdb_10/rdb_32/conv2d_173/BiasAdd/ReadVariableOp", "op": "Const", "attr": {"value": {"tensor": {"dtype": "DT_FLOAT", "tensorShape": {"dim": [{"size": "32"}]}}}, "dtype": {"type": "DT_FLOAT"}}}, {"name": "StatefulPartitionedCall/model/rrdb_net/conv2d_174/Conv2D/ReadVariableOp", "op": "Const", "attr": {"value": {"tensor": {"dtype": "DT_FLOAT", "tensorShape": {"dim": [{"size": "3"}, {"size": "3"}, {"size": "32"}, {"size": "32"}]}}}, "dtype": {"type": "DT_FLOAT"}}}, {"name": "StatefulPartitionedCall/model/rrdb_net/conv2d_174/BiasAdd/ReadVariableOp", "op": "Const", "attr": {"dtype": {"type": "DT_FLOAT"}, "value": {"tensor": {"dtype": "DT_FLOAT", "tensorShape": {"dim": [{"size": "32"}]}}}}}, {"name": "StatefulPartitionedCall/model/rrdb_net/conv2d_8/Conv2D/ReadVariableOp", "op": "Const", "attr": {"value": {"tensor": {"dtype": "DT_FLOAT", "tensorShape": {"dim": [{"size": "3"}, {"size": "3"}, {"size": "3"}, {"size": "32"}]}}}, "dtype": {"type": "DT_FLOAT"}}}, {"name": "StatefulPartitionedCall/model/rrdb_net/conv2d_8/BiasAdd/ReadVariableOp", "op": "Const", "attr": {"dtype": {"type": "DT_FLOAT"}, "value": {"tensor": {"dtype": "DT_FLOAT", "tensorShape": {"dim": [{"size": "32"}]}}}}}, {"name": "StatefulPartitionedCall/model/rrdb_net/conv2d_transpose/BiasAdd/ReadVariableOp", "op": "Const", "attr": {"dtype": {"type": "DT_FLOAT"}, "value": {"tensor": {"dtype": "DT_FLOAT", "tensorShape": {"dim": [{"size": "32"}]}}}}}, {"name": "StatefulPartitionedCall/model/rrdb_net/conv2d_transpose_1/BiasAdd/ReadVariableOp", "op": "Const", "attr": {"dtype": {"type": "DT_FLOAT"}, "value": {"tensor": {"dtype": "DT_FLOAT", "tensorShape": {"dim": [{"size": "32"}]}}}}}, {"name": "StatefulPartitionedCall/model/rrdb_net/conv2d_175/Conv2D/ReadVariableOp", "op": "Const", "attr": {"dtype": {"type": "DT_FLOAT"}, "value": {"tensor": {"dtype": "DT_FLOAT", "tensorShape": {"dim": [{"size": "3"}, {"size": "3"}, {"size": "32"}, {"size": "32"}]}}}}}, {"name": "StatefulPartitionedCall/model/rrdb_net/conv2d_175/BiasAdd/ReadVariableOp", "op": "Const", "attr": {"value": {"tensor": {"dtype": "DT_FLOAT", "tensorShape": {"dim": [{"size": "32"}]}}}, "dtype": {"type": "DT_FLOAT"}}}, {"name": "StatefulPartitionedCall/model/rrdb_net/conv2d_176/Conv2D/ReadVariableOp", "op": "Const", "attr": {"dtype": {"type": "DT_FLOAT"}, "value": {"tensor": {"dtype": "DT_FLOAT", "tensorShape": {"dim": [{"size": "3"}, {"size": "3"}, {"size": "32"}, {"size": "3"}]}}}}}, {"name": "StatefulPartitionedCall/model/rrdb_net/conv2d_176/BiasAdd/ReadVariableOp", "op": "Const", "attr": {"value": {"tensor": {"dtype": "DT_FLOAT", "tensorShape": {"dim": [{"size": "3"}]}}}, "dtype": {"type": "DT_FLOAT"}}}, {"name": "input_0", "op": "Placeholder", "attr": {"dtype": {"type": "DT_FLOAT"}, "shape": {"shape": {"dim": [{"size": "-1"}, {"size": "-1"}, {"size": "-1"}, {"size": "3"}]}}}}, {"name": "StatefulPartitionedCall/model/rrdb_net/conv2d_8/BiasAdd", "op": "_FusedConv2D", "input": ["input_0", "StatefulPartitionedCall/model/rrdb_net/conv2d_8/Conv2D/ReadVariableOp", "StatefulPartitionedCall/model/rrdb_net/conv2d_8/BiasAdd/ReadVariableOp"], "device": "/device:CPU:0", "attr": {"fused_ops": {"list": {"s": ["Qmlhc0FkZA=="]}}, "epsilon": {"f": 0.0}, "dilations": {"list": {"i": ["1", "1", "1", "1"]}}, "T": {"type": "DT_FLOAT"}, "explicit_paddings": {"list": {}}, "num_args": {"i": "1"}, "use_cudnn_on_gpu": {"b": true}, "padding": {"s": "U0FNRQ=="}, "strides": {"list": {"i": ["1", "1", "1", "1"]}}, "data_format": {"s": "TkhXQw=="}}}, {"name": "StatefulPartitionedCall/model/rrdb_net/leaky_re_lu_34/LeakyRelu", "op": "LeakyRelu", "input": ["StatefulPartitionedCall/model/rrdb_net/conv2d_8/BiasAdd"], "attr": {"T": {"type": "DT_FLOAT"}, "alpha": {"f": 0.2}}}, {"name": "StatefulPartitionedCall/model/rrdb_net/sequential/rrdb/rdb/conv2d_9/BiasAdd", "op": "_FusedConv2D", "input": ["StatefulPartitionedCall/model/rrdb_net/leaky_re_lu_34/LeakyRelu", "StatefulPartitionedCall/model/rrdb_net/sequential/rrdb/rdb/conv2d_9/Conv2D/ReadVariableOp", "StatefulPartitionedCall/model/rrdb_net/sequential/rrdb/rdb/conv2d_9/BiasAdd/ReadVariableOp"], "device": "/device:CPU:0", "attr": {"explicit_paddings": {"list": {}}, "fused_ops": {"list": {"s": ["Qmlhc0FkZA=="]}}, "data_format": {"s": "TkhXQw=="}, "num_args": {"i": "1"}, "use_cudnn_on_gpu": {"b": true}, "T": {"type": "DT_FLOAT"}, "epsilon": {"f": 0.0}, "strides": {"list": {"i": ["1", "1", "1", "1"]}}, "padding": {"s": "U0FNRQ=="}, "dilations": {"list": {"i": ["1", "1", "1", "1"]}}}}, {"name": "StatefulPartitionedCall/model/rrdb_net/sequential/rrdb/rdb/leaky_re_lu_1/LeakyRelu", "op": "LeakyRelu", "input": ["StatefulPartitionedCall/model/rrdb_net/sequential/rrdb/rdb/conv2d_9/BiasAdd"], "attr": {"T": {"type": "DT_FLOAT"}, "alpha": {"f": 0.2}}}, {"name": "StatefulPartitionedCall/model/rrdb_net/sequential/rrdb/rdb/concat", "op": "ConcatV2", "input": ["StatefulPartitionedCall/model/rrdb_net/leaky_re_lu_34/LeakyRelu", "StatefulPartitionedCall/model/rrdb_net/sequential/rrdb/rdb/leaky_re_lu_1/LeakyRelu", "StatefulPartitionedCall/model/rrdb_net/sequential/rrdb/rdb/concat/axis"], "attr": {"Tidx": {"type": "DT_INT32"}, "N": {"i": "2"}, "T": {"type": "DT_FLOAT"}}}, {"name": "StatefulPartitionedCall/model/rrdb_net/sequential/rrdb/rdb/conv2d_10/BiasAdd", "op": "_FusedConv2D", "input": ["StatefulPartitionedCall/model/rrdb_net/sequential/rrdb/rdb/concat", "StatefulPartitionedCall/model/rrdb_net/sequential/rrdb/rdb/conv2d_10/Conv2D/ReadVariableOp", "StatefulPartitionedCall/model/rrdb_net/sequential/rrdb/rdb/conv2d_10/BiasAdd/ReadVariableOp"], "device": "/device:CPU:0", "attr": {"padding": {"s": "U0FNRQ=="}, "explicit_paddings": {"list": {}}, "fused_ops": {"list": {"s": ["Qmlhc0FkZA=="]}}, "T": {"type": "DT_FLOAT"}, "num_args": {"i": "1"}, "strides": {"list": {"i": ["1", "1", "1", "1"]}}, "use_cudnn_on_gpu": {"b": true}, "data_format": {"s": "TkhXQw=="}, "dilations": {"list": {"i": ["1", "1", "1", "1"]}}, "epsilon": {"f": 0.0}}}, {"name": "StatefulPartitionedCall/model/rrdb_net/sequential/rrdb/rdb/leaky_re_lu_1_1/LeakyRelu", "op": "LeakyRelu", "input": ["StatefulPartitionedCall/model/rrdb_net/sequential/rrdb/rdb/conv2d_10/BiasAdd"], "attr": {"alpha": {"f": 0.2}, "T": {"type": "DT_FLOAT"}}}, {"name": "StatefulPartitionedCall/model/rrdb_net/sequential/rrdb/rdb/concat_1", "op": "ConcatV2", "input": ["StatefulPartitionedCall/model/rrdb_net/leaky_re_lu_34/LeakyRelu", "StatefulPartitionedCall/model/rrdb_net/sequential/rrdb/rdb/leaky_re_lu_1/LeakyRelu", "StatefulPartitionedCall/model/rrdb_net/sequential/rrdb/rdb/leaky_re_lu_1_1/LeakyRelu", "StatefulPartitionedCall/model/rrdb_net/sequential/rrdb/rdb/concat_1/axis"], "attr": {"N": {"i": "3"}, "Tidx": {"type": "DT_INT32"}, "T": {"type": "DT_FLOAT"}}}, {"name": "StatefulPartitionedCall/model/rrdb_net/sequential/rrdb/rdb/conv2d_11/BiasAdd", "op": "_FusedConv2D", "input": ["StatefulPartitionedCall/model/rrdb_net/sequential/rrdb/rdb/concat_1", "StatefulPartitionedCall/model/rrdb_net/sequential/rrdb/rdb/conv2d_11/Conv2D/ReadVariableOp", "StatefulPartitionedCall/model/rrdb_net/sequential/rrdb/rdb/conv2d_11/BiasAdd/ReadVariableOp"], "device": "/device:CPU:0", "attr": {"epsilon": {"f": 0.0}, "use_cudnn_on_gpu": {"b": true}, "fused_ops": {"list": {"s": ["Qmlhc0FkZA=="]}}, "dilations": {"list": {"i": ["1", "1", "1", "1"]}}, "num_args": {"i": "1"}, "T": {"type": "DT_FLOAT"}, "explicit_paddings": {"list": {}}, "data_format": {"s": "TkhXQw=="}, "padding": {"s": "U0FNRQ=="}, "strides": {"list": {"i": ["1", "1", "1", "1"]}}}}, {"name": "StatefulPartitionedCall/model/rrdb_net/sequential/rrdb/rdb/leaky_re_lu_1_2/LeakyRelu", "op": "LeakyRelu", "input": ["StatefulPartitionedCall/model/rrdb_net/sequential/rrdb/rdb/conv2d_11/BiasAdd"], "attr": {"T": {"type": "DT_FLOAT"}, "alpha": {"f": 0.2}}}, {"name": "StatefulPartitionedCall/model/rrdb_net/sequential/rrdb/rdb/concat_2", "op": "ConcatV2", "input": ["StatefulPartitionedCall/model/rrdb_net/leaky_re_lu_34/LeakyRelu", "StatefulPartitionedCall/model/rrdb_net/sequential/rrdb/rdb/leaky_re_lu_1/LeakyRelu", "StatefulPartitionedCall/model/rrdb_net/sequential/rrdb/rdb/leaky_re_lu_1_1/LeakyRelu", "StatefulPartitionedCall/model/rrdb_net/sequential/rrdb/rdb/leaky_re_lu_1_2/LeakyRelu", "StatefulPartitionedCall/model/rrdb_net/sequential/rrdb/rdb/concat_2/axis"], "attr": {"N": {"i": "4"}, "T": {"type": "DT_FLOAT"}, "Tidx": {"type": "DT_INT32"}}}, {"name": "StatefulPartitionedCall/model/rrdb_net/sequential/rrdb/rdb/conv2d_12/BiasAdd", "op": "_FusedConv2D", "input": ["StatefulPartitionedCall/model/rrdb_net/sequential/rrdb/rdb/concat_2", "StatefulPartitionedCall/model/rrdb_net/sequential/rrdb/rdb/conv2d_12/Conv2D/ReadVariableOp", "StatefulPartitionedCall/model/rrdb_net/sequential/rrdb/rdb/conv2d_12/BiasAdd/ReadVariableOp"], "device": "/device:CPU:0", "attr": {"dilations": {"list": {"i": ["1", "1", "1", "1"]}}, "epsilon": {"f": 0.0}, "explicit_paddings": {"list": {}}, "num_args": {"i": "1"}, "use_cudnn_on_gpu": {"b": true}, "T": {"type": "DT_FLOAT"}, "fused_ops": {"list": {"s": ["Qmlhc0FkZA=="]}}, "data_format": {"s": "TkhXQw=="}, "strides": {"list": {"i": ["1", "1", "1", "1"]}}, "padding": {"s": "U0FNRQ=="}}}, {"name": "StatefulPartitionedCall/model/rrdb_net/sequential/rrdb/rdb/leaky_re_lu_1_3/LeakyRelu", "op": "LeakyRelu", "input": ["StatefulPartitionedCall/model/rrdb_net/sequential/rrdb/rdb/conv2d_12/BiasAdd"], "attr": {"alpha": {"f": 0.2}, "T": {"type": "DT_FLOAT"}}}, {"name": "StatefulPartitionedCall/model/rrdb_net/sequential/rrdb/rdb/concat_3", "op": "ConcatV2", "input": ["StatefulPartitionedCall/model/rrdb_net/leaky_re_lu_34/LeakyRelu", "StatefulPartitionedCall/model/rrdb_net/sequential/rrdb/rdb/leaky_re_lu_1/LeakyRelu", "StatefulPartitionedCall/model/rrdb_net/sequential/rrdb/rdb/leaky_re_lu_1_1/LeakyRelu", "StatefulPartitionedCall/model/rrdb_net/sequential/rrdb/rdb/leaky_re_lu_1_2/LeakyRelu", "StatefulPartitionedCall/model/rrdb_net/sequential/rrdb/rdb/leaky_re_lu_1_3/LeakyRelu", "StatefulPartitionedCall/model/rrdb_net/sequential/rrdb/rdb/concat_3/axis"], "attr": {"N": {"i": "5"}, "T": {"type": "DT_FLOAT"}, "Tidx": {"type": "DT_INT32"}}}, {"name": "StatefulPartitionedCall/model/rrdb_net/sequential/rrdb/rdb/conv2d_13/BiasAdd", "op": "_FusedConv2D", "input": ["StatefulPartitionedCall/model/rrdb_net/sequential/rrdb/rdb/concat_3", "StatefulPartitionedCall/model/rrdb_net/sequential/rrdb/rdb/conv2d_13/Conv2D/ReadVariableOp", "StatefulPartitionedCall/model/rrdb_net/sequential/rrdb/rdb/conv2d_13/BiasAdd/ReadVariableOp"], "device": "/device:CPU:0", "attr": {"dilations": {"list": {"i": ["1", "1", "1", "1"]}}, "explicit_paddings": {"list": {}}, "fused_ops": {"list": {"s": ["Qmlhc0FkZA=="]}}, "epsilon": {"f": 0.0}, "T": {"type": "DT_FLOAT"}, "num_args": {"i": "1"}, "padding": {"s": "U0FNRQ=="}, "use_cudnn_on_gpu": {"b": true}, "data_format": {"s": "TkhXQw=="}, "strides": {"list": {"i": ["1", "1", "1", "1"]}}}}, {"name": "StatefulPartitionedCall/model/rrdb_net/sequential/rrdb/rdb/mul", "op": "Mul", "input": ["StatefulPartitionedCall/model/rrdb_net/sequential/rrdb/rdb/mul/x", "StatefulPartitionedCall/model/rrdb_net/sequential/rrdb/rdb/conv2d_13/BiasAdd"], "attr": {"T": {"type": "DT_FLOAT"}}}, {"name": "StatefulPartitionedCall/model/rrdb_net/sequential/rrdb/rdb/add", "op": "AddV2", "input": ["StatefulPartitionedCall/model/rrdb_net/leaky_re_lu_34/LeakyRelu", "StatefulPartitionedCall/model/rrdb_net/sequential/rrdb/rdb/mul"], "attr": {"T": {"type": "DT_FLOAT"}}}, {"name": "StatefulPartitionedCall/model/rrdb_net/sequential/rrdb/rdb_1/conv2d_14/BiasAdd", "op": "_FusedConv2D", "input": ["StatefulPartitionedCall/model/rrdb_net/sequential/rrdb/rdb/add", "StatefulPartitionedCall/model/rrdb_net/sequential/rrdb/rdb_1/conv2d_14/Conv2D/ReadVariableOp", "StatefulPartitionedCall/model/rrdb_net/sequential/rrdb/rdb_1/conv2d_14/BiasAdd/ReadVariableOp"], "device": "/device:CPU:0", "attr": {"use_cudnn_on_gpu": {"b": true}, "dilations": {"list": {"i": ["1", "1", "1", "1"]}}, "padding": {"s": "U0FNRQ=="}, "strides": {"list": {"i": ["1", "1", "1", "1"]}}, "num_args": {"i": "1"}, "data_format": {"s": "TkhXQw=="}, "fused_ops": {"list": {"s": ["Qmlhc0FkZA=="]}}, "epsilon": {"f": 0.0}, "T": {"type": "DT_FLOAT"}, "explicit_paddings": {"list": {}}}}, {"name": "StatefulPartitionedCall/model/rrdb_net/sequential/rrdb/rdb_1/leaky_re_lu_2/LeakyRelu", "op": "LeakyRelu", "input": ["StatefulPartitionedCall/model/rrdb_net/sequential/rrdb/rdb_1/conv2d_14/BiasAdd"], "attr": {"alpha": {"f": 0.2}, "T": {"type": "DT_FLOAT"}}}, {"name": "StatefulPartitionedCall/model/rrdb_net/sequential/rrdb/rdb_1/concat", "op": "ConcatV2", "input": ["StatefulPartitionedCall/model/rrdb_net/sequential/rrdb/rdb/add", "StatefulPartitionedCall/model/rrdb_net/sequential/rrdb/rdb_1/leaky_re_lu_2/LeakyRelu", "StatefulPartitionedCall/model/rrdb_net/sequential/rrdb/rdb_1/concat/axis"], "attr": {"T": {"type": "DT_FLOAT"}, "N": {"i": "2"}, "Tidx": {"type": "DT_INT32"}}}, {"name": "StatefulPartitionedCall/model/rrdb_net/sequential/rrdb/rdb_1/conv2d_15/BiasAdd", "op": "_FusedConv2D", "input": ["StatefulPartitionedCall/model/rrdb_net/sequential/rrdb/rdb_1/concat", "StatefulPartitionedCall/model/rrdb_net/sequential/rrdb/rdb_1/conv2d_15/Conv2D/ReadVariableOp", "StatefulPartitionedCall/model/rrdb_net/sequential/rrdb/rdb_1/conv2d_15/BiasAdd/ReadVariableOp"], "device": "/device:CPU:0", "attr": {"epsilon": {"f": 0.0}, "padding": {"s": "U0FNRQ=="}, "num_args": {"i": "1"}, "use_cudnn_on_gpu": {"b": true}, "explicit_paddings": {"list": {}}, "T": {"type": "DT_FLOAT"}, "strides": {"list": {"i": ["1", "1", "1", "1"]}}, "data_format": {"s": "TkhXQw=="}, "dilations": {"list": {"i": ["1", "1", "1", "1"]}}, "fused_ops": {"list": {"s": ["Qmlhc0FkZA=="]}}}}, {"name": "StatefulPartitionedCall/model/rrdb_net/sequential/rrdb/rdb_1/leaky_re_lu_2_1/LeakyRelu", "op": "LeakyRelu", "input": ["StatefulPartitionedCall/model/rrdb_net/sequential/rrdb/rdb_1/conv2d_15/BiasAdd"], "attr": {"T": {"type": "DT_FLOAT"}, "alpha": {"f": 0.2}}}, {"name": "StatefulPartitionedCall/model/rrdb_net/sequential/rrdb/rdb_1/concat_1", "op": "ConcatV2", "input": ["StatefulPartitionedCall/model/rrdb_net/sequential/rrdb/rdb/add", "StatefulPartitionedCall/model/rrdb_net/sequential/rrdb/rdb_1/leaky_re_lu_2/LeakyRelu", "StatefulPartitionedCall/model/rrdb_net/sequential/rrdb/rdb_1/leaky_re_lu_2_1/LeakyRelu", "StatefulPartitionedCall/model/rrdb_net/sequential/rrdb/rdb_1/concat_1/axis"], "attr": {"N": {"i": "3"}, "Tidx": {"type": "DT_INT32"}, "T": {"type": "DT_FLOAT"}}}, {"name": "StatefulPartitionedCall/model/rrdb_net/sequential/rrdb/rdb_1/conv2d_16/BiasAdd", "op": "_FusedConv2D", "input": ["StatefulPartitionedCall/model/rrdb_net/sequential/rrdb/rdb_1/concat_1", "StatefulPartitionedCall/model/rrdb_net/sequential/rrdb/rdb_1/conv2d_16/Conv2D/ReadVariableOp", "StatefulPartitionedCall/model/rrdb_net/sequential/rrdb/rdb_1/conv2d_16/BiasAdd/ReadVariableOp"], "device": "/device:CPU:0", "attr": {"epsilon": {"f": 0.0}, "T": {"type": "DT_FLOAT"}, "padding": {"s": "U0FNRQ=="}, "strides": {"list": {"i": ["1", "1", "1", "1"]}}, "num_args": {"i": "1"}, "dilations": {"list": {"i": ["1", "1", "1", "1"]}}, "explicit_paddings": {"list": {}}, "fused_ops": {"list": {"s": ["Qmlhc0FkZA=="]}}, "use_cudnn_on_gpu": {"b": true}, "data_format": {"s": "TkhXQw=="}}}, {"name": "StatefulPartitionedCall/model/rrdb_net/sequential/rrdb/rdb_1/leaky_re_lu_2_2/LeakyRelu", "op": "LeakyRelu", "input": ["StatefulPartitionedCall/model/rrdb_net/sequential/rrdb/rdb_1/conv2d_16/BiasAdd"], "attr": {"alpha": {"f": 0.2}, "T": {"type": "DT_FLOAT"}}}, {"name": "StatefulPartitionedCall/model/rrdb_net/sequential/rrdb/rdb_1/concat_2", "op": "ConcatV2", "input": ["StatefulPartitionedCall/model/rrdb_net/sequential/rrdb/rdb/add", "StatefulPartitionedCall/model/rrdb_net/sequential/rrdb/rdb_1/leaky_re_lu_2/LeakyRelu", "StatefulPartitionedCall/model/rrdb_net/sequential/rrdb/rdb_1/leaky_re_lu_2_1/LeakyRelu", "StatefulPartitionedCall/model/rrdb_net/sequential/rrdb/rdb_1/leaky_re_lu_2_2/LeakyRelu", "StatefulPartitionedCall/model/rrdb_net/sequential/rrdb/rdb_1/concat_2/axis"], "attr": {"N": {"i": "4"}, "Tidx": {"type": "DT_INT32"}, "T": {"type": "DT_FLOAT"}}}, {"name": "StatefulPartitionedCall/model/rrdb_net/sequential/rrdb/rdb_1/conv2d_17/BiasAdd", "op": "_FusedConv2D", "input": ["StatefulPartitionedCall/model/rrdb_net/sequential/rrdb/rdb_1/concat_2", "StatefulPartitionedCall/model/rrdb_net/sequential/rrdb/rdb_1/conv2d_17/Conv2D/ReadVariableOp", "StatefulPartitionedCall/model/rrdb_net/sequential/rrdb/rdb_1/conv2d_17/BiasAdd/ReadVariableOp"], "device": "/device:CPU:0", "attr": {"num_args": {"i": "1"}, "data_format": {"s": "TkhXQw=="}, "T": {"type": "DT_FLOAT"}, "epsilon": {"f": 0.0}, "fused_ops": {"list": {"s": ["Qmlhc0FkZA=…
": "float32"}}, {"name": "StatefulPartitionedCall/model/rrdb_net/sequential/rrdb_6/rdb_18/concat_1/axis", "shape": [], "dtype": "int32"}, {"name": "StatefulPartitionedCall/model/rrdb_net/sequential/rrdb_6/rdb_18/conv2d_101/Conv2D/ReadVariableOp", "shape": [3, 3, 96, 32], "dtype": "float32", "quantization": {"dtype": "uint8", "min": -0.2547179951387293, "scale": 0.002425885667987898, "original_dtype": "float32"}}, {"name": "StatefulPartitionedCall/model/rrdb_net/sequential/rrdb_6/rdb_18/conv2d_101/BiasAdd/ReadVariableOp", "shape": [32], "dtype": "float32", "quantization": {"dtype": "uint8", "min": -0.3251115276533014, "scale": 0.002167410184355343, "original_dtype": "float32"}}, {"name": "StatefulPartitionedCall/model/rrdb_net/sequential/rrdb_6/rdb_18/concat_2/axis", "shape": [], "dtype": "int32"}, {"name": "StatefulPartitionedCall/model/rrdb_net/sequential/rrdb_6/rdb_18/conv2d_102/Conv2D/ReadVariableOp", "shape": [3, 3, 128, 32], "dtype": "float32", "quantization": {"dtype": "uint8", "min": -0.31150905945721796, "scale": 0.002359917117100136, "original_dtype": "float32"}}, {"name": "StatefulPartitionedCall/model/rrdb_net/sequential/rrdb_6/rdb_18/conv2d_102/BiasAdd/ReadVariableOp", "shape": [32], "dtype": "float32", "quantization": {"dtype": "uint8", "min": -0.31583000135188005, "scale": 0.0015406341529360004, "original_dtype": "float32"}}, {"name": "StatefulPartitionedCall/model/rrdb_net/sequential/rrdb_6/rdb_18/concat_3/axis", "shape": [], "dtype": "int32"}, {"name": "StatefulPartitionedCall/model/rrdb_net/sequential/rrdb_6/rdb_18/conv2d_103/Conv2D/ReadVariableOp", "shape": [3, 3, 160, 32], "dtype": "float32", "quantization": {"dtype": "uint8", "min": -0.23683683574199677, "scale": 0.0020594507455825805, "original_dtype": "float32"}}, {"name": "StatefulPartitionedCall/model/rrdb_net/sequential/rrdb_6/rdb_18/conv2d_103/BiasAdd/ReadVariableOp", "shape": [32], "dtype": "float32", "quantization": {"dtype": "uint8", "min": -0.3218363039633807, "scale": 0.0026165553167754527, "original_dtype": "float32"}}, {"name": "StatefulPartitionedCall/model/rrdb_net/sequential/rrdb_6/rdb_19/conv2d_104/Conv2D/ReadVariableOp", "shape": [3, 3, 32, 32], "dtype": "float32", "quantization": {"dtype": "uint8", "min": -0.24627053387024822, "scale": 0.0019545280465892716, "original_dtype": "float32"}}, {"name": "StatefulPartitionedCall/model/rrdb_net/sequential/rrdb_6/rdb_19/conv2d_104/BiasAdd/ReadVariableOp", "shape": [32], "dtype": "float32", "quantization": {"dtype": "uint8", "min": -0.35853396537257176, "scale": 0.0030384234353607775, "original_dtype": "float32"}}, {"name": "StatefulPartitionedCall/model/rrdb_net/sequential/rrdb_6/rdb_19/concat/axis", "shape": [], "dtype": "int32"}, {"name": "StatefulPartitionedCall/model/rrdb_net/sequential/rrdb_6/rdb_19/conv2d_105/Conv2D/ReadVariableOp", "shape": [3, 3, 64, 32], "dtype": "float32", "quantization": {"dtype": "uint8", "min": -0.44516321140177106, "scale": 0.0033470918150509104, "original_dtype": "float32"}}, {"name": "StatefulPartitionedCall/model/rrdb_net/sequential/rrdb_6/rdb_19/conv2d_105/BiasAdd/ReadVariableOp", "shape": [32], "dtype": "float32", "quantization": {"dtype": "uint8", "min": -0.2316526275055081, "scale": 0.002545633269291298, "original_dtype": "float32"}}, {"name": "StatefulPartitionedCall/model/rrdb_net/sequential/rrdb_6/rdb_19/concat_1/axis", "shape": [], "dtype": "int32"}, {"name": "StatefulPartitionedCall/model/rrdb_net/sequential/rrdb_6/rdb_19/conv2d_106/Conv2D/ReadVariableOp", "shape": [3, 3, 96, 32], "dtype": "float32", "quantization": {"dtype": "uint8", "min": -0.38519538734473435, "scale": 0.002963041441113341, "original_dtype": "float32"}}, {"name": "StatefulPartitionedCall/model/rrdb_net/sequential/rrdb_6/rdb_19/conv2d_106/BiasAdd/ReadVariableOp", "shape": [32], "dtype": "float32", "quantization": {"dtype": "uint8", "min": -0.46160375791437486, "scale": 0.003663521888209324, "original_dtype": "float32"}}, {"name": "StatefulPartitionedCall/model/rrdb_net/sequential/rrdb_6/rdb_19/concat_2/axis", "shape": [], "dtype": "int32"}, {"name": "StatefulPartitionedCall/model/rrdb_net/sequential/rrdb_6/rdb_19/conv2d_107/Conv2D/ReadVariableOp", "shape": [3, 3, 128, 32], "dtype": "float32", "quantization": {"dtype": "uint8", "min": -0.44053584757973163, "scale": 0.0034963162506327907, "original_dtype": "float32"}}, {"name": "StatefulPartitionedCall/model/rrdb_net/sequential/rrdb_6/rdb_19/conv2d_107/BiasAdd/ReadVariableOp", "shape": [32], "dtype": "float32", "quantization": {"dtype": "uint8", "min": -0.18281465137706085, "scale": 0.0026494877011168237, "original_dtype": "float32"}}, {"name": "StatefulPartitionedCall/model/rrdb_net/sequential/rrdb_6/rdb_19/concat_3/axis", "shape": [], "dtype": "int32"}, {"name": "StatefulPartitionedCall/model/rrdb_net/sequential/rrdb_6/rdb_19/conv2d_108/Conv2D/ReadVariableOp", "shape": [3, 3, 160, 32], "dtype": "float32", "quantization": {"dtype": "uint8", "min": -0.31868143993265485, "scale": 0.0021245429328843658, "original_dtype": "float32"}}, {"name": "StatefulPartitionedCall/model/rrdb_net/sequential/rrdb_6/rdb_19/conv2d_108/BiasAdd/ReadVariableOp", "shape": [32], "dtype": "float32", "quantization": {"dtype": "uint8", "min": -0.25969778275957295, "scale": 0.0019380431549221862, "original_dtype": "float32"}}, {"name": "StatefulPartitionedCall/model/rrdb_net/sequential/rrdb_6/rdb_20/conv2d_109/Conv2D/ReadVariableOp", "shape": [3, 3, 32, 32], "dtype": "float32", "quantization": {"dtype": "uint8", "min": -0.26268260058234716, "scale": 0.0018241847262662999, "original_dtype": "float32"}}, {"name": "StatefulPartitionedCall/model/rrdb_net/sequential/rrdb_6/rdb_20/conv2d_109/BiasAdd/ReadVariableOp", "shape": [32], "dtype": "float32", "quantization": {"dtype": "uint8", "min": -0.18295766220373263, "scale": 0.0014520449381248623, "original_dtype": "float32"}}, {"name": "StatefulPartitionedCall/model/rrdb_net/sequential/rrdb_6/rdb_20/concat/axis", "shape": [], "dtype": "int32"}, {"name": "StatefulPartitionedCall/model/rrdb_net/sequential/rrdb_6/rdb_20/conv2d_110/Conv2D/ReadVariableOp", "shape": [3, 3, 64, 32], "dtype": "float32", "quantization": {"dtype": "uint8", "min": -0.21586857835451762, "scale": 0.0018140216668446859, "original_dtype": "float32"}}, {"name": "StatefulPartitionedCall/model/rrdb_net/sequential/rrdb_6/rdb_20/conv2d_110/BiasAdd/ReadVariableOp", "shape": [32], "dtype": "float32", "quantization": {"dtype": "uint8", "min": -0.2232420839515387, "scale": 0.0016659857011308858, "original_dtype": "float32"}}, {"name": "StatefulPartitionedCall/model/rrdb_net/sequential/rrdb_6/rdb_20/concat_1/axis", "shape": [], "dtype": "int32"}, {"name": "StatefulPartitionedCall/model/rrdb_net/sequential/rrdb_6/rdb_20/conv2d_111/Conv2D/ReadVariableOp", "shape": [3, 3, 96, 32], "dtype": "float32", "quantization": {"dtype": "uint8", "min": -0.26029328511041755, "scale": 0.0018202327630099128, "original_dtype": "float32"}}, {"name": "StatefulPartitionedCall/model/rrdb_net/sequential/rrdb_6/rdb_20/conv2d_111/BiasAdd/ReadVariableOp", "shape": [32], "dtype": "float32", "quantization": {"dtype": "uint8", "min": -0.3075618982315063, "scale": 0.002010208485173244, "original_dtype": "float32"}}, {"name": "StatefulPartitionedCall/model/rrdb_net/sequential/rrdb_6/rdb_20/concat_2/axis", "shape": [], "dtype": "int32"}, {"name": "StatefulPartitionedCall/model/rrdb_net/sequential/rrdb_6/rdb_20/conv2d_112/Conv2D/ReadVariableOp", "shape": [3, 3, 128, 32], "dtype": "float32", "quantization": {"dtype": "uint8", "min": -0.2673705339431763, "scale": 0.001965959808405708, "original_dtype": "float32"}}, {"name": "StatefulPartitionedCall/model/rrdb_net/sequential/rrdb_6/rdb_20/conv2d_112/BiasAdd/ReadVariableOp", "shape": [32], "dtype": "float32", "quantization": {"dtype": "uint8", "min": -0.14937161066952875, "scale": 0.001716915065166997, "original_dtype": "float32"}}, {"name": "StatefulPartitionedCall/model/rrdb_net/sequential/rrdb_6/rdb_20/concat_3/axis", "shape": [], "dtype": "int32"}, {"name": "StatefulPartitionedCall/model/rrdb_net/sequential/rrdb_6/rdb_20/conv2d_113/Conv2D/ReadVariableOp", "shape": [3, 3, 160, 32], "dtype": "float32", "quantization": {"dtype": "uint8", "min": -0.23309123516082764, "scale": 0.0017139061408884386, "original_dtype": "float32"}}, {"name": "StatefulPartitionedCall/model/rrdb_net/sequential/rrdb_6/rdb_20/conv2d_113/BiasAdd/ReadVariableOp", "shape": [32], "dtype": "float32", "quantization": {"dtype": "uint8", "min": -0.261225710663141, "scale": 0.001592839699165494, "original_dtype": "float32"}}, {"name": "StatefulPartitionedCall/model/rrdb_net/sequential/rrdb_7/rdb_21/conv2d_114/Conv2D/ReadVariableOp", "shape": [3, 3, 32, 32], "dtype": "float32", "quantization": {"dtype": "uint8", "min": -0.2683983185712029, "scale": 0.0020333205952363857, "original_dtype": "float32"}}, {"name": "StatefulPartitionedCall/model/rrdb_net/sequential/rrdb_7/rdb_21/conv2d_114/BiasAdd/ReadVariableOp", "shape": [32], "dtype": "float32", "quantization": {"dtype": "uint8", "min": -0.5230093619402717, "scale": 0.0044322827283073876, "original_dtype": "float32"}}, {"name": "StatefulPartitionedCall/model/rrdb_net/sequential/rrdb_7/rdb_21/concat/axis", "shape": [], "dtype": "int32"}, {"name": "StatefulPartitionedCall/model/rrdb_net/sequential/rrdb_7/rdb_21/conv2d_115/Conv2D/ReadVariableOp", "shape": [3, 3, 64, 32], "dtype": "float32", "quantization": {"dtype": "uint8", "min": -0.3172802029871473, "scale": 0.0024982693148594276, "original_dtype": "float32"}}, {"name": "StatefulPartitionedCall/model/rrdb_net/sequential/rrdb_7/rdb_21/conv2d_115/BiasAdd/ReadVariableOp", "shape": [32], "dtype": "float32", "quantization": {"dtype": "uint8", "min": -0.3206951688317692, "scale": 0.003910916693070356, "original_dtype": "float32"}}, {"name": "StatefulPartitionedCall/model/rrdb_net/sequential/rrdb_7/rdb_21/concat_1/axis", "shape": [], "dtype": "int32"}, {"name": "StatefulPartitionedCall/model/rrdb_net/sequential/rrdb_7/rdb_21/conv2d_116/Conv2D/ReadVariableOp", "shape": [3, 3, 96, 32], "dtype": "float32", "quantization": {"dtype": "uint8", "min": -0.31896949270192315, "scale": 0.002398266862420475, "original_dtype": "float32"}}, {"name": "StatefulPartitionedCall/model/rrdb_net/sequential/rrdb_7/rdb_21/conv2d_116/BiasAdd/ReadVariableOp", "shape": [32], "dtype": "float32", "quantization": {"dtype": "uint8", "min": -0.2669810514824063, "scale": 0.0025186891649283615, "original_dtype": "float32"}}, {"name": "StatefulPartitionedCall/model/rrdb_net/sequential/rrdb_7/rdb_21/concat_2/axis", "shape": [], "dtype": "int32"}, {"name": "StatefulPartitionedCall/model/rrdb_net/sequential/rrdb_7/rdb_21/conv2d_117/Conv2D/ReadVariableOp", "shape": [3, 3, 128, 32], "dtype": "float32", "quantization": {"dtype": "uint8", "min": -0.24994040190004835, "scale": 0.0020156484024197448, "original_dtype": "float32"}}, {"name": "StatefulPartitionedCall/model/rrdb_net/sequential/rrdb_7/rdb_21/conv2d_117/BiasAdd/ReadVariableOp", "shape": [32], "dtype": "float32", "quantization": {"dtype": "uint8", "min": -0.2828004752888399, "scale": 0.0020056771297080845, "original_dtype": "float32"}}, {"name": "StatefulPartitionedCall/model/rrdb_net/sequential/rrdb_7/rdb_21/concat_3/axis", "shape": [], "dtype": "int32"}, {"name": "StatefulPartitionedCall/model/rrdb_net/sequential/rrdb_7/rdb_21/conv2d_118/Conv2D/ReadVariableOp", "shape": [3, 3, 160, 32], "dtype": "float32", "quantization": {"dtype": "uint8", "min": -0.3130752128713271, "scale": 0.00210117592531092, "original_dtype": "float32"}}, {"name": "StatefulPartitionedCall/model/rrdb_net/sequential/rrdb_7/rdb_21/conv2d_118/BiasAdd/ReadVariableOp", "shape": [32], "dtype": "float32", "quantization": {"dtype": "uint8", "min": -0.22356283150467218, "scale": 0.0017465846211302514, "original_dtype": "float32"}}, {"name": "StatefulPartitionedCall/model/rrdb_net/sequential/rrdb_7/rdb_22/conv2d_119/Conv2D/ReadVariableOp", "shape": [3, 3, 32, 32], "dtype": "float32", "quantization": {"dtype": "uint8", "min": -0.32771362592192255, "scale": 0.0021702889133902157, "original_dtype": "float32"}}, {"name": "StatefulPartitionedCall/model/rrdb_net/sequential/rrdb_7/rdb_22/conv2d_119/BiasAdd/ReadVariableOp", "shape": [32], "dtype": "float32", "quantization": {"dtype": "uint8", "min": -0.15610232230495005, "scale": 0.0015455675475737629, "original_dtype": "float32"}}, {"name": "StatefulPartitionedCall/model/rrdb_net/sequential/rrdb_7/rdb_22/concat/axis", "shape": [], "dtype": "int32"}, {"name": "StatefulPartitionedCall/model/rrdb_net/sequential/rrdb_7/rdb_22/conv2d_120/Conv2D/ReadVariableOp", "shape": [3, 3, 64, 32], "dtype": "float32", "quantization": {"dtype": "uint8", "min": -0.35374026649138507, "scale": 0.0025633352644303265, "original_dtype": "float32"}}, {"name": "StatefulPartitionedCall/model/rrdb_net/sequential/rrdb_7/rdb_22/conv2d_120/BiasAdd/ReadVariableOp", "shape": [32], "dtype": "float32", "quantization": {"dtype": "uint8", "min": -0.2799968877259423, "scale": 0.002074051020192165, "original_dtype": "float32"}}, {"name": "StatefulPartitionedCall/model/rrdb_net/sequential/rrdb_7/rdb_22/concat_1/axis", "shape": [], "dtype": "int32"}, {"name": "StatefulPartitionedCall/model/rrdb_net/sequential/rrdb_7/rdb_22/conv2d_121/Conv2D/ReadVariableOp", "shape": [3, 3, 96, 32], "dtype": "float32", "quantization": {"dtype": "uint8", "min": -0.22550239282495835, "scale": 0.0018791866068746529, "original_dtype": "float32"}}, {"name": "StatefulPartitionedCall/model/rrdb_net/sequential/rrdb_7/rdb_22/conv2d_121/BiasAdd/ReadVariableOp", "shape": [32], "dtype": "float32", "quantization": {"dtype": "uint8", "min": -0.1965856537515042, "scale": 0.0017094404674043843, "original_dtype": "float32"}}, {"name": "StatefulPartitionedCall/model/rrdb_net/sequential/rrdb_7/rdb_22/concat_2/axis", "shape": [], "dtype": "int32"}, {"name": "StatefulPartitionedCall/model/rrdb_net/sequential/rrdb_7/rdb_22/conv2d_122/Conv2D/ReadVariableOp", "shape": [3, 3, 128, 32], "dtype": "float32", "quantization": {"dtype": "uint8", "min": -0.40464736714082605, "scale": 0.00262758030610926, "original_dtype": "float32"}}, {"name": "StatefulPartitionedCall/model/rrdb_net/sequential/rrdb_7/rdb_22/conv2d_122/BiasAdd/ReadVariableOp", "shape": [32], "dtype": "float32", "quantization": {"dtype": "uint8", "min": -0.21720322423121508, "scale": 0.0017658798717984966, "original_dtype": "float32"}}, {"name": "StatefulPartitionedCall/model/rrdb_net/sequential/rrdb_7/rdb_22/concat_3/axis", "shape": [], "dtype": "int32"}, {"name": "StatefulPartitionedCall/model/rrdb_net/sequential/rrdb_7/rdb_22/conv2d_123/Conv2D/ReadVariableOp", "shape": [3, 3, 160, 32], "dtype": "float32", "quantization": {"dtype": "uint8", "min": -0.28009079647999185, "scale": 0.0018925053816215664, "original_dtype": "float32"}}, {"name": "StatefulPartitionedCall/model/rrdb_net/sequential/rrdb_7/rdb_22/conv2d_123/BiasAdd/ReadVariableOp", "shape": [32], "dtype": "float32", "quantization": {"dtype": "uint8", "min": -0.22047657195259543, "scale": 0.001670277060246935, "original_dtype": "float32"}}, {"name": "StatefulPartitionedCall/model/rrdb_net/sequential/rrdb_7/rdb_23/conv2d_124/Conv2D/ReadVariableOp", "shape": [3, 3, 32, 32], "dtype": "float32", "quantization": {"dtype": "uint8", "min": -0.17875908496333104, "scale": 0.00159606325860117, "original_dtype": "float32"}}, {"name": "StatefulPartitionedCall/model/rrdb_net/sequential/rrdb_7/rdb_23/conv2d_124/BiasAdd/ReadVariableOp", "shape": [32], "dtype": "float32", "quantization": {"dtype": "uint8", "min": -0.35177404600031237, "scale": 0.0025676937664256376, "original_dtype": "float32"}}, {"name": "StatefulPartitionedCall/model/rrdb_net/sequential/rrdb_7/rdb_23/concat/axis", "shape": [], "dtype": "int32"}, {"name": "StatefulPartitionedCall/model/rrdb_net/sequential/rrdb_7/rdb_23/conv2d_125/Conv2D/ReadVariableOp", "shape": [3, 3, 64, 32], "dtype": "float32", "quantization": {"dtype": "uint8", "min": -0.21651154592925428, "scale": 0.0017048153222775928, "original_dtype": "float32"}}, {"name": "StatefulPartitionedCall/model/rrdb_net/sequential/rrdb_7/rdb_23/conv2d_125/BiasAdd/ReadVariableOp", "shape": [32], "dtype": "float32", "quantization": {"dtype": "uint8", "min": -0.19259555947546864, "scale": 0.0021885859031303256, "original_dtype": "float32"}}, {"name": "StatefulPartitionedCall/model/rrdb_net/sequential/rrdb_7/rdb_23/concat_1/axis", "shape": [], "dtype": "int32"}, {"name": "StatefulPartitionedCall/model/rrdb_net/sequential/rrdb_7/rdb_23/conv2d_126/Conv2D/ReadVariableOp", "shape": [3, 3, 96, 32], "dtype": "float32", "quantization": {"dtype": "uint8", "min": -0.21237950932745842, "scale": 0.0016722796010036095, "original_dtype": "float32"}}, {"name": "StatefulPartitionedCall/model/rrdb_net/sequential/rrdb_7/rdb_23/conv2d_126/BiasAdd/ReadVariableOp", "shape": [32], "dtype": "float32", "quantization": {"dtype": "uint8", "min": -0.13174713814959807, "scale": 0.0019093788137622908, "original_dtype": "float32"}}, {"name": "StatefulPartitionedCall/model/rrdb_net/sequential/rrdb_7/rdb_23/concat_2/axis", "shape": [], "dtype": "int32"}, {"name": "StatefulPartitionedCall/model/rrdb_net/sequential/rrdb_7/rdb_23/conv2d_127/Conv2D/ReadVariableOp", "shape": [3, 3, 128, 32], "dtype": "float32", "quantization": {"dtype": "uint8", "min": -0.23628424108028412, "scale": 0.0017502536376317343, "original_dtype": "float32"}}, {"name": "StatefulPartitionedCall/model/rrdb_net/sequential/rrdb_7/rdb_23/conv2d_127/BiasAdd/ReadVariableOp", "shape": [32], "dtype": "float32", "quantization": {"dtype": "uint8", "min": -0.1891775322895424, "scale": 0.0018730448741538853, "original_dtype": "float32"}}, {"name": "StatefulPartitionedCall/model/rrdb_net/sequential/rrdb_7/rdb_23/concat_3/axis", "shape": [], "dtype": "int32"}, {"name": "StatefulPartitionedCall/model/rrdb_net/sequential/rrdb_7/rdb_23/conv2d_128/Conv2D/ReadVariableOp", "shape": [3, 3, 160, 32], "dtype": "float32", "quantization": {"dtype": "uint8", "min": -0.20679308491594653, "scale": 0.0016030471698910583, "original_dtype": "float32"}}, {"name": "StatefulPartitionedCall/model/rrdb_net/sequential/rrdb_7/rdb_23/conv2d_128/BiasAdd/ReadVariableOp", "shape": [32], "dtype": "float32", "quantization": {"dtype": "uint8", "min": -0.2052940880551058, "scale": 0.0012672474571302826, "original_dtype": "float32"}}, {"name": "StatefulPartitionedCall/model/rrdb_net/sequential/rrdb_8/rdb_24/conv2d_129/Conv2D/ReadVariableOp", "shape": [3, 3, 32, 32], "dtype": "float32", "quantization": {"dtype": "uint8", "min": -0.27816284000873565, "scale": 0.0018180577778348736, "original_dtype": "float32"}}, {"name": "StatefulPartitionedCall/model/rrdb_net/sequential/rrdb_8/rdb_24/conv2d_129/BiasAdd/ReadVariableOp", "shape": [32], "dtype": "float32", "quantization": {"dtype": "uint8", "min": -0.793350150304682, "scale": 0.004897223150028902, "original_dtype": "float32"}}, {"name": "StatefulPartitionedCall/model/rrdb_net/sequential/rrdb_8/rdb_24/concat/axis", "shape": [], "dtype": "int32"}, {"name": "StatefulPartitionedCall/model/rrdb_net/sequential/rrdb_8/rdb_24/conv2d_130/Conv2D/ReadVariableOp", "shape": [3, 3, 64, 32], "dtype": "float32", "quantization": {"dtype": "uint8", "min": -0.43837539822447535, "scale": 0.002739846238902971, "original_dtype": "float32"}}, {"name": "StatefulPartitionedCall/model/rrdb_net/sequential/rrdb_8/rdb_24/conv2d_130/BiasAdd/ReadVariableOp", "shape": [32], "dtype": "float32", "quantization": {"dtype": "uint8", "min": -0.3062075378848057, "scale": 0.003440534133537143, "original_dtype": "float32"}}, {"name": "StatefulPartitionedCall/model/rrdb_net/sequential/rrdb_8/rdb_24/concat_1/axis", "shape": [], "dtype": "int32"}, {"name": "StatefulPartitionedCall/model/rrdb_net/sequential/rrdb_8/rdb_24/conv2d_131/Conv2D/ReadVariableOp", "shape": [3, 3, 96, 32], "dtype": "float32", "quantization": {"dtype": "uint8", "min": -0.44901469349861145, "scale": 0.003013521432876587, "original_dtype": "float32"}}, {"name": "StatefulPartitionedCall/model/rrdb_net/sequential/rrdb_8/rdb_24/conv2d_131/BiasAdd/ReadVariableOp", "shape": [32], "dtype": "float32", "quantization": {"dtype": "uint8", "min": -0.7282503305696973, "scale": 0.003957882231357051, "original_dtype": "float32"}}, {"name": "StatefulPartitionedCall/model/rrdb_net/sequential/rrdb_8/rdb_24/concat_2/axis", "shape": [], "dtype": "int32"}, {"name": "StatefulPartitionedCall/model/rrdb_net/sequential/rrdb_8/rdb_24/conv2d_132/Conv2D/ReadVariableOp", "shape": [3, 3, 128, 32], "dtype": "float32", "quantization": {"dtype": "uint8", "min": -0.3839176105517967, "scale": 0.0031728728144776587, "original_dtype": "float32"}}, {"name": "StatefulPartitionedCall/model/rrdb_net/sequential/rrdb_8/rdb_24/conv2d_132/BiasAdd/ReadVariableOp", "shape": [32], "dtype": "float32", "quantization": {"dtype": "uint8", "min": -0.6498768289883932, "scale": 0.0033156981070836386, "original_dtype": "float32"}}, {"name": "StatefulPartitionedCall/model/rrdb_net/sequential/rrdb_8/rdb_24/concat_3/axis", "shape": [], "dtype": "int32"}, {"name": "StatefulPartitionedCall/model/rrdb_net/sequential/rrdb_8/rdb_24/conv2d_133/Conv2D/ReadVariableOp", "shape": [3, 3, 160, 32], "dtype": "float32", "quantization": {"dtype": "uint8", "min": -0.3445696550257066, "scale": 0.002281918245203355, "original_dtype": "float32"}}, {"name": "StatefulPartitionedCall/model/rrdb_net/sequential/rrdb_8/rdb_24/conv2d_133/BiasAdd/ReadVariableOp", "shape": [32], "dtype": "float32", "quantization": {"dtype": "uint8", "min": -0.2574760849569358, "scale": 0.0019805852688995064, "original_dtype": "float32"}}, {"name": "StatefulPartitionedCall/model/rrdb_net/sequential/rrdb_8/rdb_25/conv2d_134/Conv2D/ReadVariableOp", "shape": [3, 3, 32, 32], "dtype": "float32", "quantization": {"dtype": "uint8", "min": -0.22150729199250538, "scale": 0.0016908953587214152, "original_dtype": "float32"}}, {"name": "StatefulPartitionedCall/model/rrdb_net/sequential/rrdb_8/rdb_25/conv2d_134/BiasAdd/ReadVariableOp", "shape": [32], "dtype": "float32", "quantization": {"dtype": "uint8", "min": -0.4880908462346769, "scale": 0.0034132227009417964, "original_dtype": "float32"}}, {"name": "StatefulPartitionedCall/model/rrdb_net/sequential/rrdb_8/rdb_25/concat/axis", "shape": [], "dtype": "int32"}, {"name": "StatefulPartitionedCall/model/rrdb_net/sequential/rrdb_8/rdb_25/conv2d_135/Conv2D/ReadVariableOp", "shape": [3, 3, 64, 32], "dtype": "float32", "quantization": {"dtype": "uint8", "min": -0.351021614261702, "scale": 0.0024719831990260704, "original_dtype": "float32"}}, {"name": "StatefulPartitionedCall/model/rrdb_net/sequential/rrdb_8/rdb_25/conv2d_135/BiasAdd/ReadVariableOp", "shape": [32], "dtype": "float32", "quantization": {"dtype": "uint8", "min": -0.4089437589925878, "scale": 0.0023914839707168878, "original_dtype": "float32"}}, {"name": "StatefulPartitionedCall/model/rrdb_net/sequential/rrdb_8/rdb_25/concat_1/axis", "shape": [], "dtype": "int32"}, {"name": "StatefulPartitionedCall/model/rrdb_net/sequential/rrdb_8/rdb_25/conv2d_136/Conv2D/ReadVariableOp", "shape": [3, 3, 96, 32], "dtype": "float32", "quantization": {"dtype": "uint8", "min": -0.32744060965145333, "scale": 0.0022897944730870864, "original_dtype": "float32"}}, {"name": "StatefulPartitionedCall/model/rrdb_net/sequential/rrdb_8/rdb_25/conv2d_136/BiasAdd/ReadVariableOp", "shape": [32], "dtype": "float32", "quantization": {"dtype": "uint8", "min": -0.23872515775409403, "scale": 0.001972935188050364, "original_dtype": "float32"}}, {"name": "StatefulPartitionedCall/model/rrdb_net/sequential/rrdb_8/rdb_25/concat_2/axis", "shape": [], "dtype": "int32"}, {"name": "StatefulPartitionedCall/model/rrdb_net/sequential/rrdb_8/rdb_25/conv2d_137/Conv2D/ReadVariableOp", "shape": [3, 3, 128, 32], "dtype": "float32", "quantization": {"dtype": "uint8", "min": -0.3249048158234241, "scale": 0.0029009358555662865, "original_dtype": "float32"}}, {"name": "StatefulPartitionedCall/model/rrdb_net/sequential/rrdb_8/rdb_25/conv2d_137/BiasAdd/ReadVariableOp", "shape": [32], "dtype": "float32", "quantization": {"dtype": "uint8", "min": -0.19135920720941882, "scale": 0.0013866609218073827, "original_dtype": "float32"}}, {"name": "StatefulPartitionedCall/model/rrdb_net/sequential/rrdb_8/rdb_25/concat_3/axis", "shape": [], "dtype": "int32"}, {"name": "StatefulPartitionedCall/model/rrdb_net/sequential/rrdb_8/rdb_25/conv2d_138/Conv2D/ReadVariableOp", "shape": [3, 3, 160, 32], "dtype": "float32", "quantization": {"dtype": "uint8", "min": -0.27935275260139913, "scale": 0.0018623516840093276, "original_dtype": "float32"}}, {"name": "StatefulPartitionedCall/model/rrdb_net/sequential/rrdb_8/rdb_25/conv2d_138/BiasAdd/ReadVariableOp", "shape": [32], "dtype": "float32", "quantization": {"dtype": "uint8", "min": -0.24691621836493996, "scale": 0.0017511788536520565, "original_dtype": "float32"}}, {"name": "StatefulPartitionedCall/model/rrdb_net/sequential/rrdb_8/rdb_26/conv2d_139/Conv2D/ReadVariableOp", "shape": [3, 3, 32, 32], "dtype": "float32", "quantization": {"dtype": "uint8", "min": -0.2663858964162714, "scale": 0.002033480125315049, "original_dtype": "float32"}}, {"name": "StatefulPartitionedCall/model/rrdb_net/sequential/rrdb_8/rdb_26/conv2d_139/BiasAdd/ReadVariableOp", "shape": [32], "dtype": "float32", "quantization": {"dtype": "uint8", "min": -0.16315234619028426, "scale": 0.0022047614350038415, "original_dtype": "float32"}}, {"name": "StatefulPartitionedCall/model/rrdb_net/sequential/rrdb_8/rdb_26/concat/axis", "shape": [], "dtype": "int32"}, {"name": "StatefulPartitionedCall/model/rrdb_net/sequential/rrdb_8/rdb_26/conv2d_140/Conv2D/ReadVariableOp", "shape": [3, 3, 64, 32], "dtype": "float32", "quantization": {"dtype": "uint8", "min": -0.28646435527240527, "scale": 0.0020173546145944034, "original_dtype": "float32"}}, {"name": "StatefulPartitionedCall/model/rrdb_net/sequential/rrdb_8/rdb_26/conv2d_140/BiasAdd/ReadVariableOp", "shape": [32], "dtype": "float32", "quantization": {"dtype": "uint8", "min": -0.30392800008549414, "scale": 0.002012768212486716, "original_dtype": "float32"}}, {"name": "StatefulPartitionedCall/model/rrdb_net/sequential/rrdb_8/rdb_26/concat_1/axis", "shape": [], "dtype": "int32"}, {"name": "StatefulPartitionedCall/model/rrdb_net/sequential/rrdb_8/rdb_26/conv2d_141/Conv2D/ReadVariableOp", "shape": [3, 3, 96, 32], "dtype": "float32", "quantization": {"dtype": "uint8", "min": -0.27354404879551303, "scale": 0.002206000393512202, "original_dtype": "float32"}}, {"name": "StatefulPartitionedCall/model/rrdb_net/sequential/rrdb_8/rdb_26/conv2d_141/BiasAdd/ReadVariableOp", "shape": [32], "dtype": "float32", "quantization": {"dtype": "uint8", "min": -0.1874697083936018, "scale": 0.0020158033160602344, "original_dtype": "float32"}}, {"name": "StatefulPartitionedCall/model/rrdb_net/sequential/rrdb_8/rdb_26/concat_2/axis", "shape": [], "dtype": "int32"}, {"name": "StatefulPartitionedCall/model/rrdb_net/sequential/rrdb_8/rdb_26/conv2d_142/Conv2D/ReadVariableOp", "shape": [3, 3, 128, 32], "dtype": "float32", "quantization": {"dtype": "uint8", "min": -0.2662295658214419, "scale": 0.0021298365265715355, "original_dtype": "float32"}}, {"name": "StatefulPartitionedCall/model/rrdb_net/sequential/rrdb_8/rdb_26/conv2d_142/BiasAdd/ReadVariableOp", "shape": [32], "dtype": "float32", "quantization": {"dtype": "uint8", "min": -0.20948845235740435, "scale": 0.0015517663137585508, "original_dtype": "float32"}}, {"name": "StatefulPartitionedCall/model/rrdb_net/sequential/rrdb_8/rdb_26/concat_3/axis", "shape": [], "dtype": "int32"}, {"name": "StatefulPartitionedCall/model/rrdb_net/sequential/rrdb_8/rdb_26/conv2d_143/Conv2D/ReadVariableOp", "shape": [3, 3, 160, 32], "dtype": "float32", "quantization": {"dtype": "uint8", "min": -0.2805667964851155, "scale": 0.0019216903868843527, "original_dtype": "float32"}}, {"name": "StatefulPartitionedCall/model/rrdb_net/sequential/rrdb_8/rdb_26/conv2d_143/BiasAdd/ReadVariableOp", "shape": [32], "dtype": "float32", "quantization": {"dtype": "uint8", "min": -0.15493360243591608, "scale": 0.001061189057780247, "original_dtype": "float32"}}, {"name": "StatefulPartitionedCall/model/rrdb_net/sequential/rrdb_9/rdb_27/conv2d_144/Conv2D/ReadVariableOp", "shape": [3, 3, 32, 32], "dtype": "float32", "quantization": {"dtype": "uint8", "min": -0.36637844408259673, "scale": 0.002442522960550645, "original_dtype": "float32"}}, {"name": "StatefulPartitionedCall/model/rrdb_net/sequential/rrdb_9/rdb_27/conv2d_144/BiasAdd/ReadVariableOp", "shape": [32], "dtype": "float32", "quantization": {"dtype": "uint8", "min": -0.7365875903297873, "scale": 0.007151335828444537, "original_dtype": "float32"}}, {"name": "StatefulPartitionedCall/model/rrdb_net/sequential/rrdb_9/rdb_27/concat/axis", "shape": [], "dtype": "int32"}, {"name": "StatefulPartitionedCall/model/rrdb_net/sequential/rrdb_9/rdb_27/conv2d_145/Conv2D/ReadVariableOp", "shape": [3, 3, 64, 32], "dtype": "float32", "quantization": {"dtype": "uint8", "min": -0.47789742245393635, "scale": 0.002914008673499612, "original_dtype": "float32"}}, {"name": "StatefulPartitionedCall/model/rrdb_net/sequential/rrdb_9/rdb_27/conv2d_145/BiasAdd/ReadVariableOp", "shape": [32], "dtype": "float32", "quantization": {"dtype": "uint8", "min": -1.0791579723358153, "scale": 0.00691767930984497, "original_dtype": "float32"}}, {"name": "StatefulPartitionedCall/model/rrdb_net/sequential/rrdb_9/rdb_27/concat_1/axis", "shape": [], "dtype": "int32"}, {"name": "StatefulPartitionedCall/model/rrdb_net/sequential/rrdb_9/rdb_27/conv2d_146/Conv2D/ReadVariableOp", "shape": [3, 3, 96, 32], "dtype": "float32", "quantization": {"dtype": "uint8", "min": -0.3752273282584022, "scale": 0.002699477181715124, "original_dtype": "float32"}}, {"name": "StatefulPartitionedCall/model/rrdb_net/sequential/rrdb_9/rdb_27/conv2d_146/BiasAdd/ReadVariableOp", "shape": [32], "dtype": "float32", "quantization": {"dtype": "uint8", "min": -0.824119390225878, "scale": 0.005644653357711493, "original_dtype": "float32"}}, {"name": "StatefulPartitionedCall/model/rrdb_net/sequential/rrdb_9/rdb_27/concat_2/axis", "shape": [], "dtype": "int32"}, {"name": "StatefulPartitionedCall/model/rrdb_net/sequential/rrdb_9/rdb_27/conv2d_147/Conv2D/ReadVariableOp", "shape": [3, 3, 128, 32], "dtype": "float32", "quantization": {"dtype": "uint8", "min": -0.35453322763536493, "scale": 0.0024450567423128615, "original_dtype": "float32"}}, {"name": "StatefulPartitionedCall/model/rrdb_net/sequential/rrdb_9/rdb_27/conv2d_147/BiasAdd/ReadVariableOp", "shape": [32], "dtype": "float32", "quantization": {"dtype": "uint8", "min": -0.5653574852382436, "scale": 0.004382616164637547, "original_dtype": "float32"}}, {"name": "StatefulPartitionedCall/model/rrdb_net/sequential/rrdb_9/rdb_27/concat_3/axis", "shape": [], "dtype": "int32"}, {"name": "StatefulPartitionedCall/model/rrdb_net/sequential/rrdb_9/rdb_27/conv2d_148/Conv2D/ReadVariableOp", "shape": [3, 3, 160, 32], "dtype": "float32", "quantization": {"dtype": "uint8", "min": -0.3069317691466388, "scale": 0.0020462117943109252, "original_dtype": "float32"}}, {"name": "StatefulPartitionedCall/model/rrdb_net/sequential/rrdb_9/rdb_27/conv2d_148/BiasAdd/ReadVariableOp", "shape": [32], "dtype": "float32", "quantization": {"dtype": "uint8", "min": -0.4526423451947231, "scale": 0.004270210803723803, "original_dtype": "float32"}}, {"name": "StatefulPartitionedCall/model/rrdb_net/sequential/rrdb_9/rdb_28/conv2d_149/Conv2D/ReadVariableOp", "shape": [3, 3, 32, 32], "dtype": "float32", "quantization": {"dtype": "uint8", "min": -0.351410908091302, "scale": 0.0024069240280226163, "original_dtype": "float32"}}, {"name": "StatefulPartitionedCall/model/rrdb_net/sequential/rrdb_9/rdb_28/conv2d_149/BiasAdd/ReadVariableOp", "shape": [32], "dtype": "float32", "quantization": {"dtype": "uint8", "min": -0.7326987839212605, "scale": 0.00605536185058893, "original_dtype": "float32"}}, {"name": "StatefulPartitionedCall/model/rrdb_net/sequential/rrdb_9/rdb_28/concat/axis", "shape": [], "dtype": "int32"}, {"name": "StatefulPartitionedCall/model/rrdb_net/sequential/rrdb_9/rdb_28/conv2d_150/Conv2D/ReadVariableOp", "shape": [3, 3, 64, 32], "dtype": "float32", "quantization": {"dtype": "uint8", "min": -0.33889146902981926, "scale": 0.002689614833569994, "original_dtype": "float32"}}, {"name": "StatefulPartitionedCall/model/rrdb_net/sequential/rrdb_9/rdb_28/conv2d_150/BiasAdd/ReadVariableOp", "shape": [32], "dtype": "float32", "quantization": {"dtype": "uint8", "min": -0.47402858138084414, "scale": 0.0039834334569818835, "original_dtype": "float32"}}, {"name": "StatefulPartitionedCall/model/rrdb_net/sequential/rrdb_9/rdb_28/concat_1/axis", "shape": [], "dtype": "int32"}, {"name": "StatefulPartitionedCall/model/rrdb_net/sequential/rrdb_9/rdb_28/conv2d_151/Conv2D/ReadVariableOp", "shape": [3, 3, 96, 32], "dtype": "float32", "quantization": {"dtype": "uint8", "min": -0.35720905053849317, "scale": 0.0026073653323977603, "original_dtype": "float32"}}, {"name": "StatefulPartitionedCall/model/rrdb_net/sequential/rrdb_9/rdb_28/conv2d_151/BiasAdd/ReadVariableOp", "shape": [32], "dtype": "float32", "quantization": {"dtype": "uint8", "min": -0.5106372868313509, "scale": 0.0034042485788756726, "original_dtype": "float32"}}, {"name": "StatefulPartitionedCall/model/rrdb_net/sequential/rrdb_9/rdb_28/concat_2/axis", "shape": [], "dtype": "int32"}, {"name": "StatefulPartitionedCall/model/rrdb_net/sequential/rrdb_9/rdb_28/conv2d_152/Conv2D/ReadVariableOp", "shape": [3, 3, 128, 32], "dtype": "float32", "quantization": {"dtype": "uint8", "min": -0.5325834120021147, "scale": 0.0038041672285865336, "original_dtype": "float32"}}, {"name": "StatefulPartitionedCall/model/rrdb_net/sequential/rrdb_9/rdb_28/conv2d_152/BiasAdd/ReadVariableOp", "shape": [32], "dtype": "float32", "quantization": {"dtype": "uint8", "min": -0.49106131289519517, "scale": 0.0027433592899172915, "original_dtype": "float32"}}, {"name": "StatefulPartitionedCall/model/rrdb_net/sequential/rrdb_9/rdb_28/concat_3/axis", "shape": [], "dtype": "int32"}, {"name": "StatefulPartitionedCall/model/rrdb_net/sequential/rrdb_9/rdb_28/conv2d_153/Conv2D/ReadVariableOp", "shape": [3, 3, 160, 32], "dtype": "float32", "quantization": {"dtype": "uint8", "min": -0.2505437182445152, "scale": 0.00212325184952979, "original_dtype": "float32"}}, {"name": "StatefulPartitionedCall/model/rrdb_net/sequential/rrdb_9/rdb_28/conv2d_153/BiasAdd/ReadVariableOp", "shape": [32], "dtype": "float32", "quantization": {"dtype": "uint8", "min": -0.3684564110110788, "scale": 0.00294765128808863, "original_dtype": "float32"}}, {"name": "StatefulPartitionedCall/model/rrdb_net/sequential/rrdb_9/rdb_29/conv2d_154/Conv2D/ReadVariableOp", "shape": [3, 3, 32, 32], "dtype": "float32", "quantization": {"dtype": "uint8", "min": -0.4391604222503363, "scale": 0.00290834716722077, "original_dtype": "float32"}}, {"name": "StatefulPartitionedCall/model/rrdb_net/sequential/rrdb_9/rdb_29/conv2d_154/BiasAdd/ReadVariableOp", "shape": [32], "dtype": "float32", "quantization": {"dtype": "uint8", "min": -0.5666543315438664, "scale": 0.0052467993661469104, "original_dtype": "float32"}}, {"name": "StatefulPartitionedCall/model/rrdb_net/sequential/rrdb_9/rdb_29/concat/axis", "shape": [], "dtype": "int32"}, {"name": "StatefulPartitionedCall/model/rrdb_net/sequential/rrdb_9/rdb_29/conv2d_155/Conv2D/ReadVariableOp", "shape": [3, 3, 64, 32], "dtype": "float32", "quantization": {"dtype": "uint8", "min": -0.4357690496771943, "scale": 0.0029246244944778144, "original_dtype": "float32"}}, {"name": "StatefulPartitionedCall/model/rrdb_net/sequential/rrdb_9/rdb_29/conv2d_155/BiasAdd/ReadVariableOp", "shape": [32], "dtype": "float32", "quantization": {"dtype": "uint8", "min": -0.5896178713031843, "scale": 0.004996761621213427, "original_dtype": "float32"}}, {"name": "StatefulPartitionedCall/model/rrdb_net/sequential/rrdb_9/rdb_29/concat_1/axis", "shape": [], "dtype": "int32"}, {"name": "StatefulPartitionedCall/model/rrdb_net/sequential/rrdb_9/rdb_29/conv2d_156/Conv2D/ReadVariableOp", "shape": [3, 3, 96, 32], "dtype": "float32", "quantization": {"dtype": "uint8", "min": -0.537943983078003, "scale": 0.0039554704638088455, "original_dtype": "float32"}}, {"name": "StatefulPartitionedCall/model/rrdb_net/sequential/rrdb_9/rdb_29/conv2d_156/BiasAdd/ReadVariableOp", "shape": [32], "dtype": "float32", "quantization": {"dtype": "uint8", "min": -0.4291909968151766, "scale": 0.0029599379090701834, "original_dtype": "float32"}}, {"name": "StatefulPartitionedCall/model/rrdb_net/sequential/rrdb_9/rdb_29/concat_2/axis", "shape": [], "dtype": "int32"}, {"name": "StatefulPartitionedCall/model/rrdb_net/sequential/rrdb_9/rdb_29/conv2d_157/Conv2D/ReadVariableOp", "shape": [3, 3, 128, 32], "dtype": "float32", "quantization": {"dtype": "uint8", "min": -0.5936068296432495, "scale": 0.005396425724029541, "original_dtype": "float32"}}, {"name": "StatefulPartitionedCall/model/rrdb_net/sequential/rrdb_9/rdb_29/conv2d_157/BiasAdd/ReadVariableOp", "shape": [32], "dtype": "float32", "quantization": {"dtype": "uint8", "min": -0.34406299871556895, "scale": 0.0025114087497486786, "original_dtype": "float32"}}, {"name": "StatefulPartitionedCall/model/rrdb_net/sequential/rrdb_9/rdb_29/concat_3/axis", "shape": [], "dtype": "int32"}, {"name": "StatefulPartitionedCall/model/rrdb_net/sequential/rrdb_9/rdb_29/conv2d_158/Conv2D/ReadVariableOp", "shape": [3, 3, 160, 32], "dtype": "float32", "quantization": {"dtype": "uint8", "min": -0.5933300803689395, "scale": 0.0035317266688627354, "original_dtype": "float32"}}, {"name": "StatefulPartitionedCall/model/rrdb_net/sequential/rrdb_9/rdb_29/conv2d_158/BiasAdd/ReadVariableOp", "shape": [32], "dtype": "float32", "quantization": {"dtype": "uint8", "min": -0.032826125183526206, "scale": 0.0002668790665327334, "original_dtype": "float32"}}, {"name": "StatefulPartitionedCall/model/rrdb_net/sequential/rrdb_10/rdb_30/conv2d_159/Conv2D/ReadVariableOp", "shape": [3, 3, 32, 32], "dtype": "float32", "quantization": {"dtype": "uint8", "min": -0.28078609617317424, "scale": 0.0020798970086901795, "original_dtype": "float32"}}, {"name": "StatefulPartitionedCall/model/rrdb_net/sequential/rrdb_10/rdb_30/conv2d_159/BiasAdd/ReadVariableOp", "shape": [32], "dtype": "float32", "quantization": {"dtype": "uint8", "min": -0.4164000749588013, "scale": 0.004626667499542237, "original_dtype": "float32"}}, {"name": "StatefulPartitionedCall/model/rrdb_net/sequential/rrdb_10/rdb_30/concat/axis", "shape": [], "dtype": "int32"}, {"name": "StatefulPartitionedCall/model/rrdb_net/sequential/rrdb_10/rdb_30/conv2d_160/Conv2D/ReadVariableOp", "shape": [3, 3, 64, 32], "dtype": "float32", "quantization": {"dtype": "uint8", "min": -0.45766660816529214, "scale": 0.0028966241023119757, "original_dtype": "float32"}}, {"name": "StatefulPartitionedCall/model/rrdb_net/sequential/rrdb_10/rdb_30/conv2d_160/BiasAdd/ReadVariableOp", "shape": [32], "dtype": "float32", "quantization": {"dtype": "uint8", "min": -0.6184891308055205, "scale": 0.005241433311911191, "original_dtype": "float32"}}, {"name": "StatefulPartitionedCall/model/rrdb_net/sequential/rrdb_10/rdb_30/concat_1/axis", "shape": [], "dtype": "int32"}, {"name": "StatefulPartitionedCall/model/rrdb_net/sequential/rrdb_10/rdb_30/conv2d_161/Conv2D/ReadVariableOp", "shape": [3, 3, 96, 32], "dtype": "float32", "quantization": {"dtype": "uint8", "min": -0.3894141965052661, "scale": 0.003165969077278586, "original_dtype": "float32"}}, {"name": "StatefulPartitionedCall/model/rrdb_net/sequential/rrdb_10/rdb_30/conv2d_161/BiasAdd/ReadVariableOp", "shape": [32], "dtype": "float32", "quantization": {"dtype": "uint8", "min": -0.3896020365696327, "scale": 0.005126342586442536, "original_dtype": "float32"}}, {"name": "StatefulPartitionedCall/model/rrdb_net/sequential/rrdb_10/rdb_30/concat_2/axis", "shape": [], "dtype": "int32"}, {"name": "StatefulPartitionedCall/model/rrdb_net/sequential/rrdb_10/rdb_30/conv2d_162/Conv2D/ReadVariableOp", "shape": [3, 3, 128, 32], "dtype": "float32", "quantization": {"dtype": "uint8", "min": -0.5831943540012136, "scale": 0.00388796236000809, "original_dtype": "float32"}}, {"name": "StatefulPartitionedCall/model/rrdb_net/sequential/rrdb_10/rdb_30/conv2d_162/BiasAdd/ReadVariableOp", "shape": [32], "dtype": "float32", "quantization": {"dtype": "uint8", "min": -0.12473475512336282, "scale": 0.0025986407317367256, "original_dtype": "float32"}}, {"name": "StatefulPartitionedCall/model/rrdb_net/sequential/rrdb_10/rdb_30/concat_3/axis", "shape": [], "dtype": "int32"}, {"name": "StatefulPartitionedCall/model/rrdb_net/sequential/rrdb_10/rdb_30/conv2d_163/Conv2D/ReadVariableOp", "shape": [3, 3, 160, 32], "dtype": "float32", "quantization": {"dtype": "uint8", "min": -0.33989496231079097, "scale": 0.0023603816827138264, "original_dtype": "float32"}}, {"name": "StatefulPartitionedCall/model/rrdb_net/sequential/rrdb_10/rdb_30/conv2d_163/BiasAdd/ReadVariableOp", "shape": [32], "dtype": "float32", "quantization": {"dtype": "uint8", "min": -0.15535626376376432, "scale": 0.0011680922087501076, "original_dtype": "float32"}}, {"name": "StatefulPartitionedCall/model/rrdb_net/sequential/rrdb_10/rdb_31/conv2d_164/Conv2D/ReadVariableOp", "shape": [3, 3, 32, 32], "dtype": "float32", "quantization": {"dtype": "uint8", "min": -0.2350643092510747, "scale": 0.0017943840400845396, "original_dtype": "float32"}}, {"name": "StatefulPartitionedCall/model/rrdb_net/sequential/rrdb_10/rdb_31/conv2d_164/BiasAdd/ReadVariableOp", "shape": [32], "dtype": "float32", "quantization": {"dtype": "uint8", "min": -0.4112020113888909, "scale": 0.0033983637304867017, "original_dtype": "float32"}}, {"name": "StatefulPartitionedCall/model/rrdb_net/sequential/rrdb_10/rdb_31/concat/axis", "shape": [], "dtype": "int32"}, {"name": "StatefulPartitionedCall/model/rrdb_net/sequential/rrdb_10/rdb_31/conv2d_165/Conv2D/ReadVariableOp", "shape": [3, 3, 64, 32], "dtype": "float32", "quantization": {"dtype": "uint8", "min": -0.3235307861776913, "scale": 0.0028133111841538373, "original_dtype": "float32"}}, {"name": "StatefulPartitionedCall/model/rrdb_net/sequential/rrdb_10/rdb_31/conv2d_165/BiasAdd/ReadVariableOp", "shape": [32], "dtype": "float32", "quantization": {"dtype": "uint8", "min": -0.31480943841092723, "scale": 0.0024788144756765925, "original_dtype": "float32"}}, {"name": "StatefulPartitionedCall/model/rrdb_net/sequential/rrdb_10/rdb_31/concat_1/axis", "shape": [], "dtype": "int32"}, {"name": "StatefulPartitionedCall/model/rrdb_net/sequential/rrdb_10/rdb_31/conv2d_166/Conv2D/ReadVariableOp", "shape": [3, 3, 96, 32], "dtype": "float32", "quantization": {"dtype": "uint8", "min": -0.492588742574056, "scale": 0.003621976048338647, "original_dtype": "float32"}}, {"name": "StatefulPartitionedCall/model/rrdb_net/sequential/rrdb_10/rdb_31/conv2d_166/BiasAdd/ReadVariableOp", "shape": [32], "dtype": "float32", "quantization": {"dtype": "uint8", "min": -0.17057587101179011, "scale": 0.001322293573734807, "original_dtype": "float32"}}, {"name": "StatefulPartitionedCall/model/rrdb_net/sequential/rrdb_10/rdb_31/concat_2/axis", "shape": [], "dtype": "int32"}, {"name": "StatefulPartitionedCall/model/rrdb_net/sequential/rrdb_10/rdb_31/conv2d_167/Conv2D/ReadVariableOp", "shape": [3, 3, 128, 32], "dtype": "float32", "quantization": {"dtype": "uint8", "min": -0.45507227579752607, "scale": 0.003824136771407782, "original_dtype": "float32"}}, {"name": "StatefulPartitionedCall/model/rrdb_net/sequential/rrdb_10/rdb_31/conv2d_167/BiasAdd/ReadVariableOp", "shape": [32], "dtype": "float32", "quantization": {"dtype": "uint8", "min": -0.10860461464115218, "scale": 0.000936246677940967, "original_dtype": "float32"}}, {"name": "StatefulPartitionedCall/model/rrdb_net/sequential/rrdb_10/rdb_31/concat_3/axis", "shape": [], "dtype": "int32"}, {"name": "StatefulPartitionedCall/model/rrdb_net/sequential/rrdb_10/rdb_31/conv2d_168/Conv2D/ReadVariableOp", "shape": [3, 3, 160, 32], "dtype": "float32", "quantization": {"dtype": "uint8", "min": -0.31022609332028556, "scale": 0.002462111851748298, "original_dtype": "float32"}}, {"name": "StatefulPartitionedCall/model/rrdb_net/sequential/rrdb_10/rdb_31/conv2d_168/BiasAdd/ReadVariableOp", "shape": [32], "dtype": "float32", "quantization": {"dtype": "uint8", "min": -0.0953061061746934, "scale": 0.0007563976680531222, "original_dtype": "float32"}}, {"name": "StatefulPartitionedCall/model/rrdb_net/sequential/rrdb_10/rdb_32/conv2d_169/Conv2D/ReadVariableOp", "shape": [3, 3, 32, 32], "dtype": "float32", "quantization": {"dtype": "uint8", "min": -0.23813561201095584, "scale": 0.002145365873972575, "original_dtype": "float32"}}, {"name": "StatefulPartitionedCall/model/rrdb_net/sequential/rrdb_10/rdb_32/conv2d_169/BiasAdd/ReadVariableOp", "shape": [32], "dtype": "float32", "quantization": {"dtype": "uint8", "min": -0.18616211431867935, "scale": 0.0021397944174560844, "original_dtype": "float32"}}, {"name": "StatefulPartitionedCall/model/rrdb_net/sequential/rrdb_10/rdb_32/concat/axis", "shape": [], "dtype": "int32"}, {"name": "StatefulPartitionedCall/model/rrdb_net/sequential/rrdb_10/rdb_32/conv2d_170/Conv2D/ReadVariableOp", "shape": [3, 3, 64, 32], "dtype": "float32", "quantization": {"dtype": "uint8", "min": -0.399797659294278, "scale": 0.0028556975663877, "original_dtype": "float32"}}, {"name": "StatefulPartitionedCall/model/rrdb_net/sequential/rrdb_10/rdb_32/conv2d_170/BiasAdd/ReadVariableOp", "shape": [32], "dtype": "float32", "quantization": {"dtype": "uint8", "min": -0.18684903155354893, "scale": 0.001271081847303054, "original_dtype": "float32"}}, {"name": "StatefulPartitionedCall/model/rrdb_net/sequential/rrdb_10/rdb_32/concat_1/axis", "shape": [], "dtype": "int32"}, {"name": "StatefulPartitionedCall/model/rrdb_net/sequential/rrdb_10/rdb_32/conv2d_171/Conv2D/ReadVariableOp", "shape": [3, 3, 96, 32], "dtype": "float32", "quantization": {"dtype": "uint8", "min": -0.3841044166508843, "scale": 0.0028452179011176615, "original_dtype": "float32"}}, {"name": "StatefulPartitionedCall/model/rrdb_net/sequential/rrdb_10/rdb_32/conv2d_171/BiasAdd/ReadVariableOp", "shape": [32], "dtype": "float32", "quantization": {"dtype": "uint8", "min": -0.15341720204142964, "scale": 0.0009298012244935129, "original_dtype": "float32"}}, {"name": "StatefulPartitionedCall/model/rrdb_net/sequential/rrdb_10/rdb_32/concat_2/axis", "shape": [], "dtype": "int32"}, {"name": "StatefulPartitionedCall/model/rrdb_net/sequential/rrdb_10/rdb_32/conv2d_172/Conv2D/ReadVariableOp", "shape": [3, 3, 128, 32], "dtype": "float32", "quantization": {"dtype": "uint8", "min": -0.4247975508371989, "scale": 0.0035697273179596547, "original_dtype": "float32"}}, {"name": "StatefulPartitionedCall/model/rrdb_net/sequential/rrdb_10/rdb_32/conv2d_172/BiasAdd/ReadVariableOp", "shape": [32], "dtype": "float32", "quantization": {"dtype": "uint8", "min": -0.1269997032249675, "scale": 0.0010854675489313462, "original_dtype": "float32"}}, {"name": "StatefulPartitionedCall/model/rrdb_net/sequential/rrdb_10/rdb_32/concat_3/axis", "shape": [], "dtype": "int32"}, {"name": "StatefulPartitionedCall/model/rrdb_net/sequential/rrdb_10/rdb_32/conv2d_173/Conv2D/ReadVariableOp", "shape": [3, 3, 160, 32], "dtype": "float32", "quantization": {"dtype": "uint8", "min": -0.2684757496796402, "scale": 0.0022006208990134443, "original_dtype": "float32"}}, {"name": "StatefulPartitionedCall/model/rrdb_net/sequential/rrdb_10/rdb_32/conv2d_173/BiasAdd/ReadVariableOp", "shape": [32], "dtype": "float32", "quantization": {"dtype": "uint8", "min": -0.07903567482443416, "scale": 0.0004878745359532973, "original_dtype": "float32"}}, {"name": "StatefulPartitionedCall/model/rrdb_net/conv2d_174/Conv2D/ReadVariableOp", "shape": [3, 3, 32, 32], "dtype": "float32", "quantization": {"dtype": "uint8", "min": -0.2138260071184121, "scale": 0.0016836693473890716, "original_dtype": "float32"}}, {"name": "StatefulPartitionedCall/model/rrdb_net/conv2d_174/BiasAdd/ReadVariableOp", "shape": [32], "dtype": "float32", "quantization": {"dtype": "uint8", "min": -0.019823044896417973, "scale": 0.00032496794912160613, "original_dtype": "float32"}}, {"name": "StatefulPartitionedCall/model/rrdb_net/conv2d_8/Conv2D/ReadVariableOp", "shape": [3, 3, 3, 32], "dtype": "float32", "quantization": {"dtype": "uint8", "min": -0.16525928272920495, "scale": 0.0012910881463219137, "original_dtype": "float32"}}, {"name": "StatefulPartitionedCall/model/rrdb_net/conv2d_8/BiasAdd/ReadVariableOp", "shape": [32], "dtype": "float32", "quantization": {"dtype": "uint8", "min": -0.21093135879320257, "scale": 0.0028894706684000353, "original_dtype": "float32"}}, {"name": "StatefulPartitionedCall/model/rrdb_net/conv2d_transpose/BiasAdd/ReadVariableOp", "shape": [32], "dtype": "float32", "quantization": {"dtype": "uint8", "min": -0.08004195695998623, "scale": 0.0004397909723076166, "original_dtype": "float32"}}, {"name": "StatefulPartitionedCall/model/rrdb_net/conv2d_transpose_1/BiasAdd/ReadVariableOp", "shape": [32], "dtype": "float32", "quantization": {"dtype": "uint8", "min": -0.05817318698939155, "scale": 0.00036818472778095917, "original_dtype": "float32"}}, {"name": "StatefulPartitionedCall/model/rrdb_net/conv2d_175/Conv2D/ReadVariableOp", "shape": [3, 3, 32, 32], "dtype": "float32", "quantization": {"dtype": "uint8", "min": -0.27756104644607094, "scale": 0.001940986338783713, "original_dtype": "float32"}}, {"name": "StatefulPartitionedCall/model/rrdb_net/conv2d_175/BiasAdd/ReadVariableOp", "shape": [32], "dtype": "float32", "quantization": {"dtype": "uint8", "min": -0.13791426490334904, "scale": 0.0006384919671451344, "original_dtype": "float32"}}, {"name": "StatefulPartitionedCall/model/rrdb_net/conv2d_176/Conv2D/ReadVariableOp", "shape": [3, 3, 32, 3], "dtype": "float32", "quantization": {"dtype": "uint8", "min": -0.1724249303340912, "scale": 0.0016904404934714823, "original_dtype": "float32"}}, {"name": "StatefulPartitionedCall/model/rrdb_net/conv2d_176/BiasAdd/ReadVariableOp", "shape": [3], "dtype": "float32", "quantization": {"dtype": "uint8", "min": -0.022057998541961697, "scale": 0.00012462146068904914, "original_dtype": "float32"}}]}]}